models/model_conv_lacc_xy_200_l2.pkl (torch, 185423 bytes, 12 tensors)

weight f4 [16, 1, 5]
000000 46 21 06 be 8b e5 ef 3e 26 56 f4 be e6 46 11 3e
       -0.1309863 0.46854815 -0.47721976 0.14187202
000010 16 05 83 be 75 17 06 bf f6 0e 01 3f 32 3b cd 3e
       -0.25589818 -0.5237954 0.50413454 0.40084225
000020 19 67 85 3e 9d 41 e3 3e d6 5e aa 3d b4 6e 5a bf
       0.2605522 0.44385996 0.0831887 -0.8532517
000030 ca ac d6 3c a6 fa 43 bd 43 14 e3 3b e1 84 24 bf
       0.02620544 -0.04784646 0.0069299056 -0.6426526
000040 2c a8 38 bb 1f 71 ca be 93 60 3a bd 61 56 0d bf
       -0.002817641 -0.3953943 -0.045502257 -0.5520993
000050 3e b4 cc 3d 0f 9f 82 bf 75 52 f6 3e 3f f1 85 be
       0.09995316 -1.0204791 0.48109785 -0.2616062
000060 34 f7 b2 bd f1 34 70 be 40 fb c2 3d f4 6e 8e bb
       -0.087385565 -0.23457696 0.095205784 -0.0043467227
000070 5f 79 12 bf bc f1 08 3d f3 e8 fc 3d 33 eb 51 bf
       -0.5721645 0.03343366 0.12349119 -0.8199951
000080 ce b3 c3 be d8 cd a2 3d e7 ae 0b 3e 7b e8 97 3f
       -0.38223118 0.07949418 0.13640939 1.1867822
000090 4e 32 bd 3e b7 78 91 3e 61 c0 83 3e 9b f8 a3 3d
       0.36952442 0.2841241 0.2573271 0.08006402
0000a0 ff a4 9b bf b2 29 a0 bd 66 8f 08 bf d5 5e 0b be
       -1.2159728 -0.07820453 -0.5334381 -0.13610394
0000b0 d3 29 ed be 2a de 19 3e 70 89 5d 3f d4 30 8a 3e
       -0.46320972 0.15026155 0.8653784 0.26990378
0000c0 74 d7 02 3c 08 be 7d 3e 04 51 aa 3e 17 7e e0 3e
       0.007985938 0.24779522 0.33264935 0.438462
0000d0 22 f0 8a 3f 2d 8b 53 3e da 67 04 bf 10 d4 80 be
       1.0854533 0.2065856 -0.51720965 -0.2516179
0000e0 c7 3b d3 3e c7 82 b1 bf 54 1c 19 3e fe 13 d5 3c
       0.41256544 -1.3868035 0.14952213 0.02601051
0000f0 01 31 4c 3e fe a4 a6 bf 87 ba 0e 3e 6f 70 48 3e
       0.19940569 -1.3019102 0.13938342 0.1957414
000100 01 fb 88 3d 40 15 74 3e 81 f8 65 bd de 47 16 bf
       0.066885 0.23836231 -0.056145195 -0.5870341
000110 c3 99 a7 3e 01 d0 a5 be 47 a6 a3 be 89 f2 b5 3e
       0.32734498 -0.32385257 -0.31962797 0.35536602
000120 46 95 34 3f f4 bc 73 bc 61 22 d4 be 8d 24 5e bf
       0.70540273 -0.014876593 -0.4143248 -0.8677452
000130 7d fe a7 bd be c7 9c 3f 0c 48 88 3e f2 20 e3 3d
       -0.08202837 1.2248456 0.26617467 0.11090268

bias f4 [16]
000000 53 30 2e bd 2d 46 88 3e 02 61 e9 3e 8c dc 22 3f
       -0.042526554 0.2661604 0.45581824 0.6361778
000010 ef b9 8d 3e e9 47 24 be 52 83 05 3e 7a d1 8a be
       0.2768092 -0.16043057 0.13038376 -0.27112943
000020 be 86 10 be b8 02 4e 3e d5 c1 92 3e f5 76 6f 3d
       -0.141139 0.20118225 0.28663507 0.058463056
000030 4b ec 81 3e 30 d9 23 3f 03 ed 3e be 08 47 93 3e
       0.2537559 0.64003277 -0.186451 0.2876513

weight f4 [64, 16, 2]
000000 fa c8 35 be 1d 78 c7 bd f6 9d 21 3d 0e b7 65 bc
       -0.17752448 -0.09739707 0.039457284 -0.014020694
000010 ef 85 e3 3d 45 22 b3 3e 22 d8 73 3e 0c 15 97 bc
       0.1110953 0.34987083 0.23812917 -0.018442653
000020 3e 38 e1 3d ea 1d 0b 3c 73 1f 4f be 82 7f 9f bd
       0.109970555 0.008491019 -0.2022684 -0.07787992
000030 ca 91 32 3e be 7a a7 3d a0 24 71 be 1c 0f 63 be
       0.17438427 0.08177708 -0.23549128 -0.22173733
000040 d5 33 31 3e 7a 62 18 3d 00 d1 51 be 72 2c 96 3c
       0.17304929 0.03720329 -0.20489883 0.01833174
000050 0f c2 8d bd 49 03 e9 bd 9e 8b 01 3d d4 a4 c4 bd
       -0.06921779 -0.1137758 0.03162729 -0.09601751
000060 9f 19 98 3e 1c 64 97 3e ae 05 1b 3d 2c 2b 30 3e
       0.29707047 0.29568565 0.037847213 0.17203969
000070 f2 94 a3 be d0 3d 96 be eb e7 c9 bc c2 4d 69 bd
       -0.31949574 -0.29344034 -0.02464672 -0.05695892
000080 f1 d0 dd bd c8 3a 5c bd 69 78 53 3e 94 0f a8 bd
       -0.10830868 -0.053766996 0.20651402 -0.08206096
000090 e5 fb 6d bd 7a 64 85 bd ce 4c 45 bd 19 af 46 3d
       -0.058101553 -0.06513305 -0.04816895 0.04850683
0000a0 d5 c3 14 3e 28 ac 5f 3d f9 de 47 3d 19 1c ee bc
       0.14527829 0.05460754 0.048796628 -0.029066132
0000b0 dd 3b 80 bc d9 e5 17 3e 6f 2f e7 3d 57 c8 e4 3d
       -0.015653545 0.14833774 0.11288344 0.11171024
0000c0 27 cc fc 3c 15 98 18 bd 43 61 91 bc 61 ef 15 be
       0.030859066 -0.03725441 -0.017746573 -0.14642097
0000d0 10 a6 48 3e c8 e7 12 3e 8d 87 6a be 89 6f 8a 3e
       0.19594598 0.1434623 -0.22903271 0.2703822
0000e0 c3 c3 84 bd 42 9e 82 bd 5f 4a 0e be 49 e9 e4 bd
       -0.06482651 -0.063778415 -0.13895558 -0.11177308
0000f0 c8 ba 3c bd 78 bb 74 bd 8e f2 0d 3d b5 d6 62 be
       -0.046076566 -0.059749097 0.034655146 -0.22152217
000100 53 c2 3b 3e a4 f1 1f be 96 c7 cf bd e3 c6 1e 3e
       0.18335848 -0.15619522 -0.1014549 0.15505557
000110 09 06 8d bd ef 6a 44 bd 47 c9 51 3d 0b 6d 2f 3c
       -0.06885917 -0.047953542 0.051217344 0.01070715
000120 87 21 2d bd 28 ba 22 3e f1 ac 81 3a 43 10 da bc
       -0.042268302 0.15891325 0.000989346 -0.026619082
000130 23 8d 61 bc 09 6c b6 bd 2f ce 5e bd 0a b5 12 be
       -0.01376656 -0.08907325 -0.05439585 -0.14326873
000140 c5 85 07 3e 09 63 6c 3d d0 f1 99 bd 9c 66 0d be
       0.13234623 0.057711635 -0.07516825 -0.13808674
000150 62 7c 27 3d 97 a5 16 3e 70 ff 57 bd bf 93 55 be
       0.040890105 0.14711605 -0.05273384 -0.20857142
000160 73 db 4c bd ac 12 55 3d 2a c9 9b 3c 8e ab 94 3d
       -0.05001397 0.05201976 0.019016821 0.07259284
000170 f1 fd 03 3e b0 d2 13 3e ed d1 38 3e 80 20 48 bc
       0.1288984 0.1443584 0.1804883 -0.01221478
000180 63 05 8a be 1e 8c 94 bd 54 a1 2d 3c 66 3d d5 bd
       -0.26957235 -0.07253288 0.010597546 -0.104121014
000190 c7 e2 9f 3e 46 be 0b be 44 99 af 3d ca b6 c4 3d
       0.31227705 -0.13646802 0.08574155 0.09605177
0001a0 c0 16 d3 3d c0 d7 29 bc 9b ce 51 3d b1 64 2a 3e
       0.103070736 -0.01036638 0.051222425 0.16639973
0001b0 a7 57 4d bd 09 8d 74 3d 28 3f e8 3c c2 2f 12 3e
       -0.05013242 0.059704814 0.028350428 0.1427603
0001c0 f6 a0 a3 3d bd 19 50 3e 1e 88 ad bb 1e 5e 62 bd
       0.07989685 0.20322318 -0.0052957674 -0.05526554
0001d0 31 18 30 3c c9 ed 19 3e 95 96 6b be 9f e4 0b 3e
       0.010747955 0.15032114 -0.23006661 0.13661431
0001e0 fe 17 79 3d ae 37 a1 3d 35 a6 cb 3d da 15 26 bd
       0.060813896 0.07871948 0.09943811 -0.040548183
0001f0 25 96 33 3e b0 8f 9a be 7d 31 56 3e 80 e3 31 bd
       0.17537744 -0.3018775 0.20917316 -0.04342985
000200 c3 ab 01 3d 78 57 37 3d b0 f9 37 be 05 66 04 3e
       0.031657945 0.04476115 -0.17966342 0.12929542
000210 5a 6f 58 3d b1 2b dd bd 27 4d 8d be c7 3a 56 be
       0.052840568 -0.10799349 -0.27597925 -0.2092086
000220 da 7e e3 3e 92 63 ae 3d 31 8e 16 3f 1f 8f a3 3e
       0.44432718 0.08515085 0.58810717 0.3194513
000230 2c ab a2 bd 73 d9 b6 bd 87 29 ad 3e 62 65 3d 3e
       -0.07942805 -0.08928194 0.33820745 0.18495706
000240 98 2f 20 bc e5 d4 a9 bd d1 26 1d be 04 e4 11 3e
       -0.009776972 -0.082925595 -0.15346839 0.14247137
000250 b8 15 ec 3c f7 0f 49 3e ac 7d 6a 3d 78 79 8a bd
       0.02881895 0.19634996 0.057248756 -0.067614496
000260 11 af 89 3e 4d e7 ba bc 1f c3 77 be 80 b1 4a be
       0.26891378 -0.022815371 -0.24195527 -0.19794273
000270 ef 25 a1 3e 8e aa e8 3e 27 6f 7e 3e 5f 37 87 3d
       0.31474254 0.45442623 0.24847089 0.06602358
000280 a4 cb 3b be c3 4f af bb 72 69 40 be 80 af 00 bd
       -0.18339401 -0.0053500845 -0.18790224 -0.03141737
000290 70 ed f0 3d 05 a6 50 3e 26 db 80 bd 9a c4 e9 bd
       0.117640376 0.20375831 -0.06291799 -0.11414452
0002a0 6a fc a9 3b a5 c9 c5 3d 6d 1c eb 3c be fc 31 be
       0.005187561 0.09657601 0.028700078 -0.1738157
0002b0 77 cf a7 3e da bc 38 bd 2e e3 ea bd 8c 28 11 bd
       0.3277547 -0.045101978 -0.11469112 -0.03543906
0002c0 78 d9 81 bd 91 b4 06 be 22 0c ae be 70 62 99 be
       -0.06340307 -0.13154818 -0.33993632 -0.29957914
0002d0 a8 74 f8 3d 15 2b 54 3d 8e b1 24 3b 55 27 ae bd
       0.121316254 0.0517989 0.0025130245 -0.08503596
0002e0 2c f8 93 3e 3f ee 47 3e 02 5c 8e bd c1 23 86 3c
       0.28900278 0.19524477 -0.06951143 0.01637447
0002f0 6b 47 53 be b1 8c c1 bd a4 b4 17 3e ca 3e af bd
       -0.20632713 -0.09450663 0.14815003 -0.08556898
000300 56 ba ac be 56 d4 3a be 8e f3 6f bc 15 92 34 3e
       -0.33735913 -0.18245062 -0.01464547 0.17633851
000310 2f f1 44 be ec e9 22 be 62 f2 b2 3d fb 96 72 3d
       -0.19232629 -0.15909547 0.08737637 0.059226017
000320 49 ee 8b 3d 08 05 d5 bd 2d 38 31 bb cf b8 77 bd
       0.06832559 -0.1040135 -0.002704154 -0.06047898
000330 ca 98 3b be c2 70 44 bc 47 7e 87 be ef ac 4c be
       -0.18320003 -0.011989774 -0.2646353 -0.19987844
000340 bc db 59 3e 9a 78 4f be cf 51 37 3e cf 4c bb 3d
       0.21275228 -0.2026085 0.17902301 0.091455095
000350 34 52 df 3d af 44 f0 3d 46 fd da be 23 48 c1 bd
       0.10904351 0.1173185 -0.42771357 -0.09437587
000360 b9 90 31 be a0 7e 52 be f1 3d 54 be 70 ff 15 3b
       -0.17340364 -0.20556116 -0.20726754 0.0022887848
000370 aa b7 67 3e fd a6 07 3e da a9 5f bd 3d ae 6f bd
       0.22628656 0.13247295 -0.054605342 -0.058515776
000380 74 56 68 3e 5e 1d 2a bd 07 52 03 bc 60 a9 c8 bd
       0.22689229 -0.041531913 -0.008015162 -0.09797931
000390 e4 ca 91 3d 4d 61 aa bd b8 b0 d5 bd fe 58 2d bd
       0.071187764 -0.0831934 -0.10434097 -0.042321198
0003a0 c8 ba 01 3e ee f5 39 3d 4d f3 48 3e 0f d1 6a bd
       0.12668908 0.045400552 0.19624062 -0.05732828
0003b0 2e bb 20 bb e4 11 c2 bd d8 db e7 3d 37 3b 6e bd
       -0.002452563 -0.094760686 0.11321229 -0.05816194
0003c0 62 dc f9 bc 02 9a 55 be c7 e7 4f bd 7a c6 23 3e
       -0.030500595 -0.2085953 -0.05075815 0.15993682
0003d0 76 22 9d 3d 37 31 da 3d 62 66 ba bd d8 55 9b bc
       0.076725885 0.10653918 -0.09101559 -0.018961832
0003e0 34 e6 60 bd 90 5f c8 3d b1 39 6f 3d 79 b4 9a bd
       -0.05490704 0.09783852 0.05840463 -0.07553954
0003f0 35 de 2b 3e ea d2 8f 3e b6 b8 9f 3d fd 5f da 3d
       0.16783984 0.28090602 0.07798903 0.106628396

bias f4 [64]
000000 09 98 60 3e 77 46 72 3d 04 9b 43 3e 5d 08 f6 3d
       0.21932997 0.05914923 0.19102103 0.12013314
000010 b6 db 56 bc bd 7f d0 3d be 28 12 3e dd 5c 0a 3d
       -0.013113907 0.10180614 0.14273354 0.033779968
000020 97 85 d6 3c 45 72 e8 3d 10 b8 c5 bd 23 61 4f 3e
       0.026186747 0.1134992 -0.09654248 0.20251898
000030 9c 37 ff 3d 13 dc 60 3d d6 a6 3b be 9a 72 44 3e
       0.124617785 0.05489738 -0.18325362 0.19184342
000040 8e 28 a8 bd 70 c4 21 3e 1c e5 8c bd 23 c1 0c 3e
       -0.0821086 0.15797591 -0.06879637 0.13745551
000050 e2 0a 17 be 41 d7 94 3d 83 e7 be bd c3 fd 42 3e
       -0.14750245 0.07267619 -0.09321501 0.19042115
000060 3b 55 90 bd 4e fa af be 38 73 6b be 0a 16 7e bd
       -0.070475064 -0.34370655 -0.22993171 -0.062032737
000070 cb 8e 2d 3d 5f f6 5d bc b4 ab 31 be 31 7d 11 3e
       0.042372506 -0.013547509 -0.17350656 0.14207913
000080 06 a1 b4 be a5 be 38 bc 61 36 d4 bd 06 e9 6a be
       -0.352791 -0.011275922 -0.103619345 -0.22940454
000090 52 76 2c bd cf ee 21 be c3 07 38 3e af 21 c4 3d
       -0.042105027 -0.15813754 0.17971711 0.09576737
0000a0 26 f1 15 3e 19 87 a2 bd 89 d1 0c 3d 97 cd 76 bd
       0.14642772 -0.07935924 0.034379516 -0.06025466
0000b0 e9 02 89 3e 4c 3c 74 bd c9 9e 58 3d 25 c5 53 3e
       0.26760033 -0.059627816 0.052885804 0.20680673
0000c0 63 2b 61 3e 53 30 45 bd cc 05 6f bc 19 3d 37 bc
       0.21989207 -0.04814179 -0.014588784 -0.011184
0000d0 67 f4 ce 3d 14 8d 8b be a4 9e 82 be f4 96 1b bd
       0.1010521 -0.27256072 -0.25511658 -0.037985757
0000e0 a4 bf 5f 3d a9 1c 7a be 8f 61 d9 3d 60 08 65 be
       0.054626122 -0.24424995 0.10614311 -0.22366476
0000f0 83 f0 4d 3e a7 83 33 bd 7d fb dc bb 61 97 76 3e
       0.20111279 -0.043826725 -0.006743847 0.24081184

weight f4 [128, 64]
000000 19 41 cb bd 81 05 f9 3d 9a b0 a3 bd 63 ba a5 3d
       -0.09924526 0.12159253 -0.079926684 0.08092191
000010 d6 00 02 be ed 6c 5e be b9 5a 74 3d ed 18 55 bd
       -0.12695631 -0.2172124 0.059656832 -0.052025724
000020 d0 3d 7c 3d 0f 8c 9e 3b 5d 3b 52 3b 29 cd ff bd
       0.061582386 0.0048384736 0.003207884 -0.12490303
000030 2c 87 d7 bd 9f 59 17 bc 8b a8 b5 bd 15 04 b7 bd
       -0.10523829 -0.009237676 -0.08870038 -0.089363255
000040 5e f1 0f be df 87 f9 3d 25 d8 5d be 9b ee 73 3d
       -0.14056918 0.121841185 -0.21664484 0.059553724
000050 b6 f5 b6 bd be 0e 74 3d 05 dd d9 bc fb a6 2d bd
       -0.089335844 0.05958437 -0.026594648 -0.042395573
000060 6a 3b c0 3d 33 ae 75 bd d6 4b 17 3b 1a 6f bc bd
       0.09386332 -0.059980582 0.0023085973 -0.092008784
000070 97 4b d3 bd db f7 96 bd dc 56 3a be 16 ca 4c be
       -0.10317152 -0.073714934 -0.18197197 -0.19998965
000080 53 83 d7 3d 35 5f 26 3d 89 5d 96 3d 06 34 51 be
       0.10523095 0.04061814 0.07342059 -0.20430002
000090 3a 68 af bd bf 19 40 3d 8c 47 82 bd a2 ba 97 3d
       -0.085648015 0.046899553 -0.06361303 0.07408644
0000a0 cd 48 91 3d af f7 9b 3d 9a f4 e9 bd c5 c9 67 bc
       0.07093964 0.07615601 -0.11423607 -0.014147227
0000b0 ee 9a 8d 3b 4d 4d b9 bd 18 04 fb bb 16 ff 41 3e
       0.0043214476 -0.09047947 -0.0076604 0.18944964
0000c0 57 f4 e0 3d 9a cc c9 3d c4 d0 9b bd 09 26 65 3c
       0.10984104 0.09853478 -0.07608178 0.013986119
0000d0 f9 17 88 3d f7 3e 90 bd da e2 f1 bd 8a 92 b3 3d
       0.066451974 -0.070432596 -0.118108466 0.087681845
0000e0 d3 43 9e 3d 4a ab 49 3e 1a c6 ff 3d f7 fa 15 be
       0.0772778 0.19694248 0.12488957 -0.14646517
0000f0 e8 a1 3c bb 42 07 68 be fc 10 af be e3 f0 50 3d
       -0.0028783027 -0.22659019 -0.34192646 0.051010977
000100 3a 41 69 be 85 5d 58 3e 82 a4 eb 3b ab cb 18 bd
       -0.22778788 0.21129425 0.0071912417 -0.037303608
000110 d7 54 96 bd 46 48 68 be 07 66 47 3e f4 99 9d 3d
       -0.07340401 -0.2268382 0.19472514 0.0769538
000120 96 4f 9e bc 64 1c 1d 3e 1d 56 2b be 21 52 c8 3c
       -0.019325059 0.15342861 -0.16732068 0.024453225
000130 ab f1 a6 3c 1a 89 5b 3d 96 ef 63 bd 2b a2 f3 bc
       0.020378908 0.053597547 -0.05564841 -0.029740414
000140 af 3f 6d bd d8 d5 f6 bb c3 63 f2 3c fe e0 05 3d
       -0.05792206 -0.0075328164 0.029588586 0.032685272
000150 18 9b 2b 3d 8e db bc 3d d0 a2 14 be 96 08 77 bd
       0.041895956 0.09221564 -0.14515233 -0.060310923
000160 a3 cf 2e 3e 93 4c 17 be e5 af 83 be 2e 9d 57 be
       0.17071395 -0.14775304 -0.25720134 -0.21056053
000170 58 7c 6e bd 59 46 aa 3d 0a b1 eb bd 32 3c b8 3b
       -0.058224052 0.08314199 -0.11508377 0.00562241
000180 f3 cc 6a 3d 01 e6 a2 3d a1 0d e3 be 8a 97 ac bd
       0.05732436 0.07954026 -0.44346336 -0.08427341
000190 0a 45 89 3d 49 3c 03 be 5e 44 26 be 98 dd bc be
       0.06702621 -0.12815966 -0.16237018 -0.36887813
0001a0 86 54 fc 3d 1f d0 4a 3d ed cc 2c be 30 e8 72 bd
       0.12320809 0.049514886 -0.16875048 -0.059303463
0001b0 2d 96 c0 3d 8e 41 c3 be d4 bf 7a 3c 16 18 ad 3c
       0.09403644 -0.38135952 0.015304524 0.02112965
0001c0 16 8c fd bd 4a fd 43 be a5 90 9c bd a4 f8 82 bd
       -0.12380235 -0.19139591 -0.07644776 -0.06395081
0001d0 8b 85 da 3d 21 36 ae 3d 51 58 85 bd cc 12 ae bd
       0.106700025 0.08506418 -0.06510986 -0.08499679
0001e0 c5 5e 07 be dd fb 84 bd a7 7d 38 3d a2 3a e0 bd
       -0.13219745 -0.064933516 0.045041706 -0.10948683
0001f0 f9 ab 80 3c 07 d0 5a 3c bf 6b af bd b6 58 89 bb
       0.015707003 0.013355262 -0.08565473 -0.0041914834
000200 6b 6f ec 3d ca c1 cb bd 23 f0 b5 bc 48 29 73 be
       0.11544689 -0.09949072 -0.022209233 -0.23746216
000210 f2 1b b4 3c ab cc 04 be e1 8e 36 3e 7f b6 c3 bc
       0.021985982 -0.129687 0.17827941 -0.023890732
000220 e1 d4 cb bd 3b b1 3d be 64 fb 2f bd 01 54 cb 3d
       -0.09952713 -0.1852464 -0.042964354 0.09928132
000230 51 87 81 bd de b1 fa bd c5 06 6c 3d f9 5d 6e 3e
       -0.06324638 -0.12240957 0.057623643 0.23278035
000240 22 78 93 3d 2f 16 8c 3d 45 ea 20 3e 84 73 c3 3d
       0.07200648 0.06840169 0.15714367 0.09543517
000250 36 28 ec 3c 79 b2 b9 3d f1 ed 44 3e 66 78 c0 3d
       0.028827768 0.09067244 0.19231392 0.09397964
000260 1f 52 15 be 6f fc 00 3e 19 3f f4 3d ed 65 24 3d
       -0.14582108 0.12596296 0.119260974 0.040136266
000270 26 45 b6 3c 19 d4 df 3d 48 fc ee 3d b8 fa e9 3d
       0.02224977 0.10929126 0.116692126 0.11424774
000280 0d 38 d3 bd e3 12 0e 3d 45 8b c6 bd 9e dd 87 3d
       -0.10313425 0.03468598 -0.09694532 0.06634067
000290 04 04 9b bd ee ed d3 3c da 13 c7 bb ef a4 05 bd
       -0.07569125 0.02587029 -0.0060753645 -0.032627996
0002a0 39 c5 23 be 72 18 17 be 92 ba 82 3e 3e 98 a1 3d
       -0.15993203 -0.14755419 0.25532967 0.07890366
0002b0 60 09 3d 3e 51 57 6f 3d b6 15 b6 3b fe 73 dc 3d
       0.18460608 0.05843288 0.0055567874 0.10764311
0002c0 ab ed b1 3d 55 0d ad bb cd 73 4b bd 86 62 be 3d
       0.0868791 -0.0052811303 -0.049670983 0.092961356
0002d0 4f ec 95 3d 62 cd 46 3d 64 d9 81 3d 90 6c 36 be
       0.07320463 0.048535712 0.06340292 -0.17814851
0002e0 1c 24 88 3d ce fd c4 be 66 bd f7 bd a2 ed 16 3e
       0.06647512 -0.38474888 -0.12096672 0.14739087
0002f0 eb 8d df 3d 4a c9 00 bd c7 cb 35 3e 1d b3 e0 bd
       0.109157406 -0.031441964 0.17753516 -0.10971663
000300 2c fb 39 be 16 91 35 3d d0 ef df 3d 19 07 9a bd
       -0.1816222 0.044327818 0.109344125 -0.07520885
000310 c4 49 3f be eb 93 2c be b4 62 51 3e 02 ef 39 3b
       -0.18680483 -0.16853301 0.20447809 0.002837122
000320 0a 81 d2 bc c3 ea a7 bd a9 ac b7 be 21 76 ac bd
       -0.025696296 -0.08199074 -0.35873917 -0.08420969
000330 cc a8 df bd da 8a fe bd 9d ab 93 bd 7f 46 d0 3c
       -0.10920867 -0.124288276 -0.07210467 0.02542424
000340 33 62 f5 bd 68 55 4d 3e 90 a4 cc bd 78 eb 69 3d
       -0.11981621 0.20052111 -0.09992325 0.057109326
000350 74 fb 70 bd fd a5 c7 3d 47 d1 02 3e f7 ee 5a 3c
       -0.058833554 0.097484566 0.12775145 0.013362638
000360 0b 31 84 3c 10 2a 2e be 7f 9e 2e be 56 19 cd 3d
       0.016136667 -0.17008233 -0.17052649 0.10014598
000370 b5 cc de bd 31 1c 6a 3d 48 76 cf bd ae 93 fd 3c
       -0.108788885 0.05715579 -0.10129982 0.030954208
000380 18 b4 e2 ba a8 72 d0 3d 78 dd fc be f7 78 10 be
       -0.0017296104 0.10178119 -0.49387717 -0.14108644
000390 7a 8f 4d be ec aa 51 be 0c 32 9d 3d 62 8c 43 be
       -0.20074263 -0.20475358 0.07675561 -0.1909652
0003a0 69 a1 aa bd b6 16 8d 3d 95 5d c2 3d c1 fa f4 bd
       -0.08331568 0.068890974 0.094905056 -0.1196189
0003b0 49 40 64 bd 60 13 d7 bd 1f e4 50 3e 54 dc 95 3d
       -0.05572537 -0.10501742 0.20399521 0.07317415
0003c0 7a cc fa bd d5 e4 0b be a8 72 05 3d 3a 85 11 3b
       -0.12246032 -0.13661511 0.032580048 0.0022204653
0003d0 1d 3f 1a be 65 2e fe bd e9 e0 6b bd 42 3e e2 3c
       -0.15063138 -0.12411193 -0.057587538 0.027617577
0003e0 08 dc 4a bd 69 3b d9 bd 92 e7 c1 3c b2 f0 d2 bb
       -0.049526244 -0.10607035 0.023669992 -0.0064373845
0003f0 e2 dc 22 3d f3 12 09 be 60 97 a2 bc d4 a2 98 bd
       0.03976143 -0.13386135 -0.019847572 -0.07452932

bias f4 [128]
000000 ae b2 a0 3d 4a 9c 44 3e d5 71 bf bd da a8 17 3e
       0.078465804 0.19200245 -0.093478836 0.14810506
000010 b1 06 a1 bc 8d c5 8e 3d c8 bc b4 bd 1d 92 84 3d
       -0.019656511 0.069712736 -0.0882507 0.064731814
000020 95 f2 45 3d 7d 90 ef 3d dc 87 08 3e b3 db 1e 3d
       0.048327047 0.11697481 0.13333076 0.03878374
000030 2c 1e 2b 3b ce 98 75 3d 38 a6 a0 3d 30 b9 54 bd
       0.0026110513 0.05996018 0.07844204 -0.05193442
000040 75 75 e5 bd 80 55 bc 3d 7f 02 0d bf 64 98 ab bd
       -0.11204044 0.09195995 -0.55081934 -0.083786756
000050 0c 68 74 3d 35 17 d8 3d ea d0 a1 bd ac 5e 99 bd
       0.05966954 0.105513014 -0.07901175 -0.0748876
000060 d2 de f6 3d 25 74 22 3d ce 06 95 3d 4b b6 42 bd
       0.12054218 0.039661545 0.072766885 -0.04753713
000070 7e e0 11 be 92 71 c7 3d 70 1b 23 3d 1e ac 90 bd
       -0.14245793 0.09738459 0.03982109 -0.07064079
000080 bb 89 a4 bd 3b 7e 03 be b3 bc a9 3d fd 23 f4 bd
       -0.080340825 -0.12841122 0.08287945 -0.11920927
000090 1b be 0d 3e aa 00 06 bd e6 bb 15 3e 01 d4 e6 3c
       0.1384205 -0.032715477 0.14622459 0.028177263
0000a0 a0 c3 01 3e e0 55 f7 bb fe 88 c9 3d ff 31 f3 bd
       0.12672281 -0.007548079 0.09840582 -0.118747704
0000b0 ba 58 85 3d ae 54 b7 3d 8d ff 1b be 38 0c 08 bd
       0.06511064 0.08951698 -0.15234204 -0.033214778
0000c0 37 fc 8b 3d 4f 8c 42 3e a7 4b 43 3e 62 81 83 bd
       0.068352155 0.18998836 0.19071828 -0.06421162
0000d0 21 85 f4 3d 7e 32 d2 bc f2 6d 0e bd e5 93 da be
       0.11939455 -0.025658842 -0.03477282 -0.4269096
0000e0 64 56 c0 bd 90 5c 04 3e a4 ca 68 bc ab 1e 9c bd
       -0.09391478 0.12925935 -0.01420847 -0.07623037
0000f0 ec 70 2c 3c b0 f4 d8 bd 0e de a4 3d 9f 4a cf 3d
       0.01052497 -0.105935454 0.08050166 0.10121655
000100 e3 8b 05 bf 82 6b 9c 3d ab 83 f0 bd cf 32 e4 3c
       -0.52166575 0.07637693 -0.11743864 0.027856259
000110 40 be c8 bd 50 45 7c 3d c9 8d 76 bd db 84 2e 3e
       -0.09801912 0.06158954 -0.06019381 0.17042868
000120 e0 0c 87 3d 8c b9 37 be 6e 1a bd 3d 72 d9 40 be
       0.065942526 -0.17941874 0.09233557 -0.18832949
000130 bd 08 a6 bd f1 1e 78 bd ec 80 73 3d 60 74 43 3c
       -0.081071354 -0.060576383 0.05944912 0.011929601
000140 2f 25 d8 bb 15 c4 87 bd 58 cc 04 3e e5 36 ae 3d
       -0.0065962295 -0.066291966 0.12968576 0.08506564
000150 9e ec c0 bc 77 7e b3 3d 83 dd 82 bd ef ac ff bd
       -0.023550328 0.08764356 -0.06389906 -0.12484156
000160 a9 da 1d 3e 57 3f 74 bc f6 85 ce be a2 a1 a1 be
       0.15415443 -0.0149076795 -0.4033658 -0.3156863
000170 d2 0c 09 bf 65 48 ad bd 85 10 d1 3d 05 ad 27 be
       -0.5353519 -0.08461074 0.10208229 -0.16374595
000180 bc 26 36 3d 61 62 c8 be ac c1 cd 3d aa 8b a6 3d
       0.044470534 -0.39137557 0.100467056 0.081321076
000190 b4 02 f3 bd 3c f0 be bd 85 a4 f9 3d 23 e2 c2 bb
       -0.1186575 -0.09323165 0.12189583 -0.0059473678
0001a0 52 67 d4 3d 7f 66 ba 3c ac 4e 0c 39 9d 8f 95 3d
       0.10371269 0.022753952 0.00013380748 0.07302783
0001b0 d1 18 b0 3d 60 c3 ee bc 8c 06 9d bd ea 62 91 3d
       0.08598483 -0.029145896 -0.07667264 0.070989445
0001c0 ef 36 df 3d 30 23 d3 be 84 10 cf 3b 60 7f d7 3d
       0.108991496 -0.41237783 0.0063191075 0.10522342
0001d0 26 fa 21 bd 33 90 27 3e a4 07 98 3c 19 76 06 bc
       -0.0395452 0.16363601 0.01855833 -0.008206868
0001e0 a1 e9 a7 bd ed c0 93 be 5f 12 74 bd 31 71 29 3e
       -0.08198858 -0.28858128 -0.059587833 0.16547085
0001f0 dd c1 de be 1a 6d c2 3d de 64 0b bb c9 c0 36 bc
       -0.4350728 0.09493466 -0.0021269838 -0.011154362

weight f4 [128, 128]
000000 6e b4 00 bf ff 70 b7 3b 4f 7d b8 3a 16 30 83 3d
       -0.50275314 0.005598187 0.0014075431 0.06405656
000010 63 5d a4 be da f1 f9 be 48 4e 72 3d 3b 97 2a be
       -0.32102498 -0.4881733 0.059156686 -0.16659252
000020 85 23 f2 be 2b f9 0c 3c bc 56 e0 be 9f 88 3a bf
       -0.47292724 0.008604328 -0.43816173 -0.7286472
000030 71 dd f5 bd dc 2b 33 bb 2b ed 8e 3d 32 69 28 3d
       -0.12005127 -0.0027339375 0.0697883 0.041115947
000040 3c 6d 1b 3d 6b 60 d4 bb af 4f 06 bd 9e ef cb 3d
       0.03794597 -0.0064812205 -0.032790836 0.09957813
000050 15 75 18 3b 15 2e 3c 3c dc d0 96 bd 80 8c bf bc
       0.0023263146 0.011485596 -0.073640555 -0.023382425
000060 1f 37 e9 be 05 51 00 3d 9c 2d b4 3c 44 b5 7f 3d
       -0.45549867 0.031327266 0.021994404 0.062428728
000070 ca 23 2f 3d 34 90 53 3c 9b f5 11 bf a8 f2 0e 3b
       0.04275874 0.012912799 -0.5701539 0.0021812115
000080 4e 43 6c 3d 21 6b 1a bc d4 86 e8 b9 6d 4a d9 bc
       0.057681374 -0.009424956 -0.00044350943 -0.026524747
000090 ea 5a 15 be 4e ca 35 3e 9a 31 ef bc 95 af 27 bf
       -0.14585462 0.17752954 -0.029198457 -0.6550229
0000a0 4a a0 b0 3d ea 98 a7 bd d8 f8 9e bd 8e a5 c1 3b
       0.08624323 -0.08183463 -0.07762307 0.0059096282
0000b0 a9 ca 88 3c dd 85 8d bd 5d e4 ae bc 1b c9 c3 3d
       0.016698198 -0.06910298 -0.021349126 0.09559842
0000c0 00 5d 28 bf 4f 65 83 bc 3e 9d 5c bb ec 6d 0d 3d
       -0.65766907 -0.016039519 -0.003366306 0.034528658
0000d0 62 73 a8 3c 56 ae 3f 3e 28 30 c7 bc 6c e8 3d 3d
       0.020562831 0.18718848 -0.024314955 0.046364233
0000e0 80 67 ec bc 1a b7 19 be 48 9c 89 bc 93 1e 3d 3e
       -0.028857946 -0.15011254 -0.016798154 0.18468694
0000f0 6b 37 fc bb be 6e 8f bd b4 97 d4 3c 6a c4 00 3e
       -0.007697036 -0.07003544 0.025951244 0.12574926
000100 e1 37 05 3d 6a 51 4c 3c 17 ed cc bd 43 f1 3c bc
       0.032523993 0.0124705825 -0.10006159 -0.011532131
000110 72 4f 88 bd 5a 1b 81 3d 5f 8c 64 be ca 1e 4f be
       -0.06655778 0.06304045 -0.22319172 -0.20226589
000120 32 c4 87 be 43 a1 6c bc 82 ea d9 be 7e 51 19 3e
       -0.26516873 -0.014442745 -0.42561728 0.14972493
000130 0c 92 af 3c da f6 68 3e 6e 55 64 3d 31 97 f8 bc
       0.021431945 0.22750416 0.055745535 -0.030345531
000140 52 e8 29 be 22 97 72 3e 3d 12 44 bc 7c bb fc be
       -0.1659253 0.23690465 -0.011967239 -0.4936179
000150 c3 dc ee 3b 00 1b 9a bd a7 fe 9e 3a e2 f2 e2 3d
       0.0072895004 -0.07524681 0.0012130336 0.110814825
000160 76 40 02 be ee 42 c9 3c 54 5b 10 3d f1 8e ba 3d
       -0.12719902 0.024568047 0.035243347 0.09109295
000170 0f 49 0c bd 05 4b 38 3c ed 18 11 3d 5d e8 17 bd
       -0.03424936 0.011248355 0.03542416 -0.037086833
000180 37 9f cf 3d 6b b5 f3 3c d1 bf f4 be 0b 1d 74 bb
       0.1013779 0.029749593 -0.47802594 -0.0037248756
000190 de c4 44 3d 61 b7 30 3e 95 68 11 bf 85 77 7d 3d
       0.04803931 0.17257454 -0.56800205 0.06188156
0001a0 53 0b 90 3d f2 41 d5 bd d5 48 91 bd 8c 1d cd be
       0.0703341 -0.10412969 -0.0709397 -0.40061605
0001b0 2a fa c0 3c 72 0f 8f bd b0 06 13 3c 91 20 08 3e
       0.023556788 -0.06985368 0.008973762 0.13293673
0001c0 2b 1e 05 bf dd 7c f5 3c 72 b4 e5 bd ed 3d 6b be
       -0.5199916 0.029966766 -0.11216058 -0.22972842
0001d0 ec c7 dc 3d 51 d0 c0 3a 00 7d 17 bf 84 22 79 3e
       0.107803196 0.0014710521 -0.5917511 0.24329573
0001e0 a6 8e 7d 3e 19 98 3f 3d 32 87 77 bd 6f 70 ad bb
       0.24761447 0.04677591 -0.060431667 -0.005292944
0001f0 c9 e6 aa 3c 78 3c b2 bc d4 ef 8c bd df 5a 4a 3d
       0.020862 -0.02175735 -0.06881681 0.049403068
000200 6f a8 88 3c 43 bd 38 3c 95 06 9c bd 46 a8 e9 3c
       0.016681878 0.011275592 -0.07618443 0.028522622
000210 d1 da ae 3d e6 65 86 bc 42 81 28 bf 52 06 eb 3d
       0.0853783 -0.01640601 -0.6582223 0.11475815
000220 b4 de 8a 3d 8c fc 31 3e b2 db cb 3a ee 2e 85 3c
       0.067807585 0.17381495 0.0015553145 0.01625773
000230 09 6b 61 3d 9e 88 97 3c f0 f9 08 3f be d8 0d 3d
       0.055033717 0.018497761 0.53506374 0.03463053
000240 56 05 b0 bc 77 5b e4 3c 60 2e 4c be 33 38 00 bf
       -0.02148692 0.027875645 -0.19939566 -0.50085753
000250 e3 60 81 3c 52 34 d2 be c9 09 e7 3d 7d 35 ce 3e
       0.01579327 -0.41055542 0.11281163 0.40275183
000260 82 2f fe 3c d2 b3 0a bd 75 32 9b bd f9 db d3 3d
       0.031028513 -0.033862896 -0.07577983 0.10344691
000270 f1 f4 a1 be b5 f5 c4 bc 6c 49 35 3d 5e c2 82 3d
       -0.31632188 -0.024042943 0.044259474 0.06384729
000280 a8 10 39 bf 8f c7 d2 bd 92 07 28 bd 80 ec 77 3c
       -0.7229104 -0.10291969 -0.041022845 0.01513207
000290 11 54 ae 3d 21 24 20 3e 2f b2 86 3d 13 a2 52 3c
       0.08512128 0.15638782 0.065769546 0.012856024
0002a0 cd 93 21 bf 49 dc 88 bd 01 b3 9a 3b e4 d2 2c bf
       -0.6311615 -0.06682641 0.004721046 -0.67509294
0002b0 63 21 38 3e c7 80 80 3b 27 86 2a bf 9e c4 1f bf
       0.17981486 0.0039216015 -0.6661095 -0.6240939
0002c0 17 3c f2 b9 0d 18 f0 3c 9f 33 ea 3c 77 a5 8c 3d
       -0.00046202607 0.029308343 0.028589068 0.068674974
0002d0 0a 9a d5 3c 75 29 b8 3e d4 d0 3b bf 68 6e e7 bd
       0.026074428 0.3596913 -0.7336552 -0.11300355
0002e0 44 44 ac bd 90 85 82 3d 8d 3d e7 3c 8e 3a 87 3d
       -0.08411458 0.06373131 0.028227592 0.06602965
0002f0 24 cd 43 3b e9 55 6f 3d 65 d3 c2 bc db 9e 57 bd
       0.0029876912 0.05843154 -0.023782441 -0.05264173
000300 22 3b 46 be e3 3e f9 bd a2 5d 4c be 6e 41 a1 3d
       -0.19358495 -0.12170198 -0.19957593 0.07873808
000310 5f f2 e1 3e ed 6e a9 ba a7 02 67 3d 5c ef 3b bc
       0.44130227 -0.0012926735 0.056399014 -0.011470642
000320 d5 9c 15 be 09 e3 ed be 32 31 a5 bd e7 c3 4d bf
       -0.14610608 -0.46462277 -0.08066024 -0.8037705
000330 dc ca c5 bb e6 35 df 3e d2 51 e9 bd 1c 07 d0 bc
       -0.0060361456 0.4359581 -0.11392559 -0.025394015
000340 44 10 72 bd 06 81 22 3e e7 41 e3 3c bd 6a 16 bd
       -0.059097543 0.15869531 0.027741386 -0.036722887
000350 4a 29 17 ba 5a 3b 59 bd 8d f5 48 be f9 75 50 3e
       -0.00057663454 -0.053035118 -0.1962492 0.20357503
000360 a5 c9 ad 3c 98 33 2d bd 1f 31 d7 bd d9 c0 42 be
       0.021214316 -0.04228553 -0.10507416 -0.19018878
000370 b7 a2 62 be 61 1d b3 bd f3 80 25 3e 8e 2e 3a bd
       -0.22132383 -0.08745838 0.16162471 -0.045454554
000380 0c 87 8a 3e f8 00 79 be e2 9c a6 bb d2 9c 41 3c
       0.27056158 -0.24316776 -0.00508462 0.011817174
000390 a0 dd 38 be 2c 37 dd 3e 9d fb 8b bc 4d 75 e4 be
       -0.18053293 0.43206155 -0.017087752 -0.44620743
0003a0 60 c7 4d 3b 81 f3 9e bb af b2 dd 3c 2c d2 b4 3d
       0.0031399354 -0.0048508053 0.027062742 0.088291496
0003b0 8b 38 36 be fc 1d 7b bc c8 09 4d be 4d a6 12 be
       -0.17795007 -0.015326973 -0.20023263 -0.14321251
0003c0 b2 0a df 3d 06 f0 4f be 3a 29 f5 3b b9 ea 9e 3d
       0.10890712 -0.20306405 0.007481721 0.077596135
0003d0 59 54 88 bd 48 ee ea 3b 72 6e 62 3c 1d d8 d6 3d
       -0.06656713 0.0071695186 0.0138202775 0.10490439
0003e0 8e cd ae 3e e1 b6 7d be e7 8f bf 3d b2 07 b8 3c
       0.341412 -0.24776794 0.09353619 0.022464607
0003f0 5b 97 3c be a1 7c b4 be b6 8c 17 bf 3e 6f 9e 3e
       -0.18417113 -0.35251334 -0.5919908 0.30944246

bias f4 [128]
000000 33 8f 3c 3e b8 f7 65 bb 2b dd 14 3d cd 14 68 3d
       0.18414001 -0.0035090279 0.036343735 0.056660462
000010 42 c4 0f bd f4 ce ce bd ce 2c 8e bc ec 8d 34 bd
       -0.035099275 -0.10098067 -0.017355349 -0.04408066
000020 94 e0 9f 3c 60 1b 1c bc b0 8c 86 3d 48 bf ce bc
       0.019516267 -0.009528011 0.06569803 -0.025237694
000030 86 e3 60 bd 91 52 cf bb 1b d7 24 bf 1f 5b 14 3d
       -0.054904483 -0.0063269814 -0.64390725 0.036219712
000040 94 1b 06 bd 26 f3 26 bd 4b 0b b8 3d 07 42 db 3d
       -0.032741144 -0.04075923 0.08986529 0.10705953
000050 4d 1a 34 3e 5a 97 69 bd 4a 43 bc bd e3 f9 7b bd
       0.17588158 -0.057029106 -0.09192522 -0.061517607
000060 e3 1c c0 3c 2e f7 29 bd 06 da e1 3d 91 5b 6c bd
       0.023451274 -0.041495495 0.11027913 -0.057704512
000070 58 ae 75 3c 03 06 62 3d a4 de 2a be f9 df 0c 3e
       0.01499518 0.055181514 -0.16686493 0.13757314
000080 92 e0 05 be 91 85 19 3e 8e 7a 79 3d 00 b5 af 3d
       -0.13073948 0.14992358 0.060907893 0.08579445
000090 94 7a fe bb 4a 7e 85 bd 5f 0d 7a bd 53 a2 82 3d
       -0.0077660773 -0.06518228 -0.061047908 0.06378617
0000a0 c8 04 63 3c ce 10 c7 bc 7c 22 21 3e fc 8c 2f 3e
       0.01385612 -0.024300005 0.15735811 0.17143625
0000b0 fd e1 2b bd 17 1a 46 3e 1c a6 4f 3e 82 9e c7 ba
       -0.041963566 0.1934589 0.2027821 -0.0015229734
0000c0 02 51 9b bc 96 06 b8 bc 50 38 59 bd 15 f7 e5 3d
       -0.018959526 -0.022464078 -0.05303222 0.11228768
0000d0 cc 72 e4 bd 23 fc f9 3d 05 70 ef 3d 2a ef 00 3d
       -0.11154708 0.122062944 0.11691288 0.031478085
0000e0 80 71 9a 3d 85 de df 3d f0 9a bd bd 69 0e 36 bd
       0.0754118 0.10931114 -0.092580676 -0.044447336
0000f0 7f d2 c3 bc 4b 5e 99 3d 80 88 0e 3b 3e 7f 3c be
       -0.023904083 0.07488688 0.002174884 -0.18407914
000100 92 7d 11 3e 81 26 6e 3c b7 b6 79 3d 7f 85 88 bc
       0.14208058 0.014535547 0.060965266 -0.016665218
000110 61 ea 6e bc cd 2f f7 3d b2 fc a9 3b 17 0a 9c bd
       -0.0145822475 0.12069664 0.0051875943 -0.07619112
000120 9c 46 99 3d 34 83 f6 3d 72 38 f4 3c d3 3e 18 bf
       0.07484171 0.12036744 0.029812071 -0.5947086
000130 b5 51 ad 3d 51 ac b2 3a 77 ef a6 bd 8e a1 0b bd
       0.0846285 0.0013631677 -0.08151143 -0.034089617
000140 08 7b ac 3d 96 30 c0 bc 43 09 16 be db f6 80 bc
       0.08421904 -0.023460668 -0.1465197 -0.01574271
000150 c2 9e 30 3b aa cc c9 bd 17 fe 16 bd 0f 92 fd 3d
       0.0026950096 -0.0985349 -0.036863413 0.12381374
000160 7d 41 6e 3d 9d aa 46 bc fa 94 02 3e ba 00 98 3d
       0.058167923 -0.012125638 0.12752143 0.074220136
000170 e0 ea 89 bc 2d 66 18 bd cc e6 fc 3d 49 6b 47 3e
       -0.01683563 -0.037206817 0.123487085 0.1947452
000180 78 b5 5c 3d 9b 3c 9a 3d 6f c2 3c bb c1 ce 36 3e
       0.053884 0.07531091 -0.0028802415 0.17852308
000190 bd c6 33 bd 66 57 b4 3d 77 fe 07 bd 9e be 27 bb
       -0.043890703 0.088057324 -0.03320166 -0.0025595794
0001a0 bc cf 7e bd 7a 2d 20 bd f3 80 12 bd a0 7d 46 bd
       -0.06220983 -0.03910587 -0.035767507 -0.04845965
0001b0 f4 48 29 bd 24 60 8c 3d d1 83 07 3e 55 f0 c6 bd
       -0.04132934 0.06854275 0.13233878 -0.097138084
0001c0 94 86 30 3e 00 2c 50 be 56 65 56 bd 71 62 35 3d
       0.17238837 -0.20329285 -0.052342735 0.044283334
0001d0 c6 ce c6 bc c3 78 eb 3c 71 69 ac 3c 17 01 f9 3d
       -0.02426852 0.028744107 0.021046372 0.12158411
0001e0 3f af 1f bb 1b 4d 3d 3e 53 a2 ac 3c 6e f5 58 bd
       -0.002436593 0.18486445 0.021073496 -0.052968435
0001f0 8b 3b 26 bd 52 c1 47 3d eb d6 1d bd 2c 00 47 bd
       -0.04058413 0.04876835 -0.03853504 -0.04858415

weight f4 [128, 128]
000000 78 bc 6d be de 4d d2 be c6 56 16 be 08 c9 f8 3d
       -0.23216426 -0.41075033 -0.14681539 0.12147719
000010 de 8c 38 be 1f f3 9c 3e 46 7c 44 3e cc 2c d2 3e
       -0.18022487 0.30654237 0.19188032 0.41049802
000020 43 b6 0b 3d c6 65 b7 be ce 3d a4 be f1 97 6d be
       0.034109365 -0.35819834 -0.32078403 -0.23202492
000030 11 b5 f8 be 01 ff 91 be 1c 48 bf 3e 87 85 9a 3e
       -0.48575643 -0.28514865 0.37359703 0.30179998
000040 da 01 10 bd 6f da b2 3b 69 ce 71 3e 04 f4 7d 3e
       -0.035158016 0.005458168 0.23613895 0.24800116
000050 19 5f b5 bd 30 50 48 3d 8f 5e 97 3d d5 65 73 3c
       -0.08856029 0.048904598 0.073910825 0.014855822
000060 b5 2f 5f 3e eb 2f cd 3d 8b dd 49 bd f4 a7 8b 3d
       0.21795543 0.10018905 -0.049283545 0.06819144
000070 3f bb e9 bd 79 c6 78 3e 40 89 43 3e 10 af de bd
       -0.114126675 0.24294461 0.19095325 -0.10873234
000080 1e 4f c8 3d b7 62 1b be 8e b3 40 3c f2 93 f0 be
       0.097807154 -0.15174375 0.011761559 -0.46987873
000090 59 e5 8e be 06 32 47 3e 4a 76 2b 3d 0b b7 e5 bd
       -0.27909353 0.19452676 0.041860856 -0.11216553
0000a0 7c d1 5f be 4a 19 0f bd fe 84 15 be 9e b7 29 bf
       -0.21857256 -0.034936227 -0.14601514 -0.662958
0000b0 68 c0 be bc 11 6c 14 bf 05 ec 27 bf ad 2c 9a 3c
       -0.023285106 -0.57977396 -0.6559451 0.018820131
0000c0 48 3c 94 3a 86 bc 94 3c 53 86 87 3c ae 05 01 3d
       0.0011309469 0.018156301 0.016543543 0.031499557
0000d0 45 dc e0 3e 76 fa 22 3e 01 4d e1 3d 2d 0b 0e 3d
       0.43918052 0.15915856 0.110010155 0.034678627
0000e0 8c b7 93 bc 5a 92 d1 3d cd 0b d4 3e 5e bf 40 ba
       -0.018031858 0.102329925 0.41415253 -0.00073527347
0000f0 a0 03 76 3c 12 05 aa 3e df fd 0e 3e c0 21 c2 3e
       0.015015513 0.33206993 0.13964032 0.37916374
000100 98 e0 eb be 2c 79 e0 bd 6f 69 ab bd 4c c4 8f be
       -0.4606979 -0.10960612 -0.08369719 -0.2807945
000110 f2 4a d3 3e b0 d9 4f bc 58 4f 8b 3d dc 91 09 bf
       0.41268116 -0.012686178 0.06802243 -0.5373819
000120 3c 23 62 3e 32 28 64 be 74 50 65 bd 9d 98 d3 3e
       0.22083753 -0.22280958 -0.05598493 0.41327372
000130 58 3b 3d be c3 bd d2 bb 1d 1a 02 3e 98 68 ca 3c
       -0.18479669 -0.0064313128 0.12705274 0.024708077
000140 e3 61 3e be a9 6a 09 3d 5a d5 cc 3e ab e6 2f bf
       -0.18592028 0.033548985 0.40006524 -0.68711346
000150 0c 67 12 3d ac f4 4e 3d 7d 7d a1 3c 4e b4 8a 3d
       0.035742804 0.050526306 0.019713158 0.06772672
000160 af ba 3a bf 08 1a c0 3e a8 f1 5c 3e af 95 44 be
       -0.72941107 0.3751986 0.2157656 -0.19197725
000170 bb 71 1f 3d d0 51 b2 3c 1a 98 36 be 5f 02 17 bf
       0.03892682 0.021767527 -0.1783146 -0.58987993
000180 2e a1 0a 3c ef 38 48 be 7e d6 22 be 55 1c a0 be
       0.00846128 -0.19552968 -0.15902135 -0.31271616
000190 d2 f7 fc 3c 28 9f 07 3e 17 51 9a 3d 11 51 63 3c
       0.030879889 0.13244307 0.07534998 0.013874308
0001a0 62 fc a2 bd 31 7e 8a be aa e2 d1 bd af 9c 23 bd
       -0.079582945 -0.270494 -0.10248311 -0.039944347
0001b0 70 63 66 3c 79 a5 8e 3e 11 2b 1b be ed 82 b7 3d
       0.014061794 0.2786062 -0.15153147 0.08960519
0001c0 ef dc 22 be 45 3d 99 3e b7 68 8e 3e 3b 90 34 3c
       -0.15904592 0.29929557 0.27814266 0.011020715
0001d0 a0 0d a6 3b bf 38 b9 3d 46 32 36 bd 51 5a dd 3c
       0.005067542 0.090440266 -0.04448154 0.027020605
0001e0 a7 79 a4 3e e7 6e 29 be 6c d0 6a 3e ef 51 5d 3d
       0.32124063 -0.16546212 0.22931069 0.054033216
0001f0 b8 b5 ff 3c 4e 76 00 3e 45 e7 29 bf 44 98 65 bd
       0.03121458 0.1254513 -0.66368514 -0.056053415
000200 a2 ae 4a 3e 3d a8 8a 3e 8d 43 91 be 12 f4 d0 be
       0.1979318 0.2708148 -0.2837185 -0.4081121
000210 b8 b7 c5 3b 30 a3 a5 bd e0 78 ad be 24 12 bd be
       0.006033864 -0.08087766 -0.33881283 -0.36927903
000220 c9 1d 00 bb 12 e9 2c 3e 4a 8c 54 be b5 b3 df be
       -0.0019549003 0.16885784 -0.20756641 -0.43691793
000230 fc 29 dd 3e 92 68 0c 3e 05 d1 85 be 93 d2 0b be
       0.43196094 0.13711765 -0.26136032 -0.13654546
000240 ee 9b 94 bd 80 5d 27 ba 94 25 4a bc 70 88 d5 3b
       -0.07256304 -0.0006384477 -0.012338061 0.0065165088
000250 22 ca 16 3e 93 29 00 3d c9 70 1d bd 0b 0f 7a 3a
       0.14725545 0.03128965 -0.03843764 0.0009538985
000260 39 ec fe bc 2c ca e1 be 1a 99 de be ae bc ed 3c
       -0.0311185 -0.44099557 -0.43476182 0.029020634
000270 0b ae 9a be fe 40 34 be 3a 9b b7 3c 1d cc ce 3d
       -0.3021091 -0.17602918 0.022412885 0.10097525
000280 87 75 82 be 35 43 3d 3e 74 57 14 bf ad b4 7d 3e
       -0.2548029 0.18482669 -0.5794594 0.24775954
000290 c0 33 94 be 9e 94 f8 bd e7 dc d2 3c 06 18 a7 be
       -0.28945732 -0.121377215 0.0257401 -0.32635516
0002a0 ac be ae be 97 3f 4d bd 87 57 5f 3e 2d b3 9c 3e
       -0.34129846 -0.050109472 0.21810733 0.3060545
0002b0 a8 2b 92 3c 83 47 bd 3e 56 9a f1 3e 0b 01 cd 3c
       0.017843083 0.36968622 0.4718806 0.025024911
0002c0 cc f1 02 bc 10 13 e7 3d a0 47 98 3c ec eb 02 bf
       -0.007992219 0.11282933 0.018588841 -0.5114124
0002d0 c9 4c ae be 23 9b 09 39 83 bb f8 bd 85 34 0b 3c
       -0.34042957 0.00013123131 -0.1214514 0.008496408
0002e0 46 7f d6 be fb 48 18 3e 52 d9 bc be ce 2e cd 3c
       -0.41893977 0.1487159 -0.36884552 0.025046732
0002f0 b3 47 93 3c 8f 38 d8 bd 1c f2 84 be 7a f4 98 be
       0.017978525 -0.10557663 -0.25965965 -0.2987402
000300 0e f3 53 3e 3b 8e be be a2 ec fe be b2 88 66 3e
       0.20698187 -0.37217888 -0.49789912 0.22513083
000310 3d 22 69 be 52 ec 25 3e 00 2b 37 3d cc 5a 8e 3e
       -0.22766967 0.1620343 0.044718742 0.27803648
000320 b6 52 0c bb 08 16 0f 3e 18 6b 14 3e fb f8 b0 be
       -0.0021411604 0.13973248 0.14493978 -0.34564957
000330 b4 5a ca be 3a 8a 67 bc 86 b5 d2 be 99 01 57 3c
       -0.39522326 -0.014132077 -0.41154116 0.0131229395
000340 ac cf e3 be 2f f6 42 3c 84 37 bd be c0 f2 02 3f
       -0.4449438 0.011899515 -0.36956418 0.5115166
000350 49 6b 13 3c 14 92 83 3c 9b d6 15 3d 49 29 24 3e
       0.008997747 0.016060866 0.036581617 0.16031374
000360 da 4c e3 3e 9c 2c a0 be 3b a0 b1 3d f8 90 a5 be
       0.4439457 -0.31284034 0.0867314 -0.32337165
000370 30 3a 9c be 45 50 13 bf 9c ec 7a 3e cd bd de 3e
       -0.30513144 -0.57544357 0.24504322 0.43504182
000380 e4 81 2c bf d2 6d b6 be 89 b1 8e 3d a5 e0 78 3e
       -0.673857 -0.3563066 0.06967456 0.24304445
000390 5d 13 b0 3c af 38 34 bc c5 be b1 bd 82 66 af bb
       0.021493608 -0.010999843 -0.086789645 -0.005352796
0003a0 63 8e bf bc 8e f5 24 be 0e 3b 0c 3e 45 5f 8e 3d
       -0.023383325 -0.16109297 0.13694403 0.06951765
0003b0 42 01 f4 3c 03 29 1f be df 0b 2c 3d 22 e5 c2 bd
       0.029785756 -0.15542988 0.04200351 -0.0951636
0003c0 de 02 aa 3e a0 e7 e3 be e0 73 83 be 93 5a f6 bc
       0.33205312 -0.44512653 -0.25674343 -0.030072486
0003d0 43 7b d6 3c 8c d4 0f 3d a0 b5 e1 3c 17 83 0d bf
       0.026181823 0.03511481 0.027552426 -0.5527815
0003e0 40 dd a8 be a4 7c 58 3e 96 8c 7f be 53 e8 e6 bc
       -0.329813 0.21141297 -0.24955973 -0.028186953
0003f0 f9 73 ab bb e7 44 e1 bc 75 b7 02 3f cb 22 02 3e
       -0.005232331 -0.027498676 0.51061183 0.12708585

bias f4 [128]
000000 3f 57 d5 3d 87 2e 3c 3d 74 ee 10 bd 82 7a 7b 3e
       0.104170315 0.04594281 -0.035383657 0.24558452
000010 42 ca 95 3e c3 17 99 3d cd 27 53 bd 41 7f 82 3d
       0.29255873 0.07475235 -0.05155163 0.06371928
000020 e5 4d 1e b9 8c 93 49 bd 25 ef 70 bd dc 8d ad 3d
       -0.00015097072 -0.049212977 -0.058821816 0.08474323
000030 f8 08 1b be a1 37 be bd 10 54 4b bd bf 06 72 bd
       -0.1514014 -0.09287954 -0.049640715 -0.059088465
000040 78 76 8c bc f7 b9 06 3e 55 40 34 3d c4 f3 a6 3c
       -0.017146334 0.13156877 0.044006664 0.020379908
000050 81 ea 8c 3e 60 43 0d bd 93 68 90 bd 31 94 2a 3d
       0.27522662 -0.034488082 -0.07051196 0.041645233
000060 5c 23 e5 3c bf 20 8e 3e 98 52 e9 3d 09 03 0c 3e
       0.027970962 0.27759358 0.11392707 0.13673033
000070 b1 0c f1 3d 56 af d5 3d c1 16 b9 bc 4c 53 a0 3c
       0.11769999 0.10433833 -0.022593858 0.019570969
000080 e4 5b de 3e dc 0b 4a 3e 59 43 f9 3c 73 42 9a bd
       0.43429482 0.19731086 0.030427622 -0.075322054
000090 99 19 69 bd 20 42 d3 3e 7e 9e 2b 3e 5b f7 b4 3e
       -0.056909177 0.41261387 0.16759679 0.35344967
0000a0 ba 5e 5a 3e 82 e8 3c 3d 57 cb 14 bc e6 9f f4 bd
       0.21325198 0.046120174 -0.009081683 -0.11944561
0000b0 63 3d 5d 3e ef 4c d7 3b 5d 38 ae 3d ea 51 4d bd
       0.21605448 0.0065704505 0.08506844 -0.050126947
0000c0 de e4 03 bd ce 39 21 3d 82 a9 8d 3e a1 3d 69 3d
       -0.032200687 0.039361767 0.27668387 0.05694354
0000d0 bb 10 ed bd 4f 32 99 3c c6 65 b8 bd 39 b1 3c 3e
       -0.11575457 0.018700747 -0.09003787 0.1842698
0000e0 88 64 c6 3c b2 ba 3b bd 22 35 23 be 17 77 b5 bd
       0.024217859 -0.045832343 -0.15938237 -0.08860605
0000f0 8e b1 a7 3d 21 41 8e bc 1e 5f ca 3e f6 a6 56 bd
       0.08188163 -0.01736504 0.39525694 -0.05240532
000100 3e 45 a6 3e 11 76 03 3e 0c b8 9a 3c 32 20 7a 3d
       0.32474703 0.12838008 0.018886589 0.06106586
000110 8e cc c0 3e 26 09 4e 3d 01 e9 46 be 45 90 40 3d
       0.37656063 0.050301693 -0.19424821 0.047012586
000120 7a 9f 06 3d 50 76 34 3e 86 78 0d 3e b8 f2 1f 3d
       0.032866932 0.17623258 0.13815507 0.039049834
000130 a3 fd 0c bd 7b e7 3d 3e c8 1c 56 3c 30 49 ce 3d
       -0.034421574 0.18545334 0.013068385 0.10072553
000140 3b 9c 48 3b 0c 2d 5e bd aa e2 73 be b0 78 f6 3d
       0.0030610699 -0.05424218 -0.23816934 0.12034738
000150 eb ba ad 3c b2 df 02 3e 4b d0 ad bd ba 5b d1 bd
       0.021207293 0.12780645 -0.08486994 -0.102225736
000160 1c f0 21 3c 0a d1 cc 3d fb c8 c2 bc 7a 7e 10 3e
       0.009883907 0.100008085 -0.023777476 0.14110747
000170 38 25 ca 3d ce 47 2f be ab b7 9e 3d ee c6 7f 3c
       0.0987038 -0.17117235 0.07749876 0.015611393
000180 5d 05 5c 3e 26 17 d5 bd d8 4e 23 bb 9f 93 80 3d
       0.21486421 -0.10404806 -0.002491882 0.062781565
000190 d5 58 58 3d d6 0d 02 be be df 94 bd 76 75 05 be
       0.05281909 -0.1270059 -0.07269238 -0.13033089
0001a0 37 60 a3 bd 03 63 16 3e 56 03 4a bc 0a 79 c8 bd
       -0.07977336 0.14686207 -0.012329897 -0.09788711
0001b0 d4 66 d2 3d b1 92 10 be 80 54 1d 3e d7 a6 9c 3d
       0.10273519 -0.14118458 0.15364265 0.0764901
0001c0 4c 31 2a 3d 53 ce 4e be c7 7b 95 be bd 4f 3d 3e
       0.04155092 -0.20195894 -0.29195997 0.18487449
0001d0 89 52 a4 3d 40 cd 84 bd 98 4c 25 3e 42 ca 29 3e
       0.08023555 -0.06484461 0.161425 0.16581061
0001e0 3a 4b 81 3e 6e 86 18 3e 13 90 61 3c bb ff 8f bd
       0.25252706 0.14895031 0.01376726 -0.070311986
0001f0 0b 63 b0 bb 1b 92 f5 bd e1 e2 aa bd 92 03 af 3d
       -0.0053829006 -0.11990758 -0.08344055 0.08545603

weight f4 [8, 128]
000000 56 02 84 bd 9c e7 31 bf ce 96 a5 bf c7 d0 6e bc
       -0.06445758 -0.6949403 -1.2936647 -0.014576144
000010 8e 79 29 3d a1 17 a6 bd 24 34 4b 3d 71 cc 26 be
       0.04137569 -0.081099756 0.049610272 -0.16288926
000020 af 82 d6 bf 78 71 34 bf 68 b2 0a bf 6a e2 af be
       -1.6758631 -0.7048564 -0.54178476 -0.34352428
000030 e6 87 9b 3e c7 27 46 3d 86 52 1e be ca ee de be
       0.3037712 0.04837778 -0.15461168 -0.43541557
000040 a2 4e bd bc ca d7 f5 be f3 05 a4 be b4 ba dc 3d
       -0.023108784 -0.48016196 -0.3203579 0.10777798
000050 51 d2 2d be cc 6c 36 bf 9f 63 2a bf c6 db cd bf
       -0.1697476 -0.7125976 -0.6655826 -1.6082695
000060 fd 5c fe be 35 cc 7e be e9 fb 00 3d 27 c6 87 be
       -0.4968032 -0.24882586 0.03149024 -0.26518366
000070 44 fc 91 3e f7 73 76 bc 7e 0d c5 bf c3 55 b9 be
       0.28512776 -0.015042297 -1.5394742 -0.36198243
000080 74 9d 1d be 40 3d d0 be be 0d 90 bd fd 20 f7 be
       -0.15392095 -0.4067173 -0.07033871 -0.48267356
000090 76 2c 21 bf 10 e1 a2 3d c0 72 e0 3c 59 4c d8 bd
       -0.62958467 0.079530835 0.027398467 -0.10561437
0000a0 e4 3a a0 be 35 dd a9 be ff 59 9d bf 28 bd 98 3e
       -0.3129493 -0.3317658 -1.229309 0.29831815
0000b0 bd 01 85 be 26 50 c8 bf 6f 1b cc 3c ae de 7e 3c
       -0.2597789 -1.5649459 0.024915425 0.015556021
0000c0 22 c2 7a bf 9d 99 0f 3d e3 61 5c bc 12 43 47 bd
       -0.97952473 0.035058606 -0.013451072 -0.048647948
0000d0 29 06 f4 bc 79 f2 f6 be 82 ab a5 3c 74 64 29 3d
       -0.029788094 -0.48231867 0.020223383 0.041355565
0000e0 c7 0c 1e 3d 4c 5f b5 bf 12 e9 a3 3b d8 27 e9 bd
       0.038586404 -1.4169707 0.0050021494 -0.11384553
0000f0 f1 68 07 bf 7a e1 9f bf 7a 98 85 3b f1 d7 a5 bf
       -0.528945 -1.2490685 0.0040770145 -1.2956525
000100 d6 2b fa bd d7 59 47 3f ed d8 7d ba 26 de ea bd
       -0.12215392 0.7787146 -0.00096835085 -0.11468153
000110 0c 4c 09 bd 36 18 0d be e5 98 13 bf 60 74 8c be
       -0.03351979 -0.13778767 -0.57655174 -0.27432537
000120 bf c9 20 3e 34 d6 36 3c 82 9c f9 3a 5d a8 2e bf
       0.1570196 0.011159468 0.0019043835 -0.6822565
000130 ee d1 99 3d 92 50 9f 3f c6 e5 1b 3c 61 40 1f bf
       0.07510744 1.2446463 0.0095152315 -0.6220761
000140 71 4c d7 bf ca ac 0d 3d 1e 6a 3e 3e 22 c0 71 3c
       -1.6820203 0.034588613 0.18595168 0.014755281
000150 23 90 b1 3b 17 fb 90 3d 99 ad c1 be fa ad ca bc
       0.0054187938 0.070791416 -0.37827757 -0.024741162
000160 2f 02 01 3e 5b e1 1c be 3f 72 dc bf c9 a2 d0 be
       0.12598489 -0.15320341 -1.7222365 -0.40749195
000170 83 49 e9 be 20 b5 14 bf 97 74 e7 3b cb bf 8d 38
       -0.45563897 -0.58088875 0.007063459 6.759128e-05
000180 2c 95 55 be 7c 11 da be 83 9b ae 3b f9 c2 21 3e
       -0.20857686 -0.42591465 0.005328597 0.15797032
000190 fb 7e 8a 3d 86 15 c4 3c ff f3 98 bc eb 65 1f bd
       0.06762501 0.023936044 -0.018671034 -0.038915556
0001a0 a6 81 9e 3b 64 7f 10 bd 52 36 21 bf c1 74 8d bf
       0.0048372326 -0.03527774 -0.6297351 -1.1051255
0001b0 ca bf 9c bd 7c 67 10 bf db de 1f bf 72 47 c1 3d
       -0.07653768 -0.56407905 -0.62449425 0.09437455
0001c0 55 e0 92 be 2e ff 9d 3c 36 5d a5 3d 7e f8 d8 be
       -0.28686777 0.019286718 0.08074419 -0.42377084
0001d0 27 07 bd 3d 45 c7 92 3d 7c 02 41 bf fb 13 7b be
       0.0922988 0.07166914 -0.75394416 -0.2451934
0001e0 bc ec 9c 3e 2b 54 0b 3e b8 1a a7 3c d7 78 23 bf
       0.30649364 0.13606326 0.020398483 -0.6385626
0001f0 99 6f 6f bd f1 94 75 3d f1 15 63 3c 92 f3 27 bf
       -0.058456037 0.059956495 0.013860212 -0.65606034
000200 90 0e e9 be d4 85 88 3d f2 5a 4f bf c7 38 3e 3f
       -0.45518923 0.06666151 -0.80998147 0.74305385
000210 b6 c5 d4 be 39 d5 9c bf 16 30 97 bf 36 bf aa bf
       -0.4155709 -1.225257 -1.181155 -1.3339603
000220 62 ad ce 3d dd 39 8c 3c eb ea 14 3c c0 2c 0a 3e
       0.10091664 0.017117435 0.009089212 0.13493633
000230 8d c9 02 bf 2d 65 08 be 02 60 2e 3d d5 e4 98 bf
       -0.5108879 -0.13319845 0.04257203 -1.1944834
000240 e6 5c d7 be 17 98 ef be e9 73 f8 be a1 91 aa bf
       -0.42063063 -0.46795723 -0.48525932 -1.3325692
000250 cd dd 4f 3f 10 de 71 3d 19 6e 04 bd 5c 5b 28 3d
       0.81197816 0.059049666 -0.03233156 0.041102752
000260 c5 07 00 bf d8 dc 37 bf ac ec 5b bf cc d5 dd be
       -0.50011855 -0.71821356 -0.8590801 -0.43327177
000270 29 20 a3 3e d6 22 e0 bc 02 95 d2 be 3b 60 d7 bd
       0.31860474 -0.027360361 -0.4112931 -0.105164014
000280 3c d3 b7 3f 11 16 7f 3d 4f 2f 48 bf 3b 35 73 3c
       1.4361339 0.062276904 -0.7819719 0.014844234
000290 71 96 10 bd 9b 9b 91 3e a0 64 de be 10 cd b0 3e
       -0.035299722 0.2843903 -0.43436146 0.3453145
0002a0 30 b9 2e 3f 90 b0 24 bd 55 80 75 bf cd 6d 14 bf
       0.68251324 -0.040207446 -0.95898944 -0.5798004
0002b0 a5 bb 5c 3d 0d 3f ce 3d 45 b4 da 3c 9c 51 0d be
       0.05388989 0.1007062 0.026697287 -0.13800663
0002c0 d6 a6 3e bf 2e 23 2b bc 63 04 2c 3e 74 d7 25 bf
       -0.7447332 -0.010445399 0.16798548 -0.6478188
0002d0 0c b4 2c bd 0c e2 80 bf f9 6c e6 be 95 6a ed be
       -0.042163894 -1.0068984 -0.45005015 -0.46370378
0002e0 e9 d6 e5 be 77 22 34 bf 8f 24 4e bd 52 57 e7 3a
       -0.44890526 -0.7036509 -0.050327834 0.0017649925
0002f0 a7 68 b5 3b 89 37 e6 3c a8 84 1f 3f d4 02 6d bf
       0.005536157 0.028102653 0.6231179 -0.9258244
000300 e3 4a cf be b6 07 41 bf 67 a8 ae bc dd b0 a7 bf
       -0.40486822 -0.7540239 -0.021320535 -1.3100849
000310 44 46 a2 3e 0f 0d 97 be aa 07 d8 3b 78 92 8d be
       0.31694233 -0.2950215 0.0065927105 -0.2765081
000320 4f 77 f5 3d be 35 d2 be 05 61 5c bf 93 64 2a bd
       0.11985647 -0.41056627 -0.8608554 -0.04159982
000330 ff f7 a7 bf e1 0c 37 bf 60 07 e1 be 70 96 ac 3d
       -1.3122557 -0.71504027 -0.4395094 0.08427131
000340 e4 75 89 3d c2 a7 e2 bd 15 e7 09 bf 62 a9 ec 3e
       0.06711939 -0.110671535 -0.5386823 0.4622298
000350 74 79 0c bf fa 12 6a bf 3e 55 ed 3c 5f 3a 45 3a
       -0.5487282 -0.91435206 0.02897131 0.00075236516
000360 ff 6d a3 bf 81 d6 0b 3f b0 a3 c1 be 80 6b 01 bd
       -1.2767943 0.5462418 -0.37820196 -0.03159666
000370 d0 e1 06 3f 2d ce 78 3c a6 02 84 bd a1 74 08 bd
       0.5268831 0.015185875 -0.06445818 -0.03331435
000380 5e 39 81 be e1 ac 03 bf 95 73 a9 bf 33 1b 42 3c
       -0.2523908 -0.5143567 -1.3238398 0.011847305
000390 18 95 84 3e 35 6a fe be 4f 12 73 3c c0 23 43 3c
       0.25895 -0.49690405 0.014835908 0.011910379
0003a0 01 6d 8e 3d 74 e1 5f bf 49 6a 4b 3d b2 1e fe 3c
       0.069543846 -0.8745339 0.04966191 0.031020496
0003b0 65 35 01 3f f2 57 35 3c 51 ff 8d 3d 22 56 96 bf
       0.504721 0.011068331 0.06933463 -1.1745036
0003c0 39 d9 08 bf 6d 4a 7c be 84 ec 0d bf 93 cb e1 be
       -0.53456455 -0.24637766 -0.5543902 -0.44100627
0003d0 6e b9 84 bf d9 1e 9a bf a0 fb d3 3e 64 a6 96 bf
       -1.0369089 -1.2040664 0.41402912 -1.1769528
0003e0 68 0c 05 bf 40 78 14 3f 00 d2 e7 be f8 13 8a bb
       -0.51972055 0.57995987 -0.45277405 -0.0042138062
0003f0 7c fb 0c bd d9 f4 9f bf a6 3e 82 ba 1f 2a ef 3d
       -0.03441952 -1.2496597 -0.0009936884 0.11677956

bias f4 [8]
000000 20 91 7d 3f d6 d1 90 3f 5a 98 87 bf 35 11 40 3f
       0.9904957 1.1314037 -1.0593369 0.75026256
000010 57 ee 99 3e c5 7e 83 3f 89 58 81 3f f8 ec 53 3f
       0.3006465 1.0273062 1.0105144 0.8278346
