models/model_conv_lacc10_gyr15_20epoches_4positions.pkl (torch, 752207 bytes, 12 tensors)

weight f4 [16, 1, 5]
0.02821888 0.49681202 0.4316048 0.052391563 -0.37453103 0.11218895 0.30718285 -0.49883708
-0.31420758 -0.059267715 0.25212675 -0.3533669 0.48153877 -0.5081982 -0.11873139 -0.31482232
-0.41080537 0.45824403 0.27825686 -0.0785383 0.11882241 -0.5279013 0.37391657 0.1759556
-0.11967132 -0.14250454 -0.8511811 0.13336961 -0.0053563765 0.040809724 0.34787777 -0.08601392
-0.83016807 -0.14564274 -0.049510255 0.37255585 -0.41272932 -0.16941147 -0.057901584 -0.33428827
0.16126372 0.25333577 0.61501414 0.26659915 0.3586681 0.072563365 0.06756896 0.29269168
0.050821565 0.7463877 0.1941083 -0.22142935 -0.41173413 0.00785065 0.06675894 -0.16835345
0.0095754685 -1.3962642 0.2932886 -0.17961851 0.047350552 0.064294666 -1.0735574 0.26169854
0.2654985 -0.079471804 0.027357114 1.1629281 0.2634614 0.015960416 0.40581352 -0.3795472
0.56362796 -0.1908014 -0.042763364 0.07350851 -1.0242643 -0.09706437 0.013974173 0.06087665
00000000: 482b e73c 255e fe3e 4efb dc3e 8998 563d
00000010: 88c2 bfbe 52c3 e53d 1247 9d3e 9367 ffbe
00000020: d1df a0be b4c2 72bd c216 813e 82ec b4be
00000030: 408c f63e 4719 02bf 7129 f3bd 6430 a1be
00000040: 1555 d2be f69e ea3e af77 8e3e b0d8 a0bd
00000050: 2a59 f33d 8a24 07bf fe71 bf3e b42d 343e
00000060: 3d16 f5bd b6ec 11be 01e7 59bf 0b92 083e
00000070: 8b84 afbb 1928 273d 091d b23e 1128 b0bd
00000080: e585 54bf 5f23 15be 44cb 4abd a4bf be3e
00000090: 4251 d3be 337a 2dbe 362a 6dbd d527 abbe
000000a0: 5122 253e 3ab5 813e 9171 1d3f af7f 883e
000000b0: 58a3 b73e 1a9c 943d 9861 8a3d afdb 953e
000000c0: 462a 503d 4413 3f3f 54c4 463e 60be 62be
000000d0: d1ce d2be 03a0 003c e9b8 883d d964 2cbe
000000e0: 6de2 1c3c c9b8 b2bf ec29 963e eaed 37be
000000f0: a7f2 413d ecac 833d 546a 89bf 5afd 853e
00000100: 6bef 873e 1dc2 a2bd 071c e03c d4da 943f
00000110: 6ae4 863e 6bbf 823c cac6 cf3e 0354 c2be
00000120: ec49 103f 7161 43be a328 2fbd a18b 963d
00000130: 181b 83bf afc9 c6bd eef3 643c cb59 793d

bias f4 [16]
-0.18862553 0.244788 0.123811446 0.17293675 -0.0811403 0.31179404 -0.036444142 -0.29612476
0.40314895 -0.21515563 0.25108337 0.1870164 0.06571679 0.076833926 -0.40470624 0.16668811
00000000: 0d27 41be b5a9 7a3e db90 fd3d 5516 313e
00000010: e32c a6bd 78a3 9f3e 7446 15bd aa9d 97be
00000020: 8a69 ce3e c251 5cbe 008e 803e 3a81 3f3e
00000030: 8696 863d 1b5b 9d3d a835 cfbe 4ab0 2a3e

weight f4 [64, 16, 3]
-0.06785547 0.124461435 0.019631812 -0.10950451 -0.102393985 -0.14350016 0.060950883 0.07979277
0.43421137 -0.092221834 -0.055930626 0.056975286 -0.08047555 0.009449762 0.086853586 -0.10078306
0.2824376 0.4139769 0.035631895 -0.078326486 0.14867 0.15953836 0.11252474 0.065037005
0.008713205 -0.06671857 0.04739345 0.019225083 0.14675039 -0.0064239404 0.0658473 0.033781167
0.18936995 -0.009540262 0.0603027 -0.0037137493 0.04300586 -0.03864151 -0.06141459 0.05616416
-0.007382383 0.08340496 -0.089224525 -0.020248257 0.24545327 -0.19306049 0.1547526 0.20561539
-0.002544251 0.09213507 0.08803702 -0.03688865 -0.05109496 -0.062192105 0.09965672 -0.027462972
0.113649726 -0.0014807881 -0.08072587 -0.15084974 0.05781317 0.06988523 0.04843939 -0.015525303
0.084875636 -0.0035726842 -0.083177656 0.0043228636 0.027217744 -0.0064746416 0.02516389 0.04916122
-0.01123662 -0.08183659 0.062947914 -0.038118176 0.12724711 0.039374698 -0.02802456 0.01446534
-0.022692494 -0.02749352 -0.11200904 -0.032793544 -0.049114216 0.061349683 0.0020104798 0.058110576
0.14371705 0.18317051 -0.04656069 -0.11771303 -0.018914463 0.037281632 -0.13038394 -0.33106628
-0.055433113 -0.036157805 0.07829982 0.074248455 0.14759383 0.06534337 0.02665841 -0.041000463
-0.12871152 -0.12605679 0.14267588 0.13469142 -0.0071345167 -0.04322465 -0.1769159 -7.144171e-05
0.13486916 0.105466716 0.0006416476 -0.07665759 0.13837707 0.05747898 0.035591457 0.00011489301
0.061006516 -0.06480385 -0.08289203 0.06965635 0.060565036 0.03125369 -0.06575591 -0.055140026
0.27197784 0.08475161 0.015040222 0.06885685 0.059059795 0.030462274 0.17105678 -0.16290434
-0.124594525 -0.21684673 -0.14219476 -0.0569078 -0.08706741 0.07972975 0.19648942 -0.020762581
0.24011108 0.034541033 -0.029936222 -0.0629793 -0.1329309 -0.07935773 -0.061848596 -0.13218431
-0.16303192 -0.0034246054 0.012217712 -0.005933312 -0.08188995 -0.1551495 0.08424559 -0.21437648
-0.060675737 0.0059979823 -0.1625412 0.07781254 -0.12482198 -0.0916635 -0.13826844 0.0037461186
0.028627604 0.084487595 -0.035706412 -0.085647166 0.21509542 0.022935672 -0.19924326 -0.1377477
-0.03692531 -0.06528474 -0.102161825 -0.08657044 0.08651259 -0.014763217 0.23863032 -0.07149769
-0.15368877 -0.21259545 -0.12879498 -0.14994864 0.0024691974 -0.16586174 -0.16942365 0.07310069
-0.014211719 -0.123902336 -0.17521724 0.053059407 0.024970274 -0.03890482 0.17499313 -0.0039425995
0.097833596 0.19315876 0.10412073 0.119727366 0.1946819 0.006709879 0.082571335 0.20428357
0.12869602 0.13160904 0.001994107 0.1082164 -0.019218175 -0.113633916 0.15973854 0.13885355
0.011341068 0.08521896 -0.060362026 0.008428826 -0.1651293 -0.007273185 0.09442758 -0.116492726
-0.030477816 -0.08386774 -0.09168322 0.13773227 -0.09785256 0.054584794 -0.11573617 -0.06988875
-0.029465059 -0.086994186 -0.05965192 0.060113832 0.14400096 0.24938042 0.07768787 0.42028728
0.21871278 0.1227384 0.19244726 0.094907805 -0.042804427 -0.006752223 -0.0934893 -0.2334244
0.0058244937 -0.051904384 0.07520239 0.03156938 -0.0974201 0.06309163 -0.13598931 0.094834335
00000000: cff7 8abd a3e5 fe3d e5d2 a03c e743 e0bd
00000010: f0b3 d1bd b5f1 12be a2a7 793d 646a a33d
00000020: f450 de3e cdde bcbd 8317 65bd eb5e 693d
00000030: 5dd0 a4bd 2dd3 1a3c 4be0 b13d 5967 cebd
00000040: a99b 903e c8f4 d33e c0f2 113d a369 a0bd
00000050: f33c 183e 065e 233e 5f73 e63d 1f32 853d
00000060: d5c1 0e3c bfa3 88bd a21f 423d ec7d 9d3c
00000070: bc45 163e eb7f d2bb f3da 863d 1f5e 0a3d
00000080: 32ea 413e c24e 1cbc f7ff 763d 6062 73bb
00000090: ea26 303d 8f46 1ebd dd8d 7bbd 640c 663d
000000a0: ebe7 f1bb 38d0 aa3d 59bb b6bd acdf a5bc
000000b0: 1a58 7b3e a6b1 45be 7777 1e3e d78c 523e
000000c0: 73bd 26bb 50b1 bc3d c14c b43d 8e18 17bd
000000d0: f348 51bd 26bd 7ebd d318 cc3d 07fa e0bc
000000e0: 30c1 e83d 0117 c2ba 9b53 a5bd 5b78 1abe
000000f0: 81cd 6c3d fd1f 8f3d 6268 463d d75d 7ebc
00000100: 47d3 ad3d b223 6abb 0c59 aabd cfa6 8d3b
00000110: bff7 de3c 3b29 d4bb 8124 ce3c 475d 493d
00000120: cd19 38bc f199 a7bd d6ea 803d ce21 1cbd
00000130: 114d 023e 5d47 213d c393 e5bc 0900 6d3c
00000140: 9ce5 b9bc 173a e1bc ff64 e5bd 8652 06bd
00000150: fd2b 49bd ce49 7b3d 41c2 033b 5b05 6e3d
00000160: 902a 133e 0d91 3b3e 6cb6 3ebd 8713 f1bd
00000170: 81f2 9abc a0b4 183d 5e83 05be 8581 a9be
00000180: d50d 63bd 351a 14bd a85b a03d 930f 983d
00000190: d622 173e bfd2 853d bd62 da3c 1af0 27bd
000001a0: f4cc 03be 0815 01be a019 123e 8cec 093e
000001b0: aac8 e9bb 550c 31bd 7129 35be fad2 95b8
000001c0: 241b 0a3e effe d73d 3e34 283a a8fe 9cbd
000001d0: b8b2 0d3e 146f 6b3d 59c8 113d b7f2 f038
000001e0: f8e1 793d e2b7 84bd 4cc3 a9bd fda7 8e3d
000001f0: 0b13 783d df03 003d 09ab 86bd 82da 61bd
00000200: ae40 8b3e 4192 ad3d 436b 763c d204 8d3d
00000210: afe8 713d 058c f93c 8229 2f3e 65d0 26be
00000220: 6a2b ffbd 120d 5ebe 819b 11be 2718 69bd
00000230: 6650 b2bd 5a49 a33d 8634 493e 4a16 aabc
00000240: aedf 753e e67a 0d3d cf3c f5bc 4bfb 80bd
00000250: 0a1f 08be 4e86 a2bd f454 7dbd 535b 07be
00000260: d7f1 26be 586f 60bb cc2c 483c 3a6c c2bb
00000270: ebb5 a7bd 83df 1ebe f488 ac3d 8285 5bbe
00000280: 1f87 78bd b98a c43b 3371 26be 2e5c 9f3d
00000290: aba2 ffbd 13ba bbbd 3e96 0dbe 7181 753b
000002a0: 7084 ea3c d507 ad3d e340 12bd c867 afbd
000002b0: f941 5c3e 97e3 bb3c 6d06 4cbe bc0d 0dbe
000002c0: fe3e 17bd 01b4 85bd 383a d1bd d84b b1bd
000002d0: 832d b13d 6ce1 71bc 825b 743e 626d 92bd
000002e0: 9760 1dbe 9fb2 59be d5e2 03be 238c 19be
000002f0: 42d2 213b a9d7 29be 657d 2dbe d1b5 953d
00000300: 45d8 68bc 82c0 fdbd 266c 33be d254 593d
00000310: 768e cc3c a95a 1fbd 6631 333e ec30 81bb
00000320: fb5c c83d 69cb 453e 403d d53d 9f33 f53d
00000330: b15a 473e 8bde db3b 291b a93d b62f 513e
00000340: e4c8 033e 85c4 063e 90af 023b 8fa0 dd3d
00000350: 6f6f 9dbc e6b8 e8bd 8092 233e a02f 0e3e
00000360: e3cf 393c 4787 ae3d 2c3e 77bd 0f19 0a3c
00000370: a817 29be e653 eebb 3f63 c13d bd93 eebd
00000380: 9dac f9bc dac2 abbd 69c4 bbbd b009 0d3e
00000390: ec66 c8bd 4e94 5f3d 1607 edbd d521 8fbd
000003a0: b560 f1bc 022a b2bd 9255 74bd ec39 763d
000003b0: fd74 133e 955d 7f3e d11a 9f3d e52f d73e
000003c0: 3ef6 5f3e 455e fb3d e510 453e 065f c23d
000003d0: b253 2fbd c041 ddbb 5177 bfbd ce06 6fbe
000003e0: 65db be3b b199 54bd b603 9a3d e54e 013d
000003f0: 3084 c7bd 2f36 813d c840 0bbe 8138 c23d

bias f4 [64]
0.078706644 0.074660525 -0.0028118119 -0.22852887 -0.01671903 -0.114883535 0.08758864 0.067015514
-0.03353987 -0.0105031235 -0.10060648 0.0042374367 0.080497414 0.06205933 -0.08129382 0.0058711544
-0.033416133 0.016092548 -0.10923439 0.025981884 0.15678869 0.06657681 -0.08140036 0.18510152
-0.09068858 0.056940578 0.10175889 0.18599695 -0.029456096 0.16261151 0.081300445 -0.01627462
0.1648239 -0.045467414 0.033108283 0.0562425 0.033308294 -0.05166158 0.18001045 -0.10562236
0.022518855 -0.00628554 -0.008617893 -0.002897422 -0.16279562 -0.016229317 0.06461385 -0.08958449
-0.099465445 -0.044224147 -0.06818746 0.029325485 -0.059925467 0.15040202 0.11282643 0.15727107
0.005792855 -0.083966315 -0.11331653 -0.035480138 -0.08163884 0.10334409 -0.046721276 -0.039561883
00000000: f330 a13d 9ee7 983d 6046 38bb 7903 6abe
00000010: 59f6 88bc 0f48 ebbd ac61 b33d 6e3f 893d
00000020: 1a61 09bd 4b15 2cbc c50a cebd 32da 8a3b
00000030: d4db a43d ed31 7e3d 607d a6bd d062 c03b
00000040: 5bdf 08bd 85d4 833c 48b6 dfbd f6d7 d43c
00000050: 378d 203e 6c59 883d 3bb5 a6bd 418b 3d3e
00000060: efba b9bd 863a 693d f766 d03d fc75 3e3e
00000070: e94d f1bc a283 263e d980 a63d 5a52 85bc
00000080: 99c7 283e 0a3c 3abd 8d9c 073d 895e 663d
00000090: 476e 083d 189b 53bd a954 383e 8950 d8bd
000000a0: 7679 b83c eef6 cdbb 1032 0dbc ade2 3dbb
000000b0: e5b3 26be 58f3 84bc 4454 843d 1378 b7bd
000000c0: 8ab4 cbbd 6124 35bd dea5 8bbd 003c f03c
000000d0: 6874 75bd fd02 1a3e 8b11 e73d ab0b 213e
000000e0: fdd1 bd3b 88f6 abbd 7f12 e8bd 9f53 11bd
000000f0: 4432 a7bd 11a6 d33d cf5e 3fbd a40b 22bd

weight f4 [256, 192]
0.037922617 -0.06072498 -0.010611693 0.04580026 -0.0012112539 -0.100053765 -0.11993697 -0.10960667
0.024035124 -0.009391773 0.06287821 -0.08345797 -0.13803804 -0.06989034 -0.007230252 -0.06536547
-0.097596794 -0.077566385 -0.10067058 0.080467105 -0.02353787 0.0012531584 0.0023120935 -0.12136675
0.049395327 -0.030020582 -0.060120523 0.053019367 0.07100572 0.09224558 -0.034524493 -0.06981648
-0.03388713 0.06645685 -0.034861606 -0.022326894 -0.081443295 -0.049303353 0.12464088 0.006637378
-0.015949316 0.05845697 0.06529498 0.075687155 0.025164131 0.0056940997 0.05723347 0.028284168
-0.16964026 -0.09130132 -0.07107208 0.13000637 -0.025189005 0.011315857 -0.012076055 0.0130707
-0.1442634 0.012202571 -0.065658964 -0.06783814 -0.0426719 0.02022133 0.05332651 -0.06432158
0.06784772 0.011721164 -0.047963936 -0.038149957 -0.04920176 0.09237205 0.0074897422 -0.11981725
0.041196648 0.009221531 -0.056517046 -0.055984106 0.03505746 0.058947474 -0.036367718 -0.049393505
0.07627447 0.0074301367 0.074404776 0.047424 -0.0844426 -0.029296217 -0.04941086 -0.024911195
-0.0058495607 -0.06899739 0.07991126 -0.0014585964 -0.11410844 0.077859364 -0.0143840015 -0.023253206
-0.04728451 0.008100141 0.06131364 -0.024211576 -0.0902255 0.010695573 -0.146906 -0.013862344
-0.03616069 -0.05390503 0.02094932 -0.019984253 -0.11530146 0.040409274 -0.0059485943 -0.15015353
-0.08511458 -0.07452558 -0.019968988 -0.024713809 0.043208905 -0.085853755 -0.04630594 0.050203014
0.062264424 -0.07836499 -0.053088102 0.001047793 -0.11913661 -0.03085686 0.08539605 0.13779575
0.018990794 0.02404678 0.07290306 0.005498348 0.06785295 -0.021278031 -0.111376025 0.13290486
0.015228848 -0.05151165 -0.01112679 0.055586174 -0.00806584 -0.096811324 -0.14908974 -0.20871185
-0.1733339 -0.066142984 0.010466376 -0.04270086 -0.035439517 -0.043500885 -0.10715735 -0.062135786
-0.03450468 -0.006254937 -0.00731022 -0.022048388 -0.0738856 -0.06457247 0.089521095 -0.006469293
0.0708825 0.23979773 -0.2891383 0.0068841074 0.011501806 0.15954456 -0.057853535 -0.03700652
0.06982179 -0.039118636 0.05702642 -0.016416872 -0.09710803 -0.015971933 -0.020963037 0.007420906
0.015339144 -0.10592082 0.0005842744 -0.10596668 0.04353625 0.00028774785 -0.06156649 -0.10159025
-0.07427105 0.04059129 0.017257059 -0.0037347926 0.0028494766 -0.015033797 0.07534598 -0.00453016
-0.123935424 0.06253021 0.12851469 0.06458779 0.048727814 0.039226178 -0.04075142 0.100083224
0.019976124 0.070860885 0.05526695 0.07718776 -0.017310007 0.10599441 -0.05287003 0.009224705
-0.031373475 0.018016616 -0.11766275 -0.047758166 -0.015950706 -0.024879651 0.02652841 0.021226082
-0.015593793 -0.052227546 0.015483393 -0.011240254 -0.05041081 -0.020267485 -0.13772987 -0.13958281
-0.1412655 0.026009668 -0.07632464 -0.015952535 -0.09280507 -0.14816624 -0.12200047 -0.077555954
-0.12655006 -0.02590301 0.17586118 0.086369395 0.102018185 0.045343153 0.08303665 0.09768658
0.102488786 0.16515924 0.3254345 0.07676751 -0.021012262 0.011886491 0.084933825 0.034193564
0.060857803 0.053750064 0.049255464 -0.048787918 -0.1334493 0.045651812 -0.058448646 -0.08919233
00000000: bf54 1b3d c2ba 78bd abdc 2dbc 0e99 3b3d
00000010: f0c2 9eba fde8 ccbd 84a1 f5bd 7679 e0bd
00000020: 4fe5 c43c f3df 19bc 4ac6 803d 03ec aabd
00000030: d859 0dbe ab22 8fbd c0eb ecbb 55de 85bd
00000040: d4e0 c7bd 20db 9ebd 612c cebd f0cb a43d
00000050: 7ed2 c0bc 0541 a43a 7e86 173b 218f f8bd
00000060: c152 4a3d b9ed f5bc f040 76bd d62a 593d
00000070: 726b 913d 40eb bc3d 8e69 0dbd f1fb 8ebd
00000080: 3bcd 0abd 871a 883d 0bcb 0ebd e4e6 b6bc
00000090: becb a6bd 50f2 49bd b843 ff3d 5d7e d93b
000000a0: 24a8 82bc 9370 6f3d 60b9 853d de01 9b3d
000000b0: 0225 ce3c 9295 ba3b a56d 6a3d 33b4 e73c
000000c0: 2db6 2dbe 30fc babd 3d8e 91bd 6420 053e
000000d0: 2c59 cebc 2566 393c a5da 45bc 7d26 563c
000000e0: c9b9 13be 4bed 473c 3578 86bd b9ee 8abd
000000f0: bbc8 2ebd 34a7 a53c e66c 5a3d 08bb 83bd
00000100: bff3 8a3d 200a 403c d575 44bd 2143 1cbd
00000110: c987 49bd 8f2d bd3d 836c f53b bf62 f5bd
00000120: d1bd 283d e815 173c 6b7e 67bd 974f 65bd
00000130: 6998 0f3d e872 713d 51f6 14bd d850 4abd
00000140: ca35 9c3d 8178 f33b 8861 983d ab3f 423d
00000150: 3ef0 acbd 9ffe efbc 0b63 4abd 9012 ccbc
00000160: acad bfbb 814e 8dbd 84a8 a33d 602e bfba
00000170: b0b1 e9bd bb74 9f3d e0aa 6bbc 827d bebc
00000180: 67ad 41bd 74b6 043c 0324 7b3d 5b57 c6bc
00000190: 26c8 b8bd 7c3c 2f3c 876e 16be e31e 63bc
000001a0: 3b1d 14bd 85cb 5cbd e99d ab3c 04b6 a3bc
000001b0: 2c23 ecbd 3284 253d 6dec c2bb d9c1 19be
000001c0: 8e50 aebd dea0 98bd 0196 a3bc 9d74 cabc
000001d0: d2fb 303d 18d4 afbd 4cab 3dbd ada1 4d3d
000001e0: fb08 7f3d d37d a0bd e972 59bd 1956 893a
000001f0: e5fd f3bd 87c7 fcbc 20e4 ae3d 541a 0d3e
00000200: 9592 9b3c c1fd c43c 334e 953d 7c2b b43b
00000210: 7df6 8a3d 444f aebc 1d19 e4bd 3618 083e
00000220: 6b82 793c e1fd 52bd 244d 36bc 54ae 633d
00000230: 9626 04bc 0445 c6bd fbaa 18be 8fb8 55be
00000240: 717e 31be f975 87bd 2a7b 2b3c 19e7 2ebd
00000250: 0729 11bd fc2d 32bd 5075 dbbd 1882 7ebd
00000260: c854 0dbd 37f6 ccbb 928a efbb d29e b4bc
00000270: 5551 97bd 923e 84bd d656 b73d 5dfc d3bb
00000280: d82a 913d 898d 753e ef09 94be 1494 e13b
00000290: 1272 3c3c a65f 233e d4f7 6cbd 2694 17bd
000002a0: bafe 8e3d dd3a 20bd 8994 693d ad7c 86bc
000002b0: 93e0 c6bd 92d7 82bc adba abbc 122b f33b
000002c0: 0851 7b3c 04ed d8bd fe29 193a 0f05 d9bd
000002d0: 1153 323d dddc 9639 252d 7cbd 8d0e d0bd
000002e0: 6c1b 98bd 0d43 263d ad5e 8d3c 6cc3 74bb
000002f0: 49be 3a3b 5150 76bc fe4e 9a3d bd71 94bb
00000300: dbd1 fdbd d70f 803d 5b99 033e 9a46 843d
00000310: d196 473d a1ab 203d f6ea 26bd 6ff8 cc3d
00000320: f8a4 a33c 831f 913d 995f 623d 9e14 9e3d
00000330: b7cd 8dbc 9913 d93d 3f8e 58bd 3823 173c
00000340: 7981 00bd 9597 933c 2bf9 f0bd 119e 43bd
00000350: 0eab 82bc 69d0 cbbc 1c52 d93c 52e2 ad3c
00000360: 1c7d 7fbc 8dec 55bd 0fae 7d3c 0b29 38bc
00000370: 917b 4ebd ff07 a6bc 0f09 0dbe ccee 0ebe
00000380: e7a7 10be 3a12 d53c 1850 9cbd e4ae 82bc
00000390: 9610 bebd e4b8 17be 62db f9bd a8d5 9ebd
000003a0: 5796 01be 8d32 d4bc f414 343e 70e2 b03d
000003b0: e9ee d03d beb9 393d 1f0f aa3d e70f c83d
000003c0: a4e5 d13d 811f 293e 5a9f a63e 4938 9d3d
000003d0: e821 acbc 8fbf 423c c9f1 ad3d 8d0e 0c3d
000003e0: 0846 793d 0729 5c3d 19c0 493d d7d5 47bd
000003f0: efa6 08be 65fd 3a3d d967 6fbd 78aa b6bd

bias f4 [256]
0.039987978 -0.0786991 -0.013257383 -0.003139857 0.006880472 0.058218278 0.057163518 -0.041350376
-0.07225638 -0.172132 0.04602608 -0.019425852 -0.054333843 -0.1260615 0.029799554 -0.032336265
-0.030089814 0.032758843 -0.013835211 0.06995888 0.004314196 0.075854965 0.06348786 0.00059900526
0.009232356 -0.0029878204 -0.12893178 -0.028201817 -0.03680875 0.045874886 0.038193733 -0.007326585
-0.032419566 0.061792515 0.047006432 0.07847261 0.08991452 0.04402908 -0.016247848 0.053617235
-0.060925107 0.046611723 -0.12459883 0.0021546562 -0.08035461 -0.04061819 0.07884457 -0.05222678
-0.0049681664 0.051145766 -0.080158815 -0.03138841 0.025190813 0.071574405 0.060360912 0.04250368
-0.031472947 -0.07605112 -0.044937734 0.0216018 0.004142073 0.04707756 -0.011189954 -0.019807046
0.027019637 0.013299782 0.040582728 -0.013726454 -0.08050881 -0.006670973 0.06788567 0.07087425
-0.010482741 -0.021616124 0.049279246 -0.035553865 -0.009174349 -0.0054312726 0.018099062 0.028662134
0.095873855 0.023984633 0.009311993 -0.011002376 0.0047317958 0.06947618 -0.010455341 -0.022845883
-0.030582158 0.029538589 0.05543769 -0.032558687 0.07801499 -0.022926383 0.06007343 0.032488205
-0.005788967 -0.12757665 0.050340164 0.023916442 0.04407248 0.054942667 -0.011770566 -0.05243386
0.078612365 0.014449947 -0.02345238 0.04392366 0.057192322 0.06260586 -0.08199585 0.04333564
0.011195412 0.030163256 0.04077133 0.022247214 0.00562883 0.07448988 0.04513294 0.021469086
-0.06144767 -0.016262298 -0.06876492 0.08340236 0.049613252 -0.025624692 0.043833777 -0.063193984
-0.081704065 -0.024998568 -0.0783831 0.11421728 -0.004534029 -0.006638452 0.08384019 -0.08927012
0.035089415 0.01692276 -0.01222065 0.011402144 0.056992542 -0.031174336 0.016723104 -0.036205094
-0.01613582 0.061443686 -0.0130534 0.016076827 -0.22055258 0.0034047684 0.0035893535 0.08686094
-0.10859417 -0.17543747 -0.14759402 -0.0036427635 -0.05245559 -0.08429332 0.057419613 -0.06198897
-0.03854433 0.026328288 -0.076326184 -0.07964728 -0.072432354 0.09427582 -0.008475325 -0.06832313
-0.006234936 -0.10250085 0.017743962 -0.045837104 -0.057054073 -0.005906526 -0.017729726 0.030356929
0.026160482 0.04029917 0.019416977 -0.10070055 -0.00066171837 -0.08453819 0.028238373 0.0037828228
0.006429644 0.036312196 0.03426769 0.016019233 -0.045428578 0.06831346 0.03401081 0.021164894
0.033952426 0.029670483 0.06987781 -0.074550346 0.052649226 0.018067151 -0.038548727 -0.05785823
0.020273713 -0.0043605505 -0.2298395 0.012607485 0.043614563 0.08161009 0.038566947 -0.033374626
0.049487147 -0.03400364 -0.009258237 -0.08097128 0.055408426 0.084525906 -0.00495113 -0.061698962
0.02819235 -0.1808594 0.031955436 -0.020042276 0.05082734 0.010232521 0.059068993 -0.024162596
0.020479197 -0.02856437 0.07092806 -0.05500377 -0.015296621 0.10712745 0.033966225 -0.032260414
0.026971903 -0.24622017 0.026552876 -0.0036212867 0.09301467 -0.08749513 0.0695441 -0.017845046
0.07613173 0.006999511 0.074632056 -0.008399051 -0.049262065 0.011694633 0.04019709 0.050647303
-0.17588179 -0.048545048 -0.0096312305 0.05591836 0.07766417 0.027484085 0.058339905 -0.09692441
00000000: 6fca 233d fe2c a1bd 7f35 59bc 0fc6 4dbb
00000010: 9575 e13b 4a76 6e3d 4b24 6a3d 035f 29bd
00000020: 27fb 93bd 5f43 30be d885 3c3d f722 9fbc
00000030: 2a8d 5ebd 4416 01be 321e f43c 0873 04bd
00000040: ea7e f6bc 232e 063d 15ad 62bc 9a46 8f3d
00000050: 195e 8d3b d959 9b3d ec05 823d 9006 1d3a
00000060: 4f43 173c 4fcf 43bb b106 04be 7f07 e7bc
00000070: c6c4 16bd 4ee7 3b3d 0871 1c3d d913 f0bb
00000080: 61ca 04bd 261a 7d3d d189 403d 3fb6 a03d
00000090: 1b25 b83d d657 343d 351a 85bc bf9d 5b3d
000000a0: 9b8c 79bd efeb 3e3d ac2d ffbd 2235 0d3b
000000b0: f590 a4bd 425f 26bd 4379 a13d c0eb 55bd
000000c0: 00cc a2bb 397e 513d 4e2a a4bd 2291 00bd
000000d0: f75c ce3c 9a95 923d 013d 773d 5718 2e3d
000000e0: c7e9 00bd b1c0 9bbd a110 38bd 42f6 b03c
000000f0: 3aba 873b 66d4 403d 1256 37bc 6342 a2bc
00000100: 4958 dd3c 54e7 593c 133a 263d ece4 60bc
00000110: cee1 a4bd 2d98 dabb a407 8b3d 8526 913d
00000120: cdbf 2bbc 4c14 b1bc 09d9 493d eea0 11bd
00000130: 0250 16bc d1f8 b1bb 7c44 943c dacc ea3c
00000140: 8359 c43d 6c7b c43c 5491 183c 4f43 34bc
00000150: 2e0d 9b3b 8749 8e3d e14c 2bbc 4a27 bbbc
00000160: 6f87 fabc e9fa f13c a212 633d 425c 05bd
00000170: 53c6 9f3d 1cd0 bbbc 8f0f 763d 5a12 053d
00000180: 60b1 bdbb 74a3 02be 7d31 4e3d 6aec c33c
00000190: 5885 343d 900b 613d 55d9 40bc e3c4 56bd
000001a0: 85ff a03d 78bf 6c3c 351f c0bc 4ce9 333d
000001b0: 7f42 6a3d 8037 803d 71ed a7bd b680 313d
000001c0: f66c 373c ef18 f73c d7ff 263d ca3f b63c
000001d0: 0c72 b83b 268e 983d 51dd 383d f0df af3c
000001e0: 8db0 7bbd 8338 85bc 9fd4 8cbd dbce aa3d
000001f0: 4437 4b3d e0ea d1bc 0c8b 333d d96b 81bd
00000200: 7654 a7bd ccc9 ccbc 5287 a0bd c0ea e93d
00000210: 3192 94bb 5f87 d9bb 68b4 ab3d 41d3 b6bd
00000220: ebb9 0f3d 9aa1 8a3c 1f39 48bc 0fd0 3a3c
00000230: 0371 693d 5261 ffbc e4fe 883c cb4b 14bd
00000240: 442f 84bc 60ac 7b3d eedd 55bc 8db3 833c
00000250: 89d8 61be 8922 5f3b 5c3b 6b3b 26e4 b13d
00000260: 9f66 debd e1a5 33be e322 17be 6ebb 6ebb
00000270: acdb 56bd faa1 acbd d430 6b3d 25e8 7dbd
00000280: a9e0 1dbd 6cae d73c e750 9cbd 1d1e a3bd
00000290: 6a57 94bd ae13 c13d 17dc 0abc ffec 8bbd
000002a0: 6f4e ccbb f7eb d1bd c95b 913c b0bf 3bbd
000002b0: 88b1 69bd 888b c1bb ee3d 91bc 18af f83c
000002c0: 824e d63c be10 253d 5a10 9f3c 173c cebd
000002d0: 2b77 2dba 5c22 adbd 2954 e73c 3ce9 773b
000002e0: c3af d23b 19bc 143d 475c 0c3d c43a 833c
000002f0: 5113 3abd ede7 8b3d eb4e 0b3d 0062 ad3c
00000300: b311 0b3d 830f f33c 191c 8f3d daad 98bd
00000310: b7a6 573d 9001 943c 45e5 1dbd c0fc 6cbd
00000320: 0f15 a63c f3e2 8ebb 0c5b 6bbe a08f 4e3c
00000330: 2fa5 323d 3123 a73d 60f8 1d3d d5b3 08bd
00000340: 09b3 4a3d 6747 0bbd dcaf 17bc 45d4 a5bd
00000350: f2f3 623d eb1b ad3d 173d a2bb 0db8 7cbd
00000360: a5f3 e63c 3533 39be b4e3 023d b32f a4bc
00000370: 5430 503d 4ea6 273c 54f2 713d a3f0 c5bc
00000380: fdc3 a73c d3ff e9bc bb42 913d a24b 61bd
00000390: ae9e 7abc a365 db3d 2b20 0b3d 7f23 04bd
000003a0: 2ef4 dc3c 2421 7cbe 6b85 d93c 1c53 6dbb
000003b0: 7a7e be3d a630 b3bd 236d 8e3d c62f 92bc
000003c0: f4ea 9b3d 275c e53b b1d8 983d 2c9c 09bc
000003d0: 05c7 49bd d99a 3f3c b4a5 243d 8c73 4f3d
000003e0: 5b1a 34be 2cd7 46bd 4fcc 1dbc a60a 653d
000003f0: 640e 9f3d 4e26 e13c d3f5 6e3d 4e80 c6bd

weight f4 [256, 256]
0.012527943 -0.0013661125 -0.120228894 -0.20067872 0.048482183 0.004284748 0.11440716 -0.17115277
0.08259302 -0.01905921 -0.20108917 0.22921133 -0.05465642 0.060416013 0.12103961 0.030740572
-0.11519813 0.041510567 0.043484565 -0.08087493 0.021705668 -0.21570005 -0.017102538 0.06034379
0.040271875 0.16109507 0.26826876 0.06268771 -0.24630004 -0.023575205 0.21808036 -0.19418007
0.04039728 -0.19989985 0.034163598 -0.13883543 -0.13648646 -0.0764559 -0.15141371 -0.031934302
-0.026094351 0.077506855 0.0066540376 0.036970925 -0.006738815 0.07108814 -0.096569955 0.014539881
0.0079677235 -0.112582564 0.012808793 0.07513284 -0.22595507 -0.21208946 0.06655953 -0.09062019
-0.0898112 -0.075984985 -0.09010526 0.0006226695 -0.05103372 -0.023987727 -0.054002445 0.006222899
0.082526535 0.010655924 -0.23888044 0.015276745 0.035344057 -0.19996089 -0.020134242 0.029621692
-0.23819977 0.10617262 0.010994726 0.12704192 -0.045553192 -0.036262132 0.09502411 0.029423442
-0.053608667 -0.00999241 0.07472514 -0.003498665 0.00022089049 -0.08179038 0.05731961 -0.10066934
0.07612271 0.050290335 0.024475086 0.15084898 -0.008107664 -0.19401172 0.008528637 0.03216195
0.10977869 -0.072066866 -0.1765382 -0.005473475 -0.056130774 0.05740191 0.10267862 0.18932785
-0.15347819 0.053335957 0.08735406 0.0533631 -0.12800688 -0.107998736 0.14990579 -0.2306265
-0.08425812 0.03452262 0.057390295 0.027144266 0.11342492 0.11952645 0.022717506 -0.11979081
0.035603367 0.06489936 -0.022585407 0.18443277 -0.006014691 -0.17515686 0.08877635 0.2293178
0.24746369 0.077396944 -0.14189291 -0.20962471 -0.0008377644 -0.15482691 0.07226544 0.12794669
0.04313663 0.025895882 0.07457488 0.0020388118 -0.19864538 -0.1320939 -0.17896064 0.030579126
0.022203503 0.10258847 0.010581777 0.03647178 -0.07283232 0.015066672 0.046142586 -0.17986043
0.14027199 -0.041321915 -0.105524205 0.0215038 0.034789227 0.025433097 -0.11604404 0.045256253
-0.19766942 0.16444051 0.24126421 0.23609455 0.023213098 -0.08959853 -0.06030079 -0.03271572
-0.23887348 0.18166049 -0.23242003 0.0107727125 0.06885624 0.2037946 -0.16374011 -0.01827036
-0.022974847 -0.051074352 0.19048303 0.16961427 0.13946055 0.036307912 0.035943236 -0.15626733
-0.15997304 -0.15970075 -0.11320556 -0.018683394 0.021044172 0.030738315 0.063227475 0.027941657
-0.19797382 -0.08602599 0.051775202 0.025908548 -0.2409203 0.00071666844 0.16333054 -0.1329779
0.07577533 0.07861725 0.059552986 -0.010655194 0.048750404 0.0025778667 0.043100312 0.052963555
0.04344276 -0.06421863 -0.13383344 0.24160942 -0.14817823 -0.063280165 -0.0062774885 -0.07381251
0.07830035 -0.041936193 0.016387228 -0.1787131 0.020587489 0.011495947 -0.019077655 -0.27130026
0.052069332 0.03919878 0.021223372 -0.22421338 -0.08073497 0.01155935 0.068545595 0.023084357
0.03525688 0.016465835 0.101210326 0.09030131 -0.09626446 0.06338563 0.04245639 0.058727853
-0.019041166 -0.041052934 0.043402478 0.039290022 -0.21082313 -0.04199979 -0.12667035 0.098003425
0.0007754895 -0.018878264 0.018979302 0.09102094 -0.006888111 -0.02438111 0.07809925 -0.026536299
00000000: 0042 4d3c 210f b3ba 913a f6bd b97e 4dbe
00000010: 4195 463d 1267 8c3b 4d4e ea3d ac42 2fbe
00000020: 8726 a93d 0f22 9cbc 52ea 4dbe 60b6 6a3e
00000030: 69df 5fbd c876 773d 9de3 f73d a7d3 fb3c
00000040: ffec ebbd fc06 2a3d df1c 323d c1a1 a5bd
00000050: 16d0 b13c 79e0 5cbe 9f1a 8cbc 0d2b 773d
00000060: 1ff4 243d 1bf6 243e 865a 893e 6a62 803d
00000070: 1436 7cbe ca20 c1bc 7550 5f3e 24d7 46be
00000080: 9e77 253d 8cb2 4cbe 21ef 0b3d e02a 0ebe
00000090: 1bc3 0bbe e994 9cbd 320c 1bbe 8bcd 02bd
000000a0: d2c3 d5bc eabb 9e3d 1d0a da3b d36e 173d
000000b0: 47d1 dcbb a996 913d 78c6 c5bd ae38 6e3c
000000c0: 0e8b 023c b091 e6bd f9db 513c 3fdf 993d
000000d0: c460 67be fb2d 59be 5d50 883d 1497 b9bd
000000e0: efee b7bd 049e 9bbd 1b89 b8bd a53a 233a
000000f0: bc08 51bd e981 c4bc ab31 5dbd 76e9 cb3b
00000100: ac03 a93d 2f96 2e3c 139d 74be 504b 7a3c
00000110: eec4 103d 8cc2 4cbe 91f0 a4bc 31a9 f23c
00000120: a4ea 73be 0871 d93d 3923 343c 4717 023e
00000130: fc95 3abd 9a87 14bd 009c c23d 6e09 f13c
00000140: c394 5bbd 35b7 23bc 7f09 993d dc49 65bb
00000150: d79e 6739 b781 a7bd f8c7 6a3d ba2b cebd
00000160: 39e6 9b3d 3dfd 4d3d fa7f c83c 2878 1a3e
00000170: 02d6 04bc 02ab 46be b2bb 0b3c 40bc 033d
00000180: a6d3 e03d cb97 93bd 6ec6 34be d65a b3bb
00000190: 62e9 65bd 441e 6b3d 2b49 d23d 29df 413e
000001a0: 6329 1dbe ce76 5a3d afe6 b23d 4493 5a3d
000001b0: 3c14 03be 712e ddbd e780 193e 5a29 6cbe
000001c0: 858f acbd 9767 0d3d 1612 6b3d a75d de3c
000001d0: 534b e83d 49ca f43d 101a ba3c e254 f5bd
000001e0: d6d4 113d f5e9 843d 0805 b9bc f2db 3c3e
000001f0: e316 c5bb 525c 33be 60d0 b53d 49d2 6a3e
00000200: 1f67 7d3e 4a82 9e3d 604c 11be dca7 56be
00000210: 6b9d 5bba f28a 1ebe e7ff 933d 7504 033e
00000220: 09b0 303d 9a23 d43c b7ba 983d 969d 053b
00000230: b269 4bbe a043 07be 7541 37be 1381 fa3c
00000240: 1fe4 b53c e719 d23d 315f 2d3c 6f63 153d
00000250: 1d29 95bd 34da 763c 0200 3d3d 552d 38be
00000260: 76a3 0f3e 2b41 29bd 131d d8bd bd28 b03c
00000270: 267f 0e3d 1259 d03c 7fa8 edbd 9f5e 393d
00000280: da69 4abe 1863 283e f70d 773e c5c2 713e
00000290: 6529 be3c 6f7f b7bd f6fd 76bd eb00 06bd
000002a0: 409b 74be 3505 3a3e 84ff 6dbe 0880 303c
000002b0: 8004 8d3d 88af 503e 7dab 27be b9ab 95bc
000002c0: bf35 bcbc 5733 51bd fc0d 433e 5daf 2d3e
000002d0: bfce 0e3e 9bb7 143d 3739 133d 8b04 20be
000002e0: f9cf 23be 9888 23be 51d8 e7bd eb0d 99bc
000002f0: d464 ac3c ebce fb3c 687d 813d e7e5 e43c
00000300: a6b9 4abe 652e b0bd 3c12 543d 2a3e d43c
00000310: d0b3 76be cede 3b3a 1f40 273e 5c2b 08be
00000320: 1930 9b3d 1502 a13d d5ed 733d 1f93 2ebc
00000330: 81ae 473d 6df1 283b f489 303d 50f0 583d
00000340: 09f1 313d 0f85 83bd a20b 09be 7668 773e
00000350: 09bc 17be 0899 81bd 64b3 cdbb 032b 97bd
00000360: ef5b a03d 49c5 2bbd 823e 863c 9100 37be
00000370: 18a7 a83c 7f59 3c3c be48 9cbc dee7 8abe
00000380: a746 553d e68e 203d a3dc ad3c 3198 65be
00000390: 6058 a5bd 6e63 3d3c a261 8c3d 681b bd3c
000003a0: 8569 103d 5ce3 863c 5c47 cf3d e5ef b83d
000003b0: 4d26 c5bd 53d0 813d c0e6 2d3d 9e8c 703d
000003c0: 38fc 9bbc 1f27 28bd ccc6 313d 93ee 203d
000003d0: 05e2 57be f907 2cbd dfb5 01be 05b6 c83d
000003e0: 384a 4b3a 97a6 9abc 7b7a 9b3c 3069 ba3d
000003f0: aab5 e1bb e5ba c7bc 80f2 9f3d a762 d9bc

bias f4 [256]
-0.014646225 -0.040316906 -0.016789155 -0.028626932 0.0014653892 0.015325866 0.020631189 -0.013046099
0.023964515 -0.020198809 0.008574989 0.022381777 0.03261487 -0.21347933 0.059977017 0.0027533716
0.0021681057 -0.01626301 0.046611853 -0.0012249021 -0.03322174 0.005135483 -0.032537036 -0.012744028
0.031301025 0.025848119 -0.20998895 -0.038182076 -0.04990203 0.051304303 -0.01327161 0.006976475
-0.24232787 -0.015889915 0.0029832479 0.012067271 -0.011675333 -0.034979098 0.07023113 -0.0018169305
-0.02703952 -0.04992423 -0.03580259 0.027921908 0.055896293 0.009049363 0.041537497 -0.009505471
0.0045643183 -0.0155909285 -0.016240159 0.013546458 -0.020200578 0.095263086 -0.23076394 0.020613614
-0.0057281633 0.042542767 -0.030723326 -0.06867567 0.017953446 0.026463611 0.025439898 0.03858786
0.07172244 -0.0047907713 0.03374779 0.029259522 0.13237876 0.028068151 0.1347481 -0.003495958
0.0740196 0.026320584 0.07919495 0.029553644 0.06531695 0.040623248 -0.050631452 0.100630015
0.012095088 0.09651239 -0.03885737 0.09414422 0.013628069 0.020705245 -0.031963944 0.03764056
0.10727872 0.10194809 0.08744356 0.014450216 -0.0026374871 0.021015203 0.008972174 0.015959071
0.021455076 0.065026395 0.05452325 0.022308346 0.052742455 0.057226542 0.0903673 -0.0037470493
0.02373342 0.02781066 -0.017843619 0.044519357 -0.0864987 0.01841368 -0.08211185 0.0119636655
0.038180597 0.0044006426 0.0132077215 0.09144266 0.05430194 -0.22523908 0.018357676 0.02845613
-0.0009507458 0.029613959 0.025764873 -0.053733718 0.07084141 -0.0014774017 0.035384424 -0.001362135
-0.19923407 0.073053785 0.020774757 -0.07336025 -0.040630993 0.018285405 -0.12552188 -0.037172057
-0.025549829 0.042045146 -0.2167248 -0.15414333 0.05205885 -0.04448607 -0.0062045865 -0.1040802
-0.026329843 0.04042703 0.0026376292 0.0043898644 0.042426836 0.005584603 -0.017682418 -0.031513944
-0.020137072 -0.02375598 0.022625271 -0.0060269847 0.0035516727 0.019471217 0.029687071 -0.21026991
0.047481604 0.015262927 -0.026592007 0.009396893 -0.09038429 0.049923204 -0.0061947014 0.029907636
-0.029137867 -0.12619945 -0.013465057 0.021449998 0.12533027 -0.0010920146 0.028784955 0.07314896
0.015668113 0.005051195 0.09219587 0.032537233 0.008373673 0.024197077 -0.019719284 0.0343446
0.044971004 -0.16863783 0.019803375 -0.02984871 -0.004028956 0.07500081 -0.0062734922 0.044880033
-0.0035567519 0.045002583 -0.022033077 0.019362427 0.055628978 0.034703095 0.02601096 -0.048123162
0.11133646 0.15426019 0.030455772 -0.01996013 -0.070394866 -0.011950879 0.0018261557 -0.023083461
-0.013521289 0.022286063 0.004830414 -0.0027613246 0.033419013 0.018506015 0.04089572 0.027225388
-0.004706288 -0.027351463 0.054324467 0.050516672 0.00627634 -0.00527548 0.02649985 0.0061082398
0.067675516 0.0123029575 -0.03208404 -0.038554076 -0.016861739 0.10290139 0.051160745 -0.0013042818
-0.0033344594 0.053844336 -0.07733919 -0.002062542 0.03696092 0.004580737 0.011748615 0.035586312
0.0007199175 -0.00038133474 -0.014747405 0.03597631 0.09475807 0.043620903 0.04188695 -0.23451412
-0.07039786 -0.055144105 0.053868312 -0.21919113 0.0033080557 -0.024588777 0.019246882 -0.02200883
00000000: b8f6 6fbc 5723 25bd 6989 89bc 0783 eabc
00000010: 4d12 c03a 5719 7b3c bd02 a93c 4ebf 55bc
00000020: 3b51 c43c f977 a5bc 1c7e 0c3c fd59 b73c
00000030: 2c97 053d 539a 5abe 76aa 753d e971 343b
00000040: c716 0e3b 013a 85bc 12ec 3e3d e58c a0ba
00000050: 8513 08bd 8e47 a83b 8e45 05bd 54cc 50bc
00000060: 8135 003d 6fbf d33c 5807 57be cf64 1cbd
00000070: 1266 4cbd 7624 523d 2b71 59bc ea9a e43b
00000080: cc24 78be 912b 82bc 9882 433b ceb5 453c
00000090: e549 3fbc 3e46 0fbd 57d5 8f3d 1226 eeba
000000a0: fc81 ddbc 597d 4cbd bda5 12bd 7cbc e43c
000000b0: 83f3 643d c843 143c 3923 2a3d d6bc 1bbc
000000c0: 4790 953b 1871 7fbc 150a 85bc f7f1 5d3c
000000d0: af7b a5bc 4b19 c33d 624d 6cbe e2dd a83c
000000e0: 51b3 bbbb 5341 2e3d 7caf fbbc d4a5 8cbd
000000f0: 1b13 933c 37ca d83c 5567 d03c 4e0e 1e3d
00000100: 37e3 923d e7fb 9cbb 1f3b 0a3d aab1 ef3c
00000110: 4c8e 073e 2eef e53c 68fb 093e 711c 65bb
00000120: 9797 973d 449e d73c f630 a23d 7c1a f23c
00000130: e5c4 853d 9064 263d ed62 4fbd 1c17 ce3d
00000140: 7a2a 463c 4aa8 c53d e828 1fbd afce c03d
00000150: 4448 5f3c 0c9e a93c a0ec 02bd fd2c 1a3d
00000160: f2b4 db3d 29ca d03d 9c15 b33d 99c0 6c3c
00000170: b1d9 2cbb 1328 ac3c 0600 133c 99bc 823c
00000180: 8ec2 af3c 8f2c 853d c553 5f3d febf b63c
00000190: 7908 583d 6166 6a3d 7e12 b93d 0e91 75bb
000001a0: 976c c23c 2ed3 e33c c82c 92bc ee59 363d
000001b0: 3b26 b1bd 49d8 963c 422a a8bd 4003 443c
000001c0: 4263 1c3d 4433 903b 3365 583c 4a46 bb3d
000001d0: b66b 5e3d 13a5 66be d662 963c d41c e93c
000001e0: 783b 79ba f998 f23c db10 d33c e317 5cbd
000001f0: 4d15 913d 60a5 c1ba 42ef 103d ab89 b2ba
00000200: 0404 4cbe 399d 953d d32f aa3c e63d 96bd
00000210: af6c 26bd 46cb 953c cf88 00be ba41 18bd
00000220: e04d d1bc 8837 2c3d 1bed 5dbe c0d7 1dbe
00000230: a93b 553d 0637 36bd d84f cbbb 0028 d5bd
00000240: afb1 d7bc d096 253d 13dc 2c3b dad8 8f3b
00000250: c3c7 2d3d 0cff b63b b8da 90bc c414 01bd
00000260: 80f6 a4bc e79b c2bc a258 b93c 037e c5bb
00000270: 2ec3 683b 1a82 9f3c 4d32 f33c ff50 57be
00000280: 127c 423d 5b11 7a3c 7bd7 d9bc 6df5 193c
00000290: 661b b9bd 467c 4c3d ecfc cabb dc00 f53c
000002a0: 89b2 eebc 6e3a 01be 8b9c 5cbc e8b7 af3c
000002b0: 9456 003e ee21 8fba 6dce eb3c 1fcf 953d
000002c0: 6a5a 803c 7f84 a53b 30d1 bc3d c345 053d
000002d0: bb31 093c f338 c63c 568a a1bc ecac 0c3d
000002e0: 8433 383d 65af 2cbe b03a a23c 4885 f4bc
000002f0: 5505 84bb 069a 993d de91 cdbb 20d4 373d
00000300: 6518 69bb a154 383d b67e b4bc f49d 9e3c
00000310: 36db 633d d524 0e3d f014 d53c cb1c 45bd
00000320: 5f04 e43d 62f6 1d3e 627e f93c 6d83 a3bc
00000330: 2f2b 90bd 9fcd 43bc 9e5b ef3a 8719 bdbc
00000340: 6688 5dbc 4391 b63c 7348 9e3b 57f7 34bb
00000350: 60e2 083d ed99 973c 4582 273d c707 df3c
00000360: 3537 9abb 2d10 e0bc 5583 5e3d 92ea 4e3d
00000370: c2a9 cd3b efdd acbb 3716 d93c a127 c83b
00000380: 7699 8a3d 5892 493c 8e6a 03bd e1ea 1dbd
00000390: a121 8abc f7bd d23d ee8d 513d 6ff4 aaba
000003a0: f286 5abb e18b 5c3d 0264 9ebd b62b 07bb
000003b0: 5564 173d 021a 963b 437d 403c f4c2 113d
000003c0: d8b8 3c3a e2ed c7b9 1a9f 71bc e55b 133d
000003d0: 8510 c23d d5ab 323d a791 2b3d 7824 70be
000003e0: c12c 90bd c9de 61bd 05a5 5c3d a473 60be
000003f0: f7cb 583b 676e c9bc a3ab 9d3c dd4b b4bc

weight f4 [256, 256]
-0.062141832 -0.35000983 0.1611594 -0.0026045388 0.07140792 0.010410104 -0.0052105444 -0.00067119865
0.15652871 -0.08508118 0.032074608 0.005862008 0.0010467318 -0.16833824 -0.3050832 0.06840808
-0.14440621 -0.06568346 0.10658889 0.031546157 -0.27597508 0.064863525 0.13019954 0.044477377
-0.064910665 0.08286099 -0.17459057 -0.010975416 -0.03277077 0.12334738 -0.013137688 0.051769454
-0.24705037 -0.22032607 -0.04009228 0.04484696 -0.034587555 -0.021497866 -0.008580518 -0.0034188232
-0.094763175 0.025230937 -0.2802526 -0.323092 -0.14208189 0.011656115 -0.11588398 -0.040140998
0.0073282905 0.09895933 0.0010538063 0.021968821 -0.18984686 0.058089864 -0.22570664 -0.22596419
-0.16235143 0.069598906 -0.015716035 0.09614045 0.030707065 0.049159694 -0.03589175 -0.30121362
0.2127375 0.03479645 -0.011443805 0.27257377 0.007153302 0.018043257 0.09662282 -0.04170718
0.093283296 0.049904596 -0.35422638 0.03701659 -0.2853334 0.04517181 -0.031017328 0.024557827
-0.016115133 0.13156673 0.06741437 0.101903975 -0.04236508 0.08998614 -0.2957579 0.08318248
0.08721786 0.120726965 0.13512635 0.005127901 0.3365747 -0.07572311 0.14692923 0.18875231
0.22575454 0.06434092 0.13255765 -0.124088146 -0.0041014957 -0.18223114 0.04724173 -0.09170016
-0.007927739 -0.16945893 0.0003162156 -0.2769566 0.013683919 -0.038246755 -0.040084783 0.0575185
0.040583503 0.009286745 -0.02776677 0.14989378 -0.0016240707 -0.22639465 0.06310438 0.06926627
-0.047479417 0.11709113 0.08722596 -0.08262439 0.1712699 0.11244107 0.0057515786 0.008255614
-0.3202222 0.019329194 0.16827486 -0.15333906 0.036799353 0.07547408 -0.1125066 0.037282865
-0.294863 -0.23785056 -0.25134012 -0.25195688 -0.09049663 0.07336809 0.008705863 -0.34897825
-0.03437605 0.056881897 0.034721486 0.031146917 0.0054333736 -0.01382635 -0.29513097 0.015660768
0.19233407 -0.17918238 -0.00556609 -0.1947903 -0.018386573 -0.09738902 0.039793827 -0.3079263
-0.101786844 -0.02401395 -0.24628472 0.031621724 -0.21951315 -0.39854038 0.021894787 -0.029392092
-0.1900575 0.04050565 0.0043698493 0.15123464 0.12743425 -0.28013209 0.021637982 0.055110373
-0.007980146 -0.09515074 0.018773817 0.26316434 -0.14282387 0.10062099 0.052333184 0.024889484
0.056184154 -0.18899632 0.05245654 0.025514325 0.0017353748 -0.048168555 0.25565818 0.030872108
0.28672794 -0.038222857 -0.2815567 0.050409373 -0.10323538 0.0016888689 0.14974235 -0.12458115
0.114692405 0.12408049 0.04131222 0.09545267 -0.074901 0.16244127 0.020845108 0.06965836
0.023176337 0.018822037 0.037191834 0.12273774 -0.009433818 -0.053820822 -0.04190671 -0.004689359
0.06913819 0.1337198 0.035539113 0.031066783 0.07267093 0.06534078 -0.024405777 0.30387357
0.01511 0.09508859 -0.058405217 -0.043093458 0.013594636 0.15447243 0.23837142 0.023971295
0.0035767574 0.18296209 0.09845921 0.113048784 -0.017799748 -0.23123114 -0.046242632 -0.16268313
0.0037771307 -0.002298512 0.040374115 0.08399659 0.041410252 0.0044093 0.02284744 -0.27507034
-0.21106917 -0.1994509 -0.037104174 -0.32238308 0.17759167 -0.013611378 0.083048135 0.052685484
00000000: 6f88 7ebd 7d34 b3be f806 253e e9b0 2abb
00000010: 513e 923d 248f 2a3c 37bd aabb 61f3 2fba
00000020: 1049 203e 0b3f aebd aa60 033d 1616 c03b
00000030: 7e32 893a dc60 2cbe dd33 9cbe 8919 8c3d
00000040: 39df 13be 0d85 86bd 474b da3d 8b36 013d
00000050: 9b4c 8dbe 2bd7 843d 0753 053e e92d 363d
00000060: e2ef 84bd 06b3 a93d dfc7 32be 3bd2 33bc
00000070: a53a 06bd 8d9d fc3d 753f 57bc 350c 543d
00000080: c6fa 7cbe 289d 61be cd37 24bd 72b1 373d
00000090: aeab 0dbd 4b1c b0bc 4d95 0cbc 560e 60bb
000000a0: 3213 c2bd 1cb1 ce3c 457d 8fbe 516c a5be
000000b0: ea7d 11be 4af9 3e3c 9554 edbd e36a 24bd
000000c0: 2822 f03b 30ab ca3d df1f 8a3a f5f7 b33c
000000d0: 3767 42be a3ef 6d3d a41f 67be 2863 67be
000000e0: 743f 26be df89 8e3d eabe 80bc 49e5 c43d
000000f0: 628d fb3c ad5b 493d 3a03 13bd ac38 9abe
00000100: dcd7 593e b986 0e3d cc7e 3bbc ca8e 8b3e
00000110: 3f66 ea3b 74cf 933c 2fe2 c53d 26d5 2abd
00000120: 500b bf3d c368 4c3d 295d b5be b59e 173d
00000130: 3817 92be 1306 393d 0d18 febc 7f2d c93c
00000140: e203 84bc 6eb9 063e 8c10 8a3d 08b3 d03d
00000150: 0287 2dbd a74a b83d 946d 97be 935b aa3d
00000160: 479f b23d b33f f73d 905e 0a3e f407 a83b
00000170: 8553 ac3e b814 9bbd 9e74 163e 4948 413e
00000180: 332c 673e 2cc5 833d 31bd 073e ed21 febd
00000190: d765 86bb cd9a 3abe 8b80 413d 4bcd bbbd
000001a0: 59e3 01bc a486 2dbe bdc9 a539 41cd 8dbe
000001b0: 8432 603c a1a8 1cbd f12f 24bd 8598 6b3d
000001c0: e33a 263d 6f27 183c 2377 e3bc c17d 193e
000001d0: c5de d4ba 00d4 67be df3c 813d 79db 8d3d
000001e0: c779 42bd 79cd ef3d 86a3 b23d fa36 a9bd
000001f0: 6061 2f3e 8147 e63d bd77 bc3b 8e42 073c
00000200: 2af4 a3be 4258 9e3c 3f50 2c3e ea04 1dbe
00000210: ebba 163d 2892 9a3d dc69 e6bd ebb5 183d
00000220: 48f8 96be 198f 73be a7af 80be 7e00 81be
00000230: 4c56 b9bd 0242 963d 09a3 0e3c 47ad b2be
00000240: e7cd 0cbd fefc 683d 1e38 0e3d d227 ff3c
00000250: 710a b23b ea87 62bc 681b 97be 034b 803c
00000260: 39f3 443e 967b 37be bf63 b6bb 1c77 47be
00000270: 709f 96bc e573 c7bd dafe 223d 84a8 9dbe
00000280: 9f75 d0bd e7b8 c4bc 1032 7cbe c885 013d
00000290: 0ec8 60be 7c0d ccbe b25c b33c afc7 f0bc
000002a0: 6f9e 42be 41e9 253d f430 8f3b 41dd 1a3e
000002b0: 207e 023e 796d 8fbe 2342 b13c 6abb 613d
000002c0: 29bf 02bc 64de c2bd 8ccb 993c 7abd 863e
000002d0: 6c40 12be 6112 ce3d 525b 563d 08e5 cb3c
000002e0: 5b21 663d 4088 41be abdc 563d 6b03 d13c
000002f0: 8475 e33a 644c 45bd a1e5 823e 81e7 fc3c
00000300: 01ce 923e 928f 1cbd 3328 90be 0f7a 4e3d
00000310: 126d d3bd 095d dd3a 0f56 193e 6724 ffbd
00000320: dae3 ea3d e91d fe3d 0137 293d b07c c33d
00000330: b265 99bd 0157 263e 5cc3 aa3c 0ba9 8e3d
00000340: 4ddc bd3c ac30 9a3c 7756 183d ed5d fb3d
00000350: 4d90 1abc 3973 5cbd 5fa6 2bbd 32a9 99bb
00000360: 5398 8d3d d8ed 083e 7691 113d c47f fe3c
00000370: 7fd4 943d 63d1 853d a0ee c7bc 5195 9b3e
00000380: ef8f 773c cfbd c23d 4f3a 6fbd c482 30bd
00000390: 09bc 5e3c 052e 1e3e a317 743e 735f c43c
000003a0: 0868 6a3b 6a5a 3b3e fba4 c93d 1f86 e73d
000003b0: c7d0 91bc dbc7 6cbe ea68 3dbd 6896 26be
000003c0: bd89 773b a2a2 16bb 545f 253d 6706 ac3d
000003d0: cc9d 293d e47b 903b 8e2a bb3c 05d6 8cbe
000003e0: 8422 58be db3c 4cbe 8cfa 17bd 650f a5be
000003f0: 97da 353e 4202 5fbc 2415 aa3d bccc 573d

bias f4 [256]
0.030699048 0.13328564 0.14809826 -0.07667795 0.15107974 0.20586127 0.34782872 0.0874256
0.12325174 0.2885736 0.14977673 0.20575295 -0.047973946 -0.03193061 -0.031480752 -0.013352624
0.018620366 0.062473018 0.20633063 0.12026377 0.017489761 0.118462235 0.2361143 -0.022141188
0.08153483 -0.101688005 0.17249863 -0.052440874 0.28335136 0.1421761 -0.11508755 0.088032454
0.19461212 -0.00044215514 0.09904288 0.0064539504 0.14715642 0.23799807 0.009044468 0.02038731
0.01379288 -0.003686142 0.36232114 -0.008497681 0.30496916 -0.20621292 0.025152998 0.07939955
-0.027059505 0.09729992 0.2117453 0.21739879 -0.037745167 0.13505504 -0.041651126 0.07324157
-0.02217463 0.012943164 -0.11241054 -0.0062704016 0.14298747 -0.08070035 -0.30024233 0.07776297
0.17289883 0.10041965 0.042196482 0.11790689 0.20957892 0.04851943 -0.024799157 -0.11940776
0.12213702 -0.033916365 0.098716065 0.07318899 0.1319898 -0.048392296 0.19953734 -0.02108847
-0.13323736 0.16495337 0.08206338 0.1305229 -0.0927842 0.004214131 -0.025383478 -0.048928156
-0.06609916 -0.041975018 0.028691087 -0.028901877 -0.05067519 0.043868225 0.08193916 -0.05180842
0.15098342 0.13905334 -0.13235946 -0.14015336 0.21829286 -0.021451948 0.118225254 0.112371966
-0.2095024 0.20553407 0.21127146 0.020925276 0.034978166 -0.07952066 0.15583916 0.041614585
0.08140615 0.26387346 0.13423039 -0.10017057 -0.12293312 0.11912798 0.18908237 -0.046137664
-0.015626924 -0.09402586 0.070965245 0.031458225 0.21719252 -0.1882348 0.10068427 0.12076157
0.040972542 0.1701323 -0.01526546 0.088704154 -0.08715972 -0.08284405 -0.02639874 0.13196823
-0.049845237 0.0017578149 0.13254005 0.2587504 -0.18409413 -0.021211721 -0.2577123 -0.094977655
0.1757917 0.11624371 0.06932627 -0.09559565 0.22583622 0.04035838 -0.02563747 -0.12641525
0.014941575 0.0116695175 -0.06649511 -0.03034564 -0.10870098 -0.11546688 0.28797582 0.12045553
-0.060323197 -0.043809187 0.17369212 0.15850073 -0.013512711 -0.024292033 0.020678924 -0.024643417
0.04034978 -0.07703747 0.049073424 0.113682054 0.26258 -0.10966108 0.17131253 -0.1023826
0.08646721 0.06463775 -0.15028436 0.037728842 -0.15539756 -0.064822696 0.1710659 -0.20245431
0.11113843 -0.13741101 -0.013058884 0.067600705 -0.059920274 0.061983377 -0.0867023 0.005687931
-0.10831877 0.089771226 0.0616241 -0.0038937689 -0.09400615 0.0822338 -0.0035321766 -0.041888233
0.10390691 -0.12209154 -0.006117215 -0.12928343 0.0045543434 0.15630354 0.17733803 -0.076286726
-0.0723907 -0.06808504 0.19234292 0.21270655 -0.026070302 0.008045935 -0.09282904 0.100252755
0.042027183 -0.0071994457 0.13844073 0.031967066 -0.107029654 0.22382762 -0.08273172 0.08621231
-0.031255405 0.06869324 0.062449515 0.13593803 -0.13690618 0.104165144 0.069328964 0.18125677
0.0119023565 0.20082547 0.16389026 0.13738725 0.30976954 -0.018840065 -0.100619964 0.046983007
0.10928747 0.11131184 0.26772887 0.037993297 0.12486287 0.06744794 0.10005487 0.21898614
-0.006284331 0.12713423 -0.08528633 0.069321744 -0.10405334 0.124724776 -0.04454611 0.033044714
00000000: 927c fb3c 087c 083e 12a7 173e 5409 9dbd
00000010: a6b4 1a3e 4ccd 523e 9b16 b23e 310c b33d
00000020: 696b fc3d ebbf 933e 125f 193e e7b0 523e
00000030: 5480 44bd acc9 02bd f6f1 00bd f7c4 5abc
00000040: bd89 983c b5e3 7f3d 5648 533e da4c f63d
00000050: b046 8f3c 549c f23d f2c7 713e 7061 b5bc
00000060: bcfb a63d cd41 d0bd 7ba3 303e 3ecc 56bd
00000070: 6e13 913e 9d96 113e 05b3 ebbd 5c4a b43d
00000080: 6648 473e 0fd1 e7b9 fed6 ca3d a97b d33b
00000090: 2cb0 163e c4b5 733e 402f 143c 4a03 a73c
000000a0: 88fb 613c 3393 71bb 2882 b93e db39 0bbc
000000b0: eb24 9c3e 7b29 53be a90d ce3c 3b9c a23d
000000c0: e5ab ddbc 2e45 c73d c3d3 583e ca9d 5e3e
000000d0: ad9a 1abd de4b 0a3e 5f9a 2abd adff 953d
000000e0: 92a7 b5bc 910f 543c 7f37 e6bd f177 cdbb
000000f0: 4f6b 123e 3a46 a5bd 5db9 99be 3142 9f3d
00000100: 640c 313e d1a8 cd3d 38d6 2c3d 2b79 f13d
00000110: db9b 563e 4fbc 463d 9a27 cbbc 0e8c f4bd
00000120: f922 fa3d e3eb 0abd a62b ca3d 1ce4 953d
00000130: 5628 073e 0037 46bd 8453 4c3e bac1 acbc
00000140: 606f 08be 89e9 283e d810 a83d cca7 053e
00000150: a505 bebd b116 8a3b 03f1 cfbc e468 48bd
00000160: ff5e 87bd ffed 2bbd 9209 eb3c a1c3 ecbc
00000170: ca90 4fbd 2baf 333d b8cf a73d 1135 54bd
00000180: 669b 1a3e 0064 0e3e 3d89 07be 5d84 0fbe
00000190: 2a88 5f3e ffbb afbc 1520 f23d 4623 e63d
000001a0: cc87 56be 8677 523e 8c57 583e 7c6b ab3c
000001b0: 4445 0f3d badb a2bd 4d94 1f3e 0e74 2a3d
000001c0: 44b8 a63d 6c1a 873e b173 093e 3a26 cdbd
000001d0: 5cc4 fbbd 5ff9 f33d cf9e 413e d9fa 3cbd
000001e0: 0904 80bc a190 c0bd 3a56 913d 57da 003d
000001f0: b767 5e3e a0c0 40be 8e33 ce3d d851 f73d
00000200: d3d2 273d 2937 2e3e fb1b 7abc 86aa b53d
00000210: cc80 b2bd 24aa a9bd 2c42 d8bc ae22 073e
00000220: 852a 4cbd 7b66 e63a 94b8 073e ef7a 843e
00000230: 2c83 3cbe 34c4 adbc def2 83be a583 c2bd
00000240: bd02 343e 2f11 ee3d eefa 8d3d a7c7 c3bd
00000250: 9c41 673e d44e 253d ac05 d2bc 0073 01be
00000260: 82cd 743c 8131 3f3c 972e 88bd 6b97 f8bc
00000270: 9f9e debd e679 ecbd 9171 933e 64b1 f63d
00000280: 7515 77bd 4371 33bd 59dc 313e 044e 223e
00000290: 6b64 5dbc 1600 c7bc d966 a93c fee0 c9bc
000002a0: d045 253d d2c5 9dbd 3701 493d 23d2 e83d
000002b0: e370 863e fd95 e0bd 8d6c 2f3e f8ad d1bd
000002c0: b815 b13d cc60 843d 25e4 19be 8f89 1a3d
000002d0: 8a20 1fbe c3c1 84bd e62b 2f3e 2f50 4fbe
000002e0: 8c9c e33d 79b5 0cbe eef4 55bc 3d72 8a3d
000002f0: f66e 75bd 48e2 7d3d fa90 b1bd d361 ba3b
00000300: 3bd6 ddbd fad9 b73d 8d69 7c3d 9a2e 7fbb
00000310: 4c86 c0bd 326a a83d 177c 67bb ff92 2bbd
00000320: 25cd d43d 210b fabd eb72 c8bb e062 04be
00000330: 9a3c 953b 090e 203e 1a98 353e 373c 9cbd
00000340: 9341 94bd 2b70 8bbd 8bf5 443e bfcf 593e
00000350: 6391 d5bc 19d3 033c 271d bebd 5151 cd3d
00000360: b224 2c3d 54e9 ebbb 68c3 0d3e e6ef 023d
00000370: 5d32 dbbd 1133 653e 3f6f a9bd 1490 b03d
00000380: ab05 00bd 0baf 8c3d 10cb 7f3d 5733 0b3e
00000390: 2231 0cbe 8954 d53d 58fc 8d3d 609b 393e
000003a0: 1a02 433c 31a5 4d3e d9d2 273e 3eaf 0c3e
000003b0: 1d9a 9e3e 7b56 9abc d711 cebd 4171 403d
000003c0: 1cd2 df3d 76f7 e33d c213 893e dc9e 1b3d
000003d0: 1bb8 ff3d 2522 8a3d 91e9 cc3d e73d 603e
000003e0: caec cdbb 7a2f 023e 99aa aebd 8ff8 8d3d
000003f0: eb19 d5bd b46f ff3d fb75 36bd e559 073d
