models/model.pkl (torch, 55711 bytes, 6 tensors)

weight f4 [100, 21]
00000000: 54a2 15bf 9ec3 f73c 5ff2 c73e 3699 87be
00000010: 8db3 74bf 6ec1 7bbe d959 0f3e e6c8 0e40
00000020: c46d 71be 2d68 04be 4aeb ae3e b739 a8bd
00000030: a989 5c3c 3d95 723d 4f8d eebe 3862 49be
00000040: 2f87 7fbf 988b 353e de14 9abe 3989 cfbe
00000050: 9f8c a1bf d442 c2bc 5666 9a3e 6cfd 0c3f
00000060: 1fb8 76bc 4fee 8a3d 0a53 103e b3cc 1f3f
00000070: f166 b73f 9ac6 023d fada c63d 6264 513f
00000080: b2f8 933d 462b 293f 7710 42b9 6942 31be
00000090: 1313 8f3d 748f a2be 6f8e 153f 6933 c53e
000000a0: b832 3abe 497e 0b3e 23ca e4be 2f8e 653d
000000b0: 3159 523f c4b0 29bd d266 453d 1e66 163f
000000c0: b079 5c3f 7014 b83e b644 423d c739 a63e
000000d0: 3d55 e03e b85a bd3f 84d8 243f adc4 e3bd
000000e0: 22a5 d6bc de85 a3bf 9043 d0bf 70fe dcbe
000000f0: 4364 13c0 7a5f babe 2c70 b6bf 7723 083f
00000100: 7a3a 463f e1e1 4e3f 18c7 9e3c 731d 103e
00000110: fd61 ce3e b107 2bbe 188c 7dbf 2d0b f5ba
00000120: 2d4c c8bc 3d81 623e d883 ca3e 9694 1bbf
00000130: 6d8d e8bb ab85 5a3e 26cd 7d3e a0e0 1f3f
00000140: 696d 03bf e615 803f 3a52 52bf 414f e1bc
00000150: fc6b 613e c172 923f 7def 94bd 404b 00bd
00000160: b0d3 5d3e 12e1 133e 9a9e 9c3f e375 14bf
00000170: 037c 43bd 9b6b 1abd 407a cd3e ad4a 4ebd
00000180: 81b6 163e cff1 39bd 9632 a93d f231 51be
00000190: 670d 703f c62e 57bf a22d c6bf 302a 213e
000001a0: c21b ee3f 4e7d 393e c66a ebbe 9a6c 75be
000001b0: 5bdb 693c 3785 bbbd 5e02 7b3e 1c0a 8bbf
000001c0: 2e34 c03d a68f 183e 10e8 c0bc 9181 a33d
000001d0: 0fe0 cd3f d204 9e3c 9127 b03d ad8d cb3c
000001e0: 2ec1 bb3f 9859 68bf 4cc7 ce3d 9483 37bf
000001f0: b306 683f c18f 73bf 37ab 3b3c be1b 1ebf
00000200: 8324 843e 08ad d2bc 1a98 ac3d cac5 393b
00000210: e704 b9be 914a df3e 1e10 8fbd 639f 89be
00000220: 1a8a 82ba 7d33 113e 9c02 4d3f b8b9 8abf
00000230: 021a 4abe c276 4dbf f409 9ebf 1cec b5be
00000240: 9e24 3bbf 2174 f93f 700e a03f 3761 92be
00000250: 57ea 523f 316b 7a3f b1be d93d 8f61 89bd
00000260: 56ba 15be ebc0 913e 65eb 2bbe 9955 87bd
00000270: f21f bfbc 129d 843e 9123 053f 0595 163e
00000280: f80c 05bc 86cc 82be f6eb 2c3f eb7e b93f
00000290: e33b ef3e 5126 1a40 9d5a 043f 892a 4540
000002a0: e210 f53d 43e5 953e f005 f33d 0788 d13b
000002b0: c5ac 79bd bcd8 803e 6c1b e83f 622c 6ebf
000002c0: 55c6 49bf 90b8 6abf d8ff 55bc 4e27 d9be
000002d0: a85d 1b3f 367a e53c 3450 e63e d58a 323e
000002e0: 5466 abbd eb5e b73f 9768 d4bf 949a e03e
000002f0: 72a9 8ebe 6fe5 acbd 8b26 993e 05f1 1e3f
00000300: d5f5 23bd 6ab8 563d c5c6 81bf 2eb7 b9bd
00000310: 6f5f 0c3f e8c0 51be 27ce a1bd 6c10 9bbe
00000320: cfe4 343f 15dd 543f f2e4 16bc acaf 313e
00000330: 7f19 c9bd 4700 093f 459d 12bf f1b3 17bd
00000340: 7d3d 313f 8160 bebe 7f28 d73e d611 19bf
00000350: d01d b1bf 0a68 923d 0494 40bd dc2e c93e
00000360: d9c5 2fbf 6792 78bf 885a 0b3e bcf0 4dbe
00000370: e97b 85be 03ad 4bbf f9fc 68bf 01ff 35bd
00000380: 63d3 973e ecb3 0d3d 5a60 c33f e5e9 713f
00000390: d54f 983f f193 053d 4d71 b53d 1043 7f3e
000003a0: ff0a 3ebf f438 1e3f 5baf 71bc 9cb6 eb3c
000003b0: bf2b 533e bd62 e5be 7e5f d6be cdbc 883d
000003c0: 43a5 523d 7640 b9bd 3cc6 39bf 9eb5 4e3d
000003d0: c9ff ec3d 6599 ce3c 7b6b b13b fcf3 5abf
000003e0: f477 2a3f db67 d6bf f75a 373e 31ce 4fbe
000003f0: c3a7 123e bcb1 5b3f 0144 443f a110 bcbd
-0.5845082 0.030244645 0.39052102 -0.26484078 -0.9558647 -0.24585506 0.13999118 2.2310119
-0.23577029 -0.12930365 0.34163886 -0.08214133 0.013460555 0.059224356 -0.46592185 -0.19666374
-0.9981565 0.17729032 -0.30094045 -0.4053438 -1.2621039 -0.023713507 0.301562 0.5507419
-0.015058546 0.06783735 0.14094177 0.6242172 1.432829 0.031927682 0.09709735 0.81793797
0.07225169 0.66081655 -0.00018507415 -0.1731049 0.0698606 -0.3175007 0.5842046 0.38515785
-0.1818341 0.13622393 -0.44685468 0.0560438 0.82167345 -0.041428342 0.04819376 0.5874957
0.8612318 0.35953093 0.04742881 0.32465956 0.43815032 1.479331 0.64392877 -0.11121497
-0.026201788 -1.2775228 -1.6270618 -0.4316287 -2.3029945 -0.36400968 -1.4252982 0.53179115
0.7743298 0.80813414 0.019382045 0.14073734 0.40309134 -0.16702153 -0.9904189 -0.0018695347
-0.024450386 0.22119613 0.39553714 -0.607736 -0.0070969374 0.21340053 0.24785289 0.62452126
-0.5133882 1.0006683 -0.8215672 -0.027503612 0.22013849 1.144127 -0.07272241 -0.031321764
0.21662784 0.14441326 1.2235901 -0.5799238 -0.04772569 -0.037700277 0.40132332 -0.050364185
0.14718057 -0.045396622 0.082616016 -0.20429209 0.9377045 -0.84055746 -1.5482676 0.1573875
1.8602221 0.18114206 -0.459799 -0.2396721 0.01427349 -0.09156268 0.24512622 -1.086246
0.093849525 0.14898548 -0.023548156 0.07983697 1.6084002 0.019289408 0.08601297 0.02484783
1.4668329 -0.9076171 0.100966066 -0.7168515 0.9063522 -0.95141226 0.011454395 -0.6176108
0.25809106 -0.025717273 0.084274486 0.0028346651 -0.36136553 0.43611577 -0.06985496 -0.26879415
-0.000995937 0.14179797 0.80082107 -1.0837927 -0.19736484 -0.80259335 -1.2346787 -0.355317
-0.7310275 1.9488565 1.2504406 -0.28589794 0.82388824 0.9781981 0.106320746 -0.06708061
-0.14621863 0.28467497 -0.16789015 -0.06608123 -0.023330662 0.25901085 0.52007395 0.14705284
-0.008120768 -0.25546664 0.6754755 1.4491857 0.46725377 2.4085886 0.51700765 3.0807211
0.11966111 0.29276475 0.11866367 0.0063943896 -0.06095578 0.25165355 1.8133368 -0.9303647
-0.78818256 -0.9168787 -0.013061486 -0.424128 0.60689783 0.028012376 0.44983065 0.17435773
-0.08369127 1.4325842 -1.6594418 0.43867934 -0.27863652 -0.084421985 0.29912218 0.62086517
-0.040029366 0.052421965 -1.0138785 -0.09068142 0.5483312 -0.20483744 -0.079006486 -0.30285966
0.70661634 0.83149844 -0.009209858 0.1735217 -0.09819316 0.5351605 -0.57271224 -0.03703684
0.6923445 -0.37183002 0.42023084 -0.5979284 -1.3837223 0.0714875 -0.04701616 0.39293563
-0.68661267 -0.9709839 0.13608754 -0.20111364 -0.26071098 -0.7956087 -0.91011006 -0.044432644
0.29653463 0.034595415 1.5263779 0.9449752 1.1899363 0.03261179 0.08859501 0.24927926
-0.7423553 0.61805654 -0.014751281 0.028773598 0.20622157 -0.44801894 -0.4186973 0.06676636
0.051427137 -0.09045498 -0.72568107 0.050466172 0.11572225 0.025219629 0.005414424 -0.8552854
0.66589284 -1.6750444 0.17905794 -0.202935 0.14321809 0.85818076 0.76666266 -0.09182859

bias f4 [100]
00000000: 2fe0 033e 9341 593e 13fd 8e3c 1041 7fbe
00000010: 6dd8 bd3b fbaa 893d 9340 80be ca28 56be
00000020: 4001 f0be 5f31 07bf 5df1 043d a9d7 ee3e
00000030: 76be 263e 1b8c 86be 0130 073e 30b7 c03e
00000040: e99c e53e 58aa 32bf 9ebc b63e 0cf9 213f
00000050: 0990 a0bc 6f2f 4d3d b640 cebc 38b6 933f
00000060: fa2b 9d3e 5ee3 c63e 67e1 4ebd ad35 853e
00000070: d68f 173f 4494 b3bd c908 d53e e3cd 0f3f
00000080: f9b9 01bf 6dfc 9d3e 6c2d 5cbe 26f2 f8be
00000090: 03b3 1ebc 4fa2 ac3e 1ccb 6b3e 1e53 4d3e
000000a0: 6b33 3c3e 0daa 5cbc a72a bb3e 3668 6bbe
000000b0: 75ee 243e a20c 20bf 3a59 a2be a5f8 bc3e
000000c0: 41a1 0f3f 0eb2 53be baa6 793e 98b6 5dbe
000000d0: 96d3 88be c053 cb3e fa67 bf3e 0e4a c83e
000000e0: f359 333d f5aa fd3d 7264 3a3f 6130 493e
000000f0: 1572 ba3e 2c1e 80be be08 3b3e 8231 c43e
00000100: 672f adbe ff8d ff3d 48ba be3e 3fc0 123f
00000110: a477 ecbd ee35 ebbe 02e5 3f3f 84ce d73e
00000120: ad90 093f db63 8f3e 7450 5bbd aa96 20bb
00000130: ab11 f43d 6c2c 683e 13cd 3d3e a55f 2a3f
00000140: 563b 533e 728c e93d 7292 0b3d 3c36 6b3f
00000150: 8fba 69bd 44d2 8f3e 7beb dcbc 779d 6b3e
00000160: aeb4 8f3f de1f d63c d0b5 a93e 2478 0c3e
00000170: 7f70 be3e 3926 793e 3a0b 023f e441 023d
00000180: f4c0 023f a825 d9be 94f8 273e 7e76 233f
0.12878488 0.21216421 0.01745466 -0.24927163 0.005793622 0.06722065 -0.25049266 -0.20913997
-0.46875954 -0.5280971 0.032456744 0.4664891 0.16283593 -0.26278767 0.13201906 0.3763976
0.44846275 -0.69791174 0.35690778 0.6327064 -0.019599931 0.050094064 -0.025177341 1.1539984
0.30697614 0.38845342 -0.05050793 0.26017514 0.5920385 -0.08768514 0.41608265 0.56173533
-0.50674397 0.30856648 -0.21501702 -0.48622245 -0.009686234 0.33717582 0.23026699 0.20051238
0.1837899 -0.013468278 0.3655598 -0.22988972 0.16106589 -0.62519276 -0.317087 0.3690845
0.5610543 -0.20673391 0.24380007 -0.21651685 -0.26723927 0.39712334 0.37384015 0.39119
0.043786954 0.12386123 0.7280952 0.19647361 0.36415163 -0.2502302 0.18265054 0.3831902
-0.33825228 0.124782555 0.37251496 0.57324594 -0.11546257 -0.45939583 0.74958813 0.42149746
0.5373638 0.2800587 -0.053543523 -0.0024503865 0.119174324 0.22673196 0.18535261 0.6655219
0.20628104 0.11403741 0.034075208 0.9187963 -0.05706268 0.28090107 -0.026967755 0.23009287
1.1227014 0.026138242 0.33146524 0.13717705 0.37195203 0.24330987 0.5079838 0.03180112
0.51075673 -0.42411542 0.16403419 0.6385268

weight f4 [100, 100]
00000000: 6bde 2b3e 8cf3 2fbe e430 3d3e 2500 6fbe
00000010: d215 613d bdae 223e 784e 69be f552 093b
00000020: 7781 b53d b14f b7be 5679 383e 3c39 9ebe
00000030: 1bac f2be 3358 2cbe cfda 263d c2fb 573b
00000040: 8b82 10be 4fba 6bbc 396b 873e 2c39 dcbd
00000050: cbc9 193e d4ab a93e 4afa c23d 44aa 3a3e
00000060: a9f2 5f3e 7487 f0be 2271 933e 94ea 413d
00000070: 9855 2c3d f53c 43bc 8cfc 443d d485 6e3e
00000080: c54a 66bd 081c b93e 5685 72be 08ee 40be
00000090: 86ab 14be b44a 943e 850f 5fbd 1ca0 d33c
000000a0: b97d 6d3d 57e0 44bf dc5b d2be 63b3 723e
000000b0: 1eff 233e 7b3e e0be 344e ed3d f7d3 cbbe
000000c0: 7987 a5be 0b81 bfbd 58f8 71bf a9d4 37bf
000000d0: eca3 153f c405 dc3e 243a 733e fb39 a7be
000000e0: 69c3 933e be10 593c 9920 17be b65e 44be
000000f0: 254a 2b3d fa55 19bf a381 40bf 7dca b53d
00000100: 6346 f6be da21 2b3e 4c42 dcbe a12a 623e
00000110: b185 1fbf 44d7 903e 7869 99bd 2455 62bd
00000120: c45b 173e f7ef 53be 692a 2e3d 47ba cb3d
00000130: 52e1 eebd fcd0 873e 3d1d 19bf 5f62 d63c
00000140: 4f4c 023f 8817 e7bc 7004 2bbf 3955 513d
00000150: c33c 64bd 9546 443e 181e 99bb b310 c4bc
00000160: 69ba 32be 8925 183e a995 a83e a7a0 773e
00000170: c2ee 72bd d8d2 613e 1098 f8bd e197 9e3e
00000180: 958f d93d 5665 6c3e 6eae 88be 67da fd3d
00000190: cbaa 3a3e 7b60 6c3e 3c39 d13e 738a 04bf
000001a0: 9808 93bd bd10 0abe fd91 1e3f 7420 0f3e
000001b0: 5929 1d3e 45c2 a3bd 5f18 babe 1929 ebbd
000001c0: 3544 16bd b4f6 073f 40fb 263e 2dae b53e
000001d0: aff5 ebbc 4eba 8a3e 8868 113e 4252 e1bd
000001e0: 4ed9 0c3f 27f1 183e 1e8c ef3e 2174 d2bd
000001f0: d555 bfbd 89d2 e13d d675 8b3e 55cd 5cbd
00000200: 94ec 9cbe f878 22be 7529 1dbb 1cd7 d23e
00000210: f210 d43e 76eb d0be e074 c63d bed7 b23e
00000220: 6641 9c3d 8cf2 92bc 3260 3f3e 8601 b3bc
00000230: 8950 4b3d 9d9b 383e cec7 213e 40bc 723e
00000240: e482 7f3b 57b0 af3e 02cc 033e 02ba 383d
00000250: b7a7 8cbd 9d0e 873e 2979 e23d bf93 3abf
00000260: 062c 44be f9f6 163d f8c3 843e e42f 30bf
00000270: f01d 983d 1fc3 d33e 9d61 063f b03a 153e
00000280: f8a1 933e 7a29 033e cf0a 03bd b3f5 373e
00000290: f6f6 87bd 0b7e f63d b4bc 14be 50da b53e
000002a0: 1f59 9fbd be9a f93d 29d7 b4be f6a9 2bbe
000002b0: 66c7 9e3c 1730 88bd b6d5 ce3e 05f3 173f
000002c0: 69e0 063f 7be9 913e 8669 843e 3cf0 f3bd
000002d0: 1e44 af3e 1f24 343e 4bd2 9b3e 0c45 8d3e
000002e0: 6857 2f3d 099e 5a3e d241 97bd ee9e 01be
000002f0: 8b34 66bd 5185 ffbd 7151 983e adad 4cbe
00000300: 8146 68bc 8b10 be3d 6782 febd 2885 5f3e
00000310: 669f 343d d96e 723e eded 063e f135 4c3e
00000320: d4eb 9cbe 162d fb3d b5fc e8bd 9973 703e
00000330: 40e1 b5bd 1786 2d3e 91eb 7d3e 4f20 873e
00000340: 3701 18be c3e6 b23e 5ef0 c03d fc65 c93e
00000350: 2078 893d 494f 3dbe f095 2dbe d190 a1be
00000360: 1dd1 9ebe daad 7f3c 7566 83be 6015 f6bd
00000370: e0aa 08bf bf11 303e 24e7 28be 908e 50be
00000380: 0929 b93c 51a7 093e 1821 f3be bb33 1fbf
00000390: a302 873e 9954 6d3d 902c 8fbe c9a5 3cbe
000003a0: 3156 ecbc cf59 063e ae8e 2d3e 127d c6be
000003b0: c4d2 7d3d 1595 a6be 7412 a03c 7fe3 09be
000003c0: d480 03be cb5c 873e cf1f 16bf 5019 2c3e
000003d0: b4c5 2ebd 660a 6c3e 27f1 90be 7144 193d
000003e0: bae1 a3bd 1f31 25bd 4b7e 5f3e e7de 953e
000003f0: 8b2c 56bd d158 703e e3e0 04bf 80b3 bc3e
0.16784064 -0.1718275 0.18475682 -0.23339899 0.05495245 0.1588697 -0.2278384 0.0020953987
0.08862584 -0.35802987 0.18015036 -0.3090304 -0.4739693 -0.1683052 0.040736016 0.0032956456
-0.14112298 -0.014387681 0.26448992 -0.10753092 0.15018384 0.33138907 0.09520395 0.18229014
0.21869911 -0.46978343 0.2879725 0.04734285 0.042073816 -0.011916389 0.04809241 0.23293239
-0.05622365 0.361542 -0.23683676 -0.18840802 -0.14518556 0.28963244 -0.05445816 0.025833182
0.057981227 -0.76904815 -0.41085708 0.23701243 0.16015288 -0.4379767 0.11587182 -0.39810154
-0.3232992 -0.09350785 -0.9451957 -0.7180887 0.5845325 0.4297315 0.23752648 -0.32661423
0.28860024 0.013248621 -0.14758529 -0.19176754 0.041818757 -0.59896815 -0.7519781 0.08876512
-0.48100576 0.16712132 -0.4301933 0.22086574 -0.6231337 0.28289235 -0.0749082 -0.055256978
0.147811 -0.20697008 0.042520914 0.09947639 -0.1166407 0.2652663 -0.5981024 0.026169954
0.5089769 -0.028209463 -0.66803646 0.051106665 -0.05572201 0.1916755 -0.004672777 -0.023933744
-0.17453922 0.14858069 0.32926682 0.24182378 -0.05930973 0.22053087 -0.121383786 0.3097525
0.10623089 0.23085532 -0.2669558 0.123951726 0.18229215 0.2308368 0.4086398 -0.51773757
-0.071793735 -0.13482948 0.6194151 0.13977224 0.15347804 -0.07996038 -0.3634672 -0.11482448
-0.03668614 0.53110814 0.16306782 0.35484448 -0.028803675 0.27095264 0.14200032 -0.110020176
0.5501908 0.14935742 0.46786588 -0.10276056 -0.09342543 0.110264845 0.2723834 -0.053906757
-0.30649245 -0.15866458 -0.002398101 0.4117974 0.41419178 -0.40804642 0.09690261 0.34930223
0.07629661 -0.017937921 0.1868904 -0.021851312 0.04963735 0.18028112 0.15798876 0.23704624
0.003898793 0.34314224 0.12870792 0.045099266 -0.068679266 0.26378337 0.11058266 -0.7288169
-0.19157419 0.036856625 0.25930762 -0.68823075 0.07427585 0.41359803 0.52492696 0.14573169
0.2883451 0.12808791 -0.03199273 0.1796482 -0.06638901 0.120357595 -0.1452511 0.35518122
-0.077806704 0.12187718 -0.35320404 -0.16764054 0.01938219 -0.066497974 0.40397424 0.59355193
0.5268617 0.28498444 0.25861758 -0.119110554 0.34231657 0.17591904 0.30433878 0.2759174
0.042807966 0.21349348 -0.07385601 -0.12658283 -0.056202453 -0.124766 0.29749635 -0.19988127
-0.014176966 0.09280499 -0.12427216 0.21828139 0.044097327 0.23675098 0.13176699 0.19942452
-0.30648673 0.12264459 -0.11376325 0.23481597 -0.08880854 0.16945682 0.24796893 0.26391837
-0.14844213 0.34941682 0.094208464 0.3933562 0.06712365 -0.18487276 -0.16951728 -0.315558
-0.31018916 0.015605414 -0.25664106 -0.12015796 -0.53385735 0.1719427 -0.16494423 -0.20366883
0.022602575 0.13442732 -0.47486186 -0.6218831 0.263692 0.057942007 -0.27963686 -0.18422617
-0.028849693 0.13120197 0.16948959 -0.38767296 0.06196858 -0.32535616 0.01954005 -0.13465689
-0.12842113 0.26437983 -0.58642286 0.16806531 -0.042669013 0.23050842 -0.28308985 0.037418786
-0.08002038 -0.04033005 0.2182552 0.29271623 -0.052288573 0.23471381 -0.5190565 0.36855698

bias f4 [100]
00000000: f7c7 9fbd 6de3 243b cbed 113d 6fc1 a33c
00000010: 7249 8dbd 696b 73bd b270 e43d 0f3c a8bd
00000020: e627 7c3d 5ff6 463e 69b2 4dbd d3aa 82bd
00000030: db53 90bd 1b06 44be 2f87 47bd 8447 67bc
00000040: 1daf 90bd ef3e 3f3e 45b0 813d 3dd2 8e3e
00000050: 8d4a 783e 2cd7 b33d 9a88 613e 1757 d9bd
00000060: 3af8 0f3e 7520 973c cdf3 593d 3b9f 06be
00000070: 15cf 89bd 158f 443b 8b19 e9bb 7496 ce3d
00000080: f5a9 5c3e da35 a83d c277 54bd 06ce 44be
00000090: d588 6e3c a1b9 a3bd 8a4e b4bd c94a 223e
000000a0: 2832 ad3e 4f24 153e bcdd 0fbe 8436 3ebe
000000b0: 5441 d03d fbed 0b3e 2eb3 6cbd e910 ac3d
000000c0: ce10 253c 6869 033d d310 143d 3522 543e
000000d0: 0522 a23c fa14 f4bd 05ec bebd 700f 0a3e
000000e0: 2661 583d 0125 033e e62e e73d 3b7d 353d
000000f0: bdcc ff3d 09f2 db3c 1feb 963d 24cb 3b3d
00000100: 350c 50bd e2a3 0dbe 4ffd cb3c ae7b 003e
00000110: 2102 a8be d6be 943d b3f9 233e 9105 1a3e
00000120: 3df4 04bd 4121 7ebd e3ad aebd 1ebb 85bd
00000130: 800e 86bd 8af8 4c3e e133 f63d 05e2 f83d
00000140: c8f6 e63c f649 c9bd 6689 0dbe bf1a 7f3c
00000150: c09b 043d 88f7 543d dd08 06bd 11de 8b3b
00000160: 9a51 57be ba68 99bc 46aa 0cbd 13a9 adbb
00000170: 0691 fcbd 1cfa 1abe c98a 633e dedc 0b3e
00000180: 8ad5 083e 24c1 9dbc edf1 c9bc e61b 91be
-0.07801812 0.002515997 0.035627168 0.019989697 -0.06898774 -0.059428606 0.111543074 -0.0821458
0.061561488 0.1942992 -0.050218973 -0.063802384 -0.07047244 -0.19142954 -0.048712905 -0.014116172
-0.0706465 0.18676351 0.06332449 0.27894774 0.24247189 0.08781275 0.22024766 -0.10612314
0.14059535 0.018448094 0.053211022 -0.13146679 -0.06728951 0.002999251 -0.0071136407 0.100872904
0.21549208 0.08213396 -0.051872022 -0.19219217 0.0145589905 -0.0799439 -0.08804043 0.15848841
0.3382733 0.14564632 -0.14049429 -0.18575484 0.1016871 0.13665001 -0.057788067 0.08401663
0.010074807 0.032082945 0.036148857 0.20716174 0.019791612 -0.119180635 -0.09322361 0.13482451
0.052827023 0.12807085 0.11288242 0.044308882 0.124902226 0.02684881 0.073690645 0.045848027
-0.05079289 -0.13832048 0.02490106 0.1254718 -0.32814124 0.072629616 0.16013221 0.15041186
-0.032459486 -0.062043432 -0.0852926 -0.065298304 -0.065457344 0.20016685 0.12021614 0.12152485
0.028193846 -0.0982856 -0.13821945 0.015570342 0.032375097 0.051993877 -0.032723296 0.0042684157
-0.21027222 -0.018726695 -0.034342073 -0.0052996962 -0.123323485 -0.15134472 0.22220911 0.13658473
0.13362709 -0.019257136 -0.024651492 -0.28341597

weight f4 [8, 100]
00000000: 16a7 fcbd f81f 673e c5f4 a1bd 3599 1cbf
00000010: 1fd0 d13d 591d 363d e749 b3bf a141 c5be
00000020: 599b 123e b258 f83d f71d bb3e 94d8 20bf
00000030: 79b5 47bf 4283 05bf aa78 38be a6f6 d5be
00000040: fc54 373d fe86 c3be 377b 533e 321c 273e
00000050: b84a 9e3e d823 9d3e afa7 1a3e ce46 683e
00000060: ab03 c93f 0f70 53be 1c64 0f3f 049b e33d
00000070: 0f2c 0abd 7731 733d e1c0 6e3b 5769 4f3e
00000080: 321b 87be 101d 673f bf4f debf 6a9b 933e
00000090: 499b d7be 3f5a 843f bf3e 893f f6bb 6fbe
000000a0: 73b1 843e 8489 a63e 00eb 1ebe d374 3fbe
000000b0: 182c 423d b725 f4be b36d efbd d41d e2bd
000000c0: c6a3 d3bf b506 c8be dae5 3fbf ad3d 013e
000000d0: 8a81 67be aef0 acbd a086 8fbe 58e8 143d
000000e0: ff71 913c 29a4 203e 60a6 f8bf 4418 553f
000000f0: 571a e03c 0e70 293e 7908 d93e 1877 a03f
00000100: 703e 47bd f73b 1040 865c 80bf b5ab 3a3e
00000110: 2386 fd3e 02d6 b2be 2e78 c9be 9a77 bf3e
00000120: d556 1d3e 26c6 f03d 51d8 2c3e 6550 383e
00000130: 9847 8cbd e4c6 75bd d303 683f 7205 01bf
00000140: c72f 72be e314 e1bd ef57 9cbe caf9 f63e
00000150: bce0 9abf dfa7 0b3f f717 4d3d 251e 4cbe
00000160: 5d6b fabd ad2e 89be 54a0 863f 8c9f febe
00000170: e25f cabe a492 c1bd e279 cfbd 73a7 1dbf
00000180: 2931 813e 763c c83d 3dcb f43d 5de1 e93e
00000190: 70fe 9ebe 7010 a33e dd7d 14be 2428 113e
000001a0: 9480 1d3e e55c 0b3f 2bcd 9cbd e2c6 a83e
000001b0: d05b d63e 5230 bc3c a91b 083d de50 2839
000001c0: 4a35 52bd 3261 3cbe d00c a73c d7be d2be
000001d0: 6753 253f 46f5 7a3e 1d18 24be 1942 4dbf
000001e0: 1e5c 8bbe 1e66 3abe 3adf c8bf d91b 353e
000001f0: 4cd4 3e3e 0dd3 703f 1cc6 a63e 652b 373f
00000200: 7c23 c13d c3bd 863c 4fd8 72be 6ea3 76be
00000210: 8f63 b0be b604 d7bc 230f 993d a85d c4bd
00000220: d0f3 e73c c266 e8bc e746 943d 9b07 b43d
00000230: c7d6 96bf 395f 94be 1d1f 38bf 803d bbbf
00000240: a337 9ebd bf63 623d 8be4 1fbf bc1a 7d3e
00000250: 14cf 813d 395f 88be 0ff5 29bd d3ff 393e
00000260: 91d0 afbe 7c41 b8be 6ec1 eebd 1a21 e33c
00000270: f176 ab3d 1324 47bc ca63 6f3e 1ef5 823d
00000280: bc31 dd3d 0532 6a3d cb9a e4bd d9af adbe
00000290: b166 e63e 2950 90bd 2b8c fdbc d79a 2b3e
000002a0: 8a3d ab3e 100f 89bd ce60 463d 7d82 8e3e
000002b0: ad19 6bbc a465 74be 4d23 7abf 896a 423e
000002c0: 1d84 eebe 5b6e 7e3e bfe3 013f 6eed aa3d
000002d0: 190a d4bd 0861 473f 07c8 eabe 6638 ef3d
000002e0: 5177 123e 5d49 16bf 0260 4ebe 0ef2 04c0
000002f0: 62f6 febe a570 1e3d 7a9e 043e be76 b6bd
00000300: 333e cabe d5df 62bf b65e d8be 9ecf 3c3d
00000310: 5d9f afbf 5466 a4bd 4da4 45be 49b2 3abe
00000320: d072 47be 702b 96be 42df 4abe 9ef4 05be
00000330: 16fc 0e3e 92b6 7dbe a171 833d c239 9cbe
00000340: a4f9 e4bd 1f32 78bc 3a1f 61bc 970b c33d
00000350: d84b 4fbd 94fc 933e 414b 04bf 78a9 513e
00000360: 54cc 87be 0d99 213e 19c4 19be d135 4ebd
00000370: f24b 00bf 35b5 c13c 832b 573f 4859 bebc
00000380: fcf5 6fbe 43bd 72bd d0aa 4dbc 73c8 e8bd
00000390: 2313 833e b676 c1bc dbca 29be b7d6 133d
000003a0: c890 acbe 2c7a 2abd 24ad 2b3d c991 aebe
000003b0: a7f7 efbc 6125 3c3e 0233 2a3e bfe8 12bf
000003c0: d43e 9fbf d34e e33d 14ca 933e 8796 7fbe
000003d0: 4d22 ee3d b69c 333e 7015 a83d e3be 00be
000003e0: eb08 703d 8ab1 b7bd eddc d53c e48f 603d
000003f0: 5109 29be 823f 6bbe d5a2 8bbd be58 2dbf
-0.123365566 0.22570789 -0.07908014 -0.61171275 0.10244774 0.04446158 -1.4006928 -0.38526633
0.14317073 0.12126292 0.365463 -0.6283047 -0.7801128 -0.5215341 -0.1801478 -0.4178974
0.04475878 -0.38188928 0.20652471 0.1631935 0.3091638 0.3069141 0.15103029 0.2268326
1.5704244 -0.20648216 0.5601213 0.11113551 -0.033733424 0.059373345 0.0036430883 0.20255028
-0.26387936 0.9027872 -1.7368087 0.2882951 -0.4211066 1.0340041 1.0722274 -0.23411545
0.25916633 0.3252679 -0.15519333 -0.18696909 0.047405332 -0.47685024 -0.11690845 -0.110408455
-1.6534355 -0.39067617 -0.749601 0.12621184 -0.22608009 -0.084443435 -0.28032398 0.036354393
0.017754553 0.15687622 -1.9425774 0.8324015 0.02735631 0.16546652 0.42389277 1.2536345
-0.04864353 2.25366 -1.0028236 0.18229564 0.495164 -0.349289 -0.39349502 0.37395936
0.15365155 0.11756544 0.16879393 0.17999418 -0.06849593 -0.06000413 0.90630835 -0.50398934
-0.23651038 -0.10990312 -0.30535838 0.4823745 -1.2099833 0.54553026 0.050071683 -0.19933374
-0.12227509 -0.26793423 1.0517678 -0.497311 -0.39526278 -0.094517976 -0.10130669 -0.6158363
0.2523282 0.09777157 0.11952827 0.4567975 -0.31053495 0.31848478 -0.14501138 0.14175469
0.1538108 0.5443862 -0.0765632 0.32964236 0.41866922 0.02297226 0.033229504 0.00016051854
-0.05132035 -0.18396452 0.020391852 -0.41161224 0.64580387 0.24507627 -0.16024823 -0.8017898
-0.27218717 -0.18203017 -1.5693123 0.17686404 0.18635672 0.9407204 0.3257302 0.7155059
0.09430596 0.016447907 -0.23715328 -0.24085781 -0.34450957 -0.026247364 0.0747359 -0.09588176
0.028314501 -0.028369311 0.07240086 0.08790513 -1.1784295 -0.289789 -0.71922475 -1.4628143
-0.077254556 0.055270907 -0.62458104 0.2471723 0.06338325 -0.2663515 -0.04149347 0.18163995
-0.3433881 -0.3598746 -0.116579875 0.027725745 0.08372296 -0.012154597 0.2337791 0.06394409
0.10800502 0.05717661 -0.11162337 -0.33923224 0.45000222 -0.07046539 -0.030950626 0.16758285
0.33445388 -0.06692326 0.048432164 0.2783393 -0.014349383 -0.23866898 -0.97710115 0.18985952
-0.4658517 0.24846785 0.5073814 0.08346067 -0.103534885 0.7788243 -0.45855734 0.11680679
0.14303328 -0.58705693 -0.20153812 -2.0772738 -0.4979735 0.038681645 0.12951079 -0.08909367
-0.3950058 -0.8862279 -0.4225976 0.046096437 -1.3720509 -0.0802733 -0.19300957 -0.18232073
-0.19477391 -0.29330015 -0.19811729 -0.13081595 0.1396335 -0.24776676 0.06418157 -0.30512816
-0.11180428 -0.015148669 -0.013740355 0.09523695 -0.05060944 0.2890364 -0.5167733 0.20474803
-0.26523077 0.1578104 -0.15016212 -0.050344292 -0.50115883 0.023645977 0.8405077 -0.023235932
-0.2343368 -0.059262525 -0.012552932 -0.11366358 0.25600538 -0.023616176 -0.1658129 0.03609344
-0.3370421 -0.04162042 0.041913167 -0.340956 -0.029292895 0.18373634 0.1662102 -0.5738639
-1.2441049 0.11099019 0.2886511 -0.24959765 0.11627636 0.17540249 0.08207214 -0.12572818
0.058602255 -0.0896941 0.026106322 0.054824725 -0.1650746 -0.22973445 -0.06818167 -0.67713535

bias f4 [8]
00000000: 8726 af3d 5734 fc3d 7378 d0be 1b62 bd3e
00000010: 1a04 ae3c 52ba 173d 0219 96bd 75ad e8bc
0.085522704 0.123146705 -0.40716895 0.3698891 0.02124219 0.037042923 -0.073289886 -0.028403023
