models/model_conv_lacc.pkl (torch, 122367 bytes, 10 tensors)

weight f4 [16, 1, 5]
0	0x3e799a6d	0.24375315
1	0xbd1e5df8	-0.038663834
2	0xbfce835c	-1.6133838
3	0xbd459341	-0.048236135
4	0x3f1eb127	0.61989063
5	0xbf9dda9f	-1.2332343
6	0xbe9033fc	-0.2816466
7	0xbe91be66	-0.28465575
8	0xbb6a3b25	-0.003574082
9	0x3d9aec39	0.07564587
10	0x3efed1e8	0.4976952
11	0x3e6b2e8c	0.22966975
12	0x3f20a32d	0.62748986
13	0x3ea40cb3	0.3204094
14	0xbe5499d3	-0.20761804
15	0xbecc5b9c	-0.39913642
16	0x3dc413dd	0.09574101
17	0xbebb4aaa	-0.36580402
18	0xbe10846d	-0.14113016
19	0xbf52af5e	-0.8229884
20	0xbfb6683e	-1.4250562
21	0xbf132390	-0.5747614
22	0x3e789e8e	0.24279234
23	0x3e4a3a23	0.1974874
24	0xbe8e5000	-0.2779541
25	0xbe12ccdc	-0.1433596
26	0xbdf9a91b	-0.121904574
27	0xbf73dc3a	-0.95257914
28	0xbec02078	-0.37524772
29	0xbc4807a8	-0.012208857
30	0x3e03663e	0.12831971
31	0x3f1bbfa4	0.60839295
32	0xc002900a	-2.0400414
33	0x3cd6a8e3	0.026203578
34	0xbbc0eb54	-0.0058874283
35	0x3fb461ff	1.4092406
36	0xbf982e7f	-1.188919
37	0xbf3af7f4	-0.73034596
38	0x3d581924	0.05275835
39	0xbd53c75a	-0.05170379
40	0x3e6eedef	0.23332952
41	0xbf60db65	-0.8783477
42	0x3f2f06f7	0.6837
43	0xbe98193d	-0.29706755
44	0x3e4ba3fb	0.19886772
45	0x3dca45e5	0.098766126
46	0x3f6bfab1	0.921794
47	0x3f827262	1.0191157
48	0xbc7a4ad8	-0.015276633
49	0x3e224bca	0.15849224
50	0x3e9fc1ea	0.31202632
51	0x3da4cef5	0.080472864
52	0x3ef8e20a	0.48609954
53	0xbf29d63b	-0.66342515
54	0xbe67d850	-0.2264111
55	0xbec12f1f	-0.37731263
56	0x3e342b04	0.17594534
57	0xbfbbf065	-1.4682738
58	0x3d9e524d	0.077305414
59	0xbe197a52	-0.14988068
60	0xbeb17006	-0.3465578
61	0x3de13d83	0.109980606
62	0x3ee72c8c	0.45151174
63	0xbe5e11ee	-0.21686527
64	0x3f4f1dc3	0.8090479
65	0x3fa06f66	1.2533996
66	0xbf345b52	-0.70451844
67	0x3e09700c	0.13421649
68	0x3d0ddf27	0.034636643
69	0x3d0d7ce9	0.03454295
70	0x3de35aeb	0.111013256
71	0xbff0390b	-1.8767408
72	0x3f07a8e7	0.529921
73	0x3d6a7d6f	0.05724853
74	0xba4546af	-0.0007525486
75	0xbfe698af	-1.8015345
76	0xbddbce1a	-0.1073267
77	0x3f355f47	0.70848507
78	0xbdc10684	-0.09425071
79	0xbd89316b	-0.06698879

bias f4 [16]
0	0x3e353377	0.17695414
1	0x3eef9916	0.46796483
2	0x3d51eff0	0.051254213
3	0xbe2495c6	-0.16072759
4	0x3e72bef9	0.23705663
5	0x3d95c80e	0.07313548
6	0x3d1f6703	0.0389166
7	0x3c34059e	0.010987667
8	0xbec6b12c	-0.38807046
9	0x3e187ef7	0.14892183
10	0xbe99efc4	-0.3006574
11	0x3ee9c308	0.4565661
12	0xbe9e5290	-0.30922365
13	0x3ed8a061	0.4230986
14	0x3e41e2d4	0.18934184
15	0x3dbd5e73	0.092465304

weight f4 [64, 16, 3]
0	0xbe87896d	-0.26472035
1	0xbdf5b9d3	-0.11998334
2	0xbe92ad62	-0.28647906
3	0xbe0ce3c6	-0.13758764
4	0x3e10ddf2	0.14147165
5	0x3de56d38	0.112024724
6	0xbe11f6a7	-0.14254247
7	0xbdf23c16	-0.11827867
8	0x3c954e05	0.01822568
9	0xbe8e3387	-0.27773687
10	0xbe99490e	-0.2993855
11	0xbe041180	-0.128973
12	0x3c3eb8d4	0.011640746
13	0x3ce6e71f	0.028186379
14	0x3d3d781d	0.046257127
15	0x3dfa911c	0.12234709
16	0xbdf048dd	-0.117326476
17	0xbde65eb4	-0.11248532
18	0x3e70ffed	0.23535128
19	0x3cd33bd7	0.02578537
20	0xbde90173	-0.113772295
21	0x3e07c6b7	0.13259397
22	0xbdc19ced	-0.09453759
23	0xbd55244c	-0.05203657
24	0xba03d764	-0.0005029349
25	0xbd9b2049	-0.07574517
26	0xbd8ba0b2	-0.068177596
27	0xbbdbf6ef	-0.0067127864
28	0xbd97421f	-0.073856585
29	0x3d5e7e35	0.05431958
30	0x3e860e23	0.2618266
31	0xbe25ab99	-0.1617874
32	0x3df82ec4	0.12118295
33	0xbc5ce3af	-0.013482018
34	0xbaa02ad2	-0.0012219793
35	0x3d325bd6	0.043544613
36	0xbe3cbee2	-0.18432191
37	0xbda8232f	-0.08209836
38	0xbde23d23	-0.11046817
39	0x3e352170	0.17688537
40	0x3db71e33	0.08941307
41	0xbe24748b	-0.16060083
42	0xbd83097c	-0.063982934
43	0xbe536b3c	-0.20646375
44	0xbe8a715b	-0.27039608
45	0x3e8d132b	0.27553686
46	0xbd60c9ae	-0.054879837
47	0xbce03c71	-0.02737257
48	0x3e13480c	0.14382952
49	0xbdcb8aa4	-0.09938553
50	0x3dcb41a6	0.09924631
51	0xbe31dbde	-0.17369029
52	0xbe6bca98	-0.23026502
53	0x3dbbc6b0	0.09168756
54	0xbd4dac4c	-0.050213143
55	0x3dbefd60	0.09325671
56	0x3da5ee16	0.08102052
57	0x3ed110ae	0.40833038
58	0xbe6fac09	-0.2340547
59	0x3d60eda4	0.05491413
60	0x3dbc2f88	0.09188753
61	0x3e295d49	0.16539492
62	0x3e860fa6	0.26183814
63	0xbe09034a	-0.13380161
64	0xbdc83a59	-0.09776754
65	0xbbd229df	-0.006413683
66	0x3eb5c9b8	0.35505462
67	0x3ebd615c	0.36988342
68	0x3e364cfe	0.17802808
69	0x3e60a379	0.2193736
70	0xbedabd97	-0.4272277
71	0x3d8aff4c	0.06786975
72	0xbd62fb92	-0.055415697
73	0xbe686317	-0.2269405
74	0x3dbc40cc	0.091920465
75	0xbdf33c3f	-0.118767254
76	0x3e23efe3	0.16009478
77	0xbda035e5	-0.078227796
78	0x3f3457f9	0.70446736
79	0x3e941f20	0.28929996
80	0x3ee62676	0.44951218
81	0xbdafc863	-0.085831426
82	0xbd3411e2	-0.043962367
83	0xbdff4532	-0.1246437
84	0x3ec3c860	0.38238811
85	0x3ea5870c	0.32329595
86	0x3ef19b78	0.47188926
87	0x3b1ffcc4	0.0024412135
88	0xbdeaf349	-0.11472184
89	0x3e0fbe2c	0.14037389
90	0x3f2e7f79	0.6816326
91	0x3d39bc44	0.04534556
92	0x3ecfd21b	0.40589985
93	0x3e9dab89	0.30794933
94	0x3d6d60d6	0.057953678
95	0x3e392b6e	0.18082973
96	0xbb2472d6	-0.0025092862
97	0x3e5f2113	0.2178996
98	0xbe9a8f76	-0.30187577
99	0xbe012651	-0.12612273
100	0xbc025372	-0.007954465
101	0xbed53a6f	-0.41646144
102	0x3e048f5f	0.12945317
103	0xbd166d76	-0.036725484
104	0x3dcbf3ab	0.09958585
105	0x3e3bf803	0.18356328
106	0x3da9a451	0.08283294
107	0x3d9a3672	0.07529916
108	0x3dd918b5	0.106004156
109	0xbdc75ba3	-0.09734275
110	0xbe1f9f1a	-0.15588036
111	0xbe113a08	-0.14182293
112	0xbd130af0	-0.035899103
113	0xbd0885bb	-0.03333066
114	0xbe07d0f2	-0.132633
115	0xbd8fd795	-0.07023541
116	0xbe2d5fc6	-0.16931066
117	0x3c975fd5	0.018478313
118	0x3ddb9806	0.107223555
119	0x3e277b55	0.16355641
120	0xbe16ef4d	-0.14739724
121	0xb90872b5	-0.00013012702
122	0x3929c376	0.00016189911
123	0x3b164b41	0.0022933038
124	0x3e75e8dc	0.2401461
125	0x3e439209	0.19098677
126	0x3d732918	0.059365362
127	0xbd9407dc	-0.072280616
128	0x3c590e57	0.013248048
129	0x3e75d2f8	0.2400626
130	0xbdb06b53	-0.086142205
131	0xbe352298	-0.17688978
132	0xbe12e875	-0.14346488
133	0xbdac7d35	-0.08422319
134	0x3df967df	0.12178015
135	0xbd857e8f	-0.0651828
136	0x3d026fb2	0.031844802
137	0xbe70da39	-0.23520745
138	0x3cb0793c	0.021542184
139	0xbe0bc647	-0.13649856
140	0xbe80f03d	-0.25183287
141	0x3e822479	0.2541845
142	0x3c41c1d8	0.011826001
143	0x3d58915d	0.052873004
144	0xbe0d6f7b	-0.13812058
145	0x3e22e46a	0.15907446
146	0xbe8065fa	-0.25077802
147	0x3e35a453	0.17738466
148	0x3e26516b	0.16241996
149	0x3dd928e5	0.10603503
150	0xbd9260e2	-0.07147385
151	0xbe080637	-0.13283621
152	0xbd8762df	-0.06610655
153	0x3cf843da	0.030305792
154	0x3d29e9fe	0.041482918
155	0xbe36c75f	-0.17849492
156	0x3dee92bd	0.11649082
157	0x3d246b74	0.040141538
158	0x3d37fbe2	0.04491795
159	0x3e51efb9	0.20501603
160	0x3dc5d999	0.09660644
161	0xbdde816f	-0.10864531
162	0xbf087e25	-0.5331748
163	0xbe7f5fe0	-0.24938917
164	0xbe898089	-0.26855877
165	0xbcb3bbea	-0.02194019
166	0x3dbeef83	0.09323027
167	0xbc377f59	-0.011199796
168	0x3e243877	0.16037165
169	0x3d0d85c1	0.034551386
170	0x3ddd0b6a	0.10793193
171	0xbdd8bc56	-0.10582797
172	0xbe88ce12	-0.2671972
173	0xbd1740f4	-0.03692718
174	0xbe3f2962	-0.1866813
175	0xbe8be5b9	-0.27323702
176	0xbe0ffcbf	-0.14061259
177	0xbe25c85d	-0.16189714
178	0xbca9382c	-0.020656668
179	0xbe984abc	-0.29744518
180	0x3db7b918	0.08970851
181	0xbebc333a	-0.36757833
182	0xbeb5d197	-0.35511467
183	0x3e929466	0.28628844
184	0x3e4142eb	0.18873183
185	0x3dea9af0	0.11455333
186	0x3eb10bbd	0.34579268
187	0x3e686d8f	0.22698043
188	0x3c88a1ed	0.016678775
189	0x3dc7e88f	0.09761154
190	0xbe2de63d	-0.1698236
191	0x3d69ed3d	0.057111014
192	0xbe9ed7f5	-0.31024137
193	0xbdebd9bc	-0.11516139
194	0xbf1b88c2	-0.6075555
195	0xbe61af91	-0.2203963
196	0x3ed1ee43	0.41002092
197	0x3dc3c4a0	0.095589876
198	0x3da1ac64	0.07894209
199	0xbe041b58	-0.12901056
200	0xbcfab390	-0.0306032
201	0xbf056c57	-0.5211844
202	0xbdb8f69b	-0.09031411
203	0xbed84305	-0.42238632
204	0xbe84fdc1	-0.2597485
205	0xbe12dabf	-0.14341258
206	0xbd87be19	-0.06628055
207	0x3c7d467d	0.0154587
208	0x3d07c203	0.03314401
209	0xbe917160	-0.2840681
210	0x3ec277a0	0.37981892
211	0x3e88cfa3	0.26720914
212	0x3de928b6	0.11384718
213	0x3dd1d8b5	0.10246412
214	0x3dc3e61e	0.09565376
215	0xbe922f22	-0.28551584
216	0x3dcb86cb	0.09937819
217	0xbd0b808d	-0.034058142
218	0xbe2093cf	-0.15681385
219	0x3dd0f007	0.102020316
220	0xbd7e9051	-0.06214935
221	0x3eb3bf5a	0.35106927
222	0x3dc81bfa	0.09770961
223	0x3e4fc3ab	0.20289485
224	0xbda324ed	-0.079660274
225	0xbcc7fea5	-0.024413416
226	0x3d5c4372	0.05377526
227	0xbe38f102	-0.18060687
228	0xbdb667fa	-0.08906551
229	0xbded0b9c	-0.1157448
230	0xbd8cd297	-0.06876104
231	0xbe17c687	-0.14821826
232	0x3e72bee5	0.23705633
233	0xbebf7a2e	-0.37397903
234	0xbe2bc471	-0.16774155
235	0x3e192b71	0.14957978
236	0xbebdb77b	-0.37054047
237	0xbd603213	-0.054735254
238	0xbde3c594	-0.111216694
239	0x3e8c004e	0.27343982
240	0xbf974092	-1.181658
241	0x3c0f08a5	0.008730088
242	0x3e451b58	0.19248712
243	0xbdb10bfe	-0.086448655
244	0x3d488a54	0.048960045
245	0xbe9fd7d6	-0.31219357
246	0xbe07cc89	-0.13261618
247	0x3dfcd569	0.12345392
248	0xbcfedbd8	-0.031110689
249	0x3f04c926	0.5186943
250	0xbd89763c	-0.067120045
251	0xbebc3aaf	-0.36763522
252	0x3dd7e028	0.10540801
253	0xbe95a2ad	-0.29225674
254	0xbd9a1ee2	-0.07525422
255	0x3e02e1a5	0.12781389

bias f4 [64]
0	0x3e00f77e	0.12594411
1	0xbea6a3c7	-0.32546827
2	0x3e5a4fed	0.21319552
3	0x3ccf5325	0.025308201
4	0xbd89458f	-0.067027204
5	0xbe8c86e3	-0.2744666
6	0x3dc99d35	0.09844438
7	0x3ca9d4f7	0.020731432
8	0x3e5a0923	0.21292548
9	0x3cb4b431	0.022058578
10	0xbcfe7334	-0.031060793
11	0x3e37bb39	0.17942514
12	0x3de46e34	0.11153832
13	0x3d1a40e8	0.037659556
14	0x3de76948	0.11299378
15	0x3def9d00	0.11699867
16	0xbcdde50a	-0.027086753
17	0xbe11212f	-0.14172815
18	0xbe35d4f1	-0.17757012
19	0xbd930943	-0.07179501
20	0xbe499030	-0.1968391
21	0x3e36014a	0.17773929
22	0xbe03d586	-0.12874421
23	0x3d8bec23	0.06832149
24	0x3d699f30	0.05703658
25	0xbb8673e5	-0.004103171
26	0xbe05f0c7	-0.1308013
27	0xbd11871a	-0.035529234
28	0xbd9d4d10	-0.07680714
29	0x3e188111	0.14892985
30	0x3e255d04	0.16148764
31	0xbcd709e6	-0.026249837
32	0xbde288be	-0.11061238
33	0xbda11a05	-0.07866291
34	0x3d9dcada	0.077047065
35	0x3e59f7af	0.2128589
36	0xbd921a2d	-0.07133899
37	0x3e00d32a	0.12580553
38	0xbd69846b	-0.05701105
39	0x3e22b488	0.1588918
40	0x3cc3444f	0.023836283
41	0x3e8d4243	0.27589616
42	0x3cd08d80	0.025458097
43	0x3d17b409	0.03703693
44	0x3e17375c	0.14767212
45	0xbe021a1b	-0.12705271
46	0x3c94694c	0.018116616
47	0x3e69a098	0.22815168
48	0x3df454ba	0.11930223
49	0x3e4dafec	0.2008664
50	0x3e19bf9a	0.15014496
51	0x3e657074	0.22406179
52	0x3df34fa8	0.118804276
53	0x3e1be99a	0.1522583
54	0xbf485d86	-0.78267705
55	0x3da0b9f1	0.078479655
56	0xbe448149	-0.19189943
57	0x3e0f09e0	0.13968611
58	0x3d9db6ba	0.07700868
59	0xbdcfd170	-0.10147369
60	0x3da5e22e	0.08099781
61	0x3c9c4fbb	0.019080987
62	0xbe85fe24	-0.26170456
63	0xbea93338	-0.3304689

weight f4 [128, 64]
0	0xbc2cc84b	-0.0105458
1	0xbe198ff2	-0.14996317
2	0x3d9eb951	0.0775019
3	0xbee09237	-0.43861553
4	0x3d369844	0.044578806
5	0xbea9dc33	-0.3317581
6	0xbe449535	-0.19197543
7	0x3d00cf59	0.031447742
8	0x3e2cd14b	0.16876714
9	0xbcb79a85	-0.022412548
10	0xbd9fd8d9	-0.07805032
11	0xbe197d13	-0.14989118
12	0xbd82f60e	-0.063945875
13	0xbe536327	-0.20643292
14	0xbe6242a3	-0.22095732
15	0xbdf58a9c	-0.11989328
16	0xbcb1b4fe	-0.02169275
17	0xbe67d706	-0.22640619
18	0xbd29e914	-0.041482046
19	0xbe178b33	-0.14799194
20	0xbf0c195b	-0.5472619
21	0xbecea09a	-0.40356904
22	0x3e6bd7fc	0.2303161
23	0x3e9e924b	0.30970988
24	0x3ec681d1	0.38770917
25	0xbc01452c	-0.007890027
26	0x3e1136fa	0.14181128
27	0xbeea1afa	-0.45723706
28	0xbc78b9e9	-0.015181043
29	0xbe54e187	-0.20789157
30	0x3d7525c9	0.059850488
31	0xbdc4aac1	-0.09602881
32	0xbe02e7a4	-0.12783676
33	0x3ebf6277	0.3737981
34	0xbf1ef3f8	-0.62091017
35	0x3ccc0908	0.02490665
36	0x3b38dc23	0.0028207384
37	0xbe390e9f	-0.18071984
38	0xbef2b871	-0.47406343
39	0xbe0687cc	-0.1313774
40	0x3d80b6c1	0.062848575
41	0xbda86716	-0.08222787
42	0xbe3c4dc6	-0.18389043
43	0x3df96688	0.121777594
44	0x3e035163	0.12824015
45	0x3d9ebccb	0.07750853
46	0xbc0d00ae	-0.008606119
47	0x3c0bcb6a	0.008532384
48	0x3d4ce90f	0.05002695
49	0x3e2ed6f0	0.1707418
50	0x3e79643b	0.24354641
51	0x3b890e26	0.004182595
52	0xbce642e8	-0.028108075
53	0x3e167f6f	0.1469705
54	0x3cdfd54a	0.027323384
55	0x3d9b4af9	0.07582659
56	0xbea6272d	-0.32451764
57	0xbdba6984	-0.09102157
58	0x3cc0b260	0.023522556
59	0x3e8addc6	0.27122325
60	0x3e699cdd	0.22813745
61	0x3eb16672	0.34648472
62	0xbf328e96	-0.6974882
63	0x3e0ea900	0.13931656
64	0x3c2c0c0b	0.010500918
65	0xbecf87bb	-0.40533242
66	0x3e31a722	0.17348912
67	0xbdf599d6	-0.119922325
68	0xbd228149	-0.039674077
69	0xbe7a1088	-0.24420369
70	0xbd14a707	-0.036292102
71	0x3b4d5b1c	0.0031334823
72	0x3e53c786	0.20681581
73	0xbc025b55	-0.007956346
74	0x3de75b02	0.11296655
75	0xbdf8f975	-0.12156955
76	0xbe7b71db	-0.24555151
77	0x3d7f551d	0.06233703
78	0x3c9f3bd6	0.019437712
79	0xbde3ed52	-0.1112925
80	0xbea18757	-0.3154857
81	0xbe0a771a	-0.13521996
82	0xbd89adab	-0.06722578
83	0xbe3d2b7b	-0.18473618
84	0xbd8fe1ed	-0.07025514
85	0x3df47a94	0.119374424
86	0xbe2dd6d2	-0.16976479
87	0xbe0a28e6	-0.13492164
88	0x3dce91c6	0.10086398
89	0x3be6f0b3	0.0070477366
90	0x3de1e66b	0.11030277
91	0xbda57219	-0.08078403
92	0xbd76483f	-0.060127493
93	0x3d8032b3	0.0625967
94	0x3cfb70c5	0.030693421
95	0x3baeb253	0.0053313165
96	0x3dd67424	0.10471371
97	0x3ecaa4dc	0.39578903
98	0xbddfba52	-0.1092421
99	0x3d90bcad	0.07067237
100	0xbd9bcf91	-0.076079495
101	0xbd8938da	-0.06700297
102	0xbda6e79c	-0.08149645
103	0xbdf9b9e6	-0.121936604
104	0x3ddea01a	0.10870381
105	0x3eca9644	0.3956777
106	0xbe837b52	-0.25680023
107	0x3e5d8409	0.21632399
108	0x3d1dedf2	0.038557
109	0xbd486115	-0.04892071
110	0x3c58d8b4	0.01323526
111	0x3e11d144	0.14239985
112	0x3dc5879f	0.09645008
113	0x3e39f408	0.18159497
114	0x3def603c	0.11688277
115	0x3e952c74	0.29135478
116	0x3dfaf1c8	0.12253147
117	0xbe611ab9	-0.2198285
118	0xbef96c10	-0.48715258
119	0x3e181799	0.14852752
120	0xbd3904eb	-0.045170706
121	0xbe54a312	-0.20765331
122	0x3e6d0f04	0.2315026
123	0x3e00f91a	0.12595025
124	0xbda25721	-0.07926775
125	0xbe1f1784	-0.15536314
126	0xbdd110f0	-0.10208309
127	0xbe1779f8	-0.14792621
128	0xbd980b55	-0.074240364
129	0xbd877610	-0.066143155
130	0xbe02d06f	-0.12774824
131	0x3cf1e94f	0.029530196
132	0x3dc1802f	0.09448277
133	0x3da442ca	0.080205515
134	0xba937d7b	-0.0011252606
135	0x3cbc1676	0.022959929
136	0xbd91f93a	-0.07127614
137	0xbc371d1a	-0.011176372
138	0xbd053edd	-0.032530654
139	0x3dc5a7e2	0.09651162
140	0xbd72b947	-0.059258725
141	0xbe0aee8b	-0.1356756
142	0x3cec7d67	0.02886839
143	0x3bfd3b79	0.007728037
144	0xbdae0499	-0.08496971
145	0x3d5613e7	0.052265074
146	0x3c425d57	0.011863074
147	0xbde84b20	-0.11342454
148	0x3d5b6ff3	0.05357356
149	0xbdb64125	-0.08899144
150	0x3d5f5a0b	0.05452923
151	0x3d1cd1f3	0.03828616
152	0xb92f9f19	-0.00016748569
153	0xbdcbe064	-0.099549085
154	0xbdea98fa	-0.11454959
155	0xbdad11ca	-0.084506586
156	0xbc8d4b0c	-0.0172477
157	0xbdecd030	-0.11563146
158	0x3d4ea98a	0.050454654
159	0x3d4c2442	0.049839266
160	0xbd9d9b89	-0.076956816
161	0xbdee409b	-0.11633416
162	0xbd9f5b63	-0.077811025
163	0xbdc63816	-0.09678666
164	0xbd07d57b	-0.033162575
165	0xbc9c0efb	-0.019050112
166	0xbbb25f28	-0.0054434724
167	0x3db9e210	0.09076321
168	0x3d071042	0.03297449
169	0xbe0cb793	-0.13741903
170	0xbd919b2f	-0.07109677
171	0x3d712452	0.05887253
172	0x3dacde43	0.084408306
173	0x3cf49a78	0.029858813
174	0xbdb64e66	-0.08901672
175	0xbd849ac6	-0.06474833
176	0xbd552c9d	-0.0520445
177	0xbe098f89	-0.1343366
178	0xbab08eb8	-0.0013470268
179	0x3d98e712	0.07465948
180	0x3d17074f	0.036872204
181	0xbd1c97b5	-0.038230617
182	0x3d9e28c3	0.077226184
183	0xbd38f6fd	-0.04515742
184	0xbd04390f	-0.032280978
185	0xbdaa6c49	-0.08321435
186	0x3d18730f	0.037219103
187	0xbc372758	-0.011178814
188	0x3db1230d	0.086492635
189	0xbd52d6ae	-0.051474266
190	0x3d06158d	0.032735396
191	0x3dc465de	0.09589742
192	0xbc954a08	-0.018223777
193	0xbf246ba2	-0.64226735
194	0x3dd47878	0.1037454
195	0xbe6f2ec7	-0.23357688
196	0xbef1d948	-0.47236085
197	0xbe547c65	-0.20750578
198	0x3e89f156	0.26941937
199	0x3d93b2d8	0.07211846
200	0xbe1d26ad	-0.15346785
201	0x3e004261	0.12525322
202	0x3caf52e7	0.021401836
203	0x3eaf8546	0.34281367
204	0xbeb9ceaa	-0.36290485
205	0xbdc7feee	-0.09765421
206	0xbe69b283	-0.22822003
207	0xbdcc90c3	-0.099885486
208	0xbef73a1e	-0.48286527
209	0x3e766eee	0.24065754
210	0x3e9d7342	0.30751997
211	0xbd99c570	-0.07508361
212	0xbe94933b	-0.29018578
213	0xbd89bd77	-0.06725591
214	0xbe045860	-0.12924337
215	0xbd983946	-0.07432799
216	0x3ea55cf6	0.32297486
217	0xbdc06680	-0.0939455
218	0x3eba28f6	0.36359376
219	0xbf1ace46	-0.60471
220	0xbf2d4e90	-0.67698
221	0x3d8b9891	0.06816209
222	0xb8087279	-3.2531538e-05
223	0xbdbba386	-0.09162049
224	0xbe8c5354	-0.27407324
225	0x3dcc4a6d	0.09975133
226	0x3e5a5406	0.21321115
227	0xbd9590ae	-0.07302986
228	0xbeffd067	-0.49963686
229	0xbd32395c	-0.043511733
230	0xbd318604	-0.043340698
231	0xbd5e16fe	-0.054221146
232	0xbf1bb9cb	-0.6083037
233	0x3e05ea45	0.13077648
234	0xbec28861	-0.37994674
235	0x3eea5c08	0.4577334
236	0x3dd9f9cf	0.1064335
237	0x3e1b1507	0.1514474
238	0x3d4c4b1d	0.04987632
239	0x3e121015	0.14263947
240	0x3dc71641	0.097210415
241	0x3e148b43	0.14506249
242	0xbda727c4	-0.081618816
243	0x3efe52bc	0.49672496
244	0xbd8fe0d3	-0.07025304
245	0xbe2c27fb	-0.16812126
246	0xbe158288	-0.14600575
247	0x3cf8e571	0.030382844
248	0x3e17da47	0.1482936
249	0xbe5bfde6	-0.21483573
250	0x3e446f56	0.19183096
251	0x3d9222b5	0.07135526
252	0x3e9cdb0e	0.30635875
253	0x3f2ffeff	0.6874847
254	0xbe6c6749	-0.23086275
255	0xbebbb418	-0.36660838

bias f4 [128]
0	0x3c9e1383	0.019296413
1	0x3dca30c9	0.09872586
2	0xbded84aa	-0.11597569
3	0x3da4e087	0.08050638
4	0xbd63af48	-0.055587083
5	0x3c947a74	0.018124796
6	0x3cdf5859	0.027263807
7	0xbda85a69	-0.08220369
8	0xbd9865a0	-0.074412584
9	0x3dd25403	0.1026993
10	0x3d98aa6e	0.07454382
11	0xbcda20fc	-0.026627056
12	0x3d88e992	0.06685175
13	0x3e2619d3	0.16220789
14	0xbe127611	-0.14302851
15	0xbd7aab5a	-0.06119857
16	0x3c0162f4	0.007897127
17	0xbd73bfdb	-0.05950914
18	0x3ba58a49	0.0050518853
19	0xbe91ed04	-0.2850114
20	0x3cac4ff2	0.021034215
21	0x3dc66638	0.096874654
22	0xbdebd349	-0.11514909
23	0xbe289f2b	-0.16466968
24	0xbc9e51f0	-0.01932618
25	0xbb3a4cb8	-0.0028427076
26	0xbc84bfe9	-0.016204791
27	0x3c589f38	0.013221554
28	0x3e008c49	0.12553515
29	0xbdb311e7	-0.08743649
30	0xbdfdfdcd	-0.12401924
31	0x3d13000d	0.03588872
32	0xbba6daa7	-0.0050919834
33	0xbcd934c0	-0.026514411
34	0x3d81ac74	0.06331721
35	0x3d89ff53	0.06738152
36	0xbd9f9c51	-0.07793487
37	0xbc4745cf	-0.01216264
38	0x3d7d4029	0.061828766
39	0x3d8454ba	0.06461473
40	0xbe4fef1a	-0.20306054
41	0xbc434d22	-0.011920245
42	0xbdaf5bf9	-0.08562464
43	0xbcbdb73e	-0.023158666
44	0x3e2a4656	0.16628394
45	0xbdce8ce0	-0.100854635
46	0x3df70370	0.120612025
47	0x3db4f150	0.08835089
48	0x3e5f67b8	0.2181691
49	0x3c9fe5e5	0.019518802
50	0x3d08f253	0.033434223
51	0x3d1aeb3f	0.037822004
52	0x3e1eae39	0.15496148
53	0xbc01912d	-0.007908148
54	0x3e2c28a0	0.16812372
55	0x3cf855c4	0.030314334
56	0x3de06601	0.10956956
57	0x3e58a134	0.21155244
58	0x3d218dd5	0.039441902
59	0xbd7f74ca	-0.062367238
60	0x3bd607a2	0.0065316716
61	0xbb837586	-0.0040118126
62	0x3d3b4250	0.045717537
63	0xbe217c6d	-0.15770121
64	0x3da54573	0.08069887
65	0xbd1120d6	-0.035431705
66	0xbd9243f3	-0.071418665
67	0xbce259cd	-0.027630711
68	0xbd9e448a	-0.077279165
69	0x3e11123e	0.14167115
70	0xbda005f4	-0.078136355
71	0x3d549690	0.0519014
72	0x3e130107	0.1435586
73	0xbdaf47c9	-0.08558614
74	0x3de1cf41	0.11025859
75	0xbd66834c	-0.05627756
76	0x3e11184a	0.14169422
77	0x3e316d26	0.17326793
78	0x3c95f8b1	0.018307062
79	0xbde87214	-0.11349884
80	0xbdc69f3c	-0.0969834
81	0xbcb3c625	-0.021945069
82	0x3dd5cb06	0.10439114
83	0xbe1a6200	-0.15076447
84	0x3dcacc9b	0.09902307
85	0xbdba3f7a	-0.090941384
86	0xbf43e7d7	-0.76525635
87	0x3e1e6b82	0.15470698
88	0xbd8023cb	-0.06256827
89	0x3e26d3dd	0.16291757
90	0xbdac2b04	-0.08406642
91	0xbd2fa3f0	-0.042880952
92	0xbe5af097	-0.2138084
93	0xbc3be1d8	-0.01146742
94	0xbce5157f	-0.027964352
95	0x3e877d5e	0.26462835
96	0x3e80e8eb	0.25177702
97	0xbbdd3dc7	-0.006751749
98	0xbc197f01	-0.009368659
99	0x3b78b4a6	0.0037949472
100	0xbbedd7c8	-0.007258389
101	0x3e5fb2d1	0.21845557
102	0x3dadaa27	0.084797196
103	0xbe486a6f	-0.19571851
104	0x3e64cfd5	0.22344907
105	0xbe44692d	-0.19180746
106	0xbc12b7a9	-0.008954921
107	0xbe70b8bf	-0.23507975
108	0xbdf5067f	-0.1196413
109	0x3e3ed772	0.18636873
110	0xbc73625a	-0.014854992
111	0xbdb94d81	-0.09047986
112	0x3dac67cb	0.084182344
113	0x3d854814	0.065078884
114	0x3d20d03e	0.039261095
115	0x3e1b642b	0.1517493
116	0x3e0726e1	0.13198425
117	0xbdbdc5ab	-0.09266218
118	0x3e12b377	0.14326273
119	0x3c14f3a4	0.009091292
120	0xbda29b32	-0.079397574
121	0xbda69d27	-0.08135443
122	0xbd98a0c7	-0.07452541
123	0x3dbc7abb	0.092030965
124	0x3e06256a	0.1310021
125	0x3c94c698	0.018161103
126	0x3e121356	0.14265189
127	0x3d0849ec	0.033273622

weight f4 [128, 128]
0	0xbd9782d6	-0.07398002
1	0x3caf32ac	0.021386467
2	0xbd8b7edf	-0.06811308
3	0x3dc5d823	0.096603654
4	0xbe6b395b	-0.22971098
5	0x3dd4f857	0.103989296
6	0x3ed2e531	0.41190484
7	0x3e00aa0b	0.12564866
8	0x3ef8a642	0.48564345
9	0xbc6455f7	-0.013936511
10	0xbac067a0	-0.001467932
11	0x3eb024cb	0.3440307
12	0xbef09c04	-0.4699403
13	0x3f6fbb39	0.93645054
14	0x3d7036e6	0.058646105
15	0x3ee628d2	0.44953018
16	0x3efef42e	0.4979567
17	0x3efdda24	0.4958049
18	0x3e91f8c3	0.28510103
19	0x3f2b00c0	0.6679802
20	0x3f21187e	0.62928
21	0x3e946597	0.28983757
22	0xbd73fe65	-0.05956878
23	0x3e9c32cc	0.30507505
24	0x3d8b5f07	0.068052344
25	0xbd112a4f	-0.03544074
26	0xbef6ec40	-0.4822712
27	0x3f212ef8	0.62962294
28	0x3f55e958	0.8355918
29	0xbe4ac072	-0.19799975
30	0x3e880763	0.26568136
31	0xbde0529c	-0.109532565
32	0x3f3521e5	0.70754844
33	0xbdd5f765	-0.104475774
34	0xbc9728b1	-0.01845202
35	0x3f0a35dd	0.5398844
36	0x3fdc5fdd	1.7216755
37	0x3f3b5ecd	0.7319153
38	0x3f602f93	0.8757259
39	0x3f19c209	0.600617
40	0x3f163cf3	0.5868675
41	0x3e47d25f	0.19513844
42	0x3eae140e	0.33999676
43	0x3e34ffbe	0.17675683
44	0x3bfff63e	0.007811337
45	0xbb6784ab	-0.003532688
46	0x3f5cd094	0.86255765
47	0x3f53cebf	0.82737345
48	0xbc1aa428	-0.009438552
49	0x3ef836fa	0.48479444
50	0xbd527bf6	-0.05138775
51	0xbd98c29f	-0.07458996
52	0x3e609f68	0.21935809
53	0x3d21cade	0.03950011
54	0x3f2fe88c	0.68714213
55	0x3e9d2cbd	0.30698195
56	0x3ada3336	0.0016647342
57	0xbce8ad44	-0.028402932
58	0x3f1b7d5e	0.6073817
59	0xbc90c464	-0.017671771
60	0xbd821227	-0.063511185
61	0x3ea5e1a8	0.32398725
62	0x3d43da9b	0.0478159
63	0x3f21daaf	0.6322431
64	0xbc07ab36	-0.008280566
65	0x3e619f5d	0.22033449
66	0x3cde8721	0.027164044
67	0x3ceef1b5	0.02916799
68	0x3f28822d	0.6582363
69	0xbd0d61c0	-0.03451705
70	0x3d027e6b	0.031858843
71	0x3e44a27b	0.19202606
72	0x3bae01a3	0.0053102537
73	0x3f4d6d7d	0.8024519
74	0x3f337ce8	0.70112467
75	0xbdb85edf	-0.0900247
76	0xbda1a5fd	-0.07892988
77	0x3b877bab	0.0041346154
78	0x3bd1fa1d	0.0064079897
79	0x3f07d98b	0.5306632
80	0x3f0feda5	0.5622199
81	0xbe72e55d	-0.23720308
82	0xbe1800d8	-0.14844072
83	0xbc9699ef	-0.018383948
84	0x3e2e6fbb	0.1703481
85	0xbcc9a0fc	-0.024612896
86	0x3f078347	0.5293469
87	0x3f3b020d	0.73050004
88	0x3f034d1a	0.5128952
89	0x3e749765	0.23885877
90	0x3eda7e29	0.42674378
91	0x3ec766f6	0.3894574
92	0x3f504d83	0.81368273
93	0x3f1280c3	0.57227725
94	0x3f096d8b	0.53682774
95	0x3c81b9fd	0.015835756
96	0xbc1eb069	-0.009685614
97	0x3daf6414	0.0856401
98	0x3eb29bc3	0.34884462
99	0xbd32418a	-0.043519534
100	0x3eaac66c	0.3335451
101	0xbb8fd1bf	-0.0043890174
102	0xbd2993ee	-0.041400842
103	0x3da2af2c	0.07943568
104	0x3c09fe98	0.008422516
105	0x3eaa9332	0.33315426
106	0xbd076ad2	-0.033060856
107	0x3e06a0ec	0.13147324
108	0x3f0666d6	0.52500665
109	0xbc03f2e8	-0.008053519
110	0x3f4c0781	0.7969895
111	0x3ed7b627	0.4213116
112	0xbd547d8c	-0.051877543
113	0xbd4c49e4	-0.049875155
114	0xbe10b361	-0.14130928
115	0x3f3546ee	0.70811355
116	0x3f3190a5	0.69361335
117	0x3ead1cef	0.33811137
118	0x3d3c8081	0.04602099
119	0x3ea47e34	0.32127535
120	0x3c03aa37	0.008036188
121	0x3c192f4b	0.009349654
122	0xbc86b854	-0.016445316
123	0x3f0b4232	0.5439788
124	0x3f478fed	0.7795399
125	0x3f17e273	0.5932991
126	0x3c162b27	0.009165562
127	0xb9cdeebb	-0.00039278515
128	0x3d4e2b1d	0.050334085
129	0x3c825b67	0.015912725
130	0xbd46d2a1	-0.048540715
131	0x3e26042c	0.16212529
132	0xbe8ca632	-0.27470547
133	0xbb5a8f3a	-0.003334953
134	0xbeac01aa	-0.3359502
135	0xbd353afb	-0.0442457
136	0x3e400984	0.1875363
137	0x3d251c2c	0.04031007
138	0x3d5a6de3	0.053327452
139	0x3d6cff29	0.057860527
140	0x3e9b3788	0.30315804
141	0xbf897507	-1.0738839
142	0x3d854d52	0.06508888
143	0x3dae2b29	0.08504326
144	0x3cdc6fd6	0.026908796
145	0xbec989fa	-0.3936308
146	0xbe24a45f	-0.16078328
147	0xbd2a6a93	-0.041605543
148	0xbf61f304	-0.8826144
149	0xbf0f8e68	-0.5607667
150	0x3dd4bacf	0.103871934
151	0x3a5d77d8	0.0008448339
152	0x3e0d612a	0.13806596
153	0x3bbc134d	0.0057396055
154	0x3f09dce0	0.53852654
155	0xbdef6acf	-0.11690294
156	0xbf3348ce	-0.70032966
157	0xbdd4aa29	-0.10384018
158	0x3ddf79e6	0.10911922
159	0x3ea070eb	0.3133615
160	0xbf54d6ec	-0.83140445
161	0x3dab840c	0.08374795
162	0xbb80d272	-0.003931337
163	0xbf024b5c	-0.5089624
164	0xbbb9027c	-0.005646048
165	0xbf6e29c0	-0.93032455
166	0xbf253c11	-0.6454478
167	0xbf7819f7	-0.9691462
168	0x3ef3a561	0.47587112
169	0x3ddc02d1	0.10742725
170	0xbecbc624	-0.39799607
171	0x3d3c3498	0.045948595
172	0x3c3b06a3	0.011415157
173	0x3dbc651e	0.09198974
174	0xbfa24163	-1.2676204
175	0xbea9611e	-0.33081907
176	0x3cb4886f	0.022037713
177	0x3f089412	0.5335094
178	0xbbc2a5ba	-0.0059401663
179	0x3dcb20c5	0.0991836
180	0x3de2579c	0.110518664
181	0x3da985c1	0.08277465
182	0xbf94f5c4	-1.1637502
183	0x3ddd6171	0.10809601
184	0x3b76ef1b	0.003767914
185	0x3c986e09	0.018607156
186	0xbf348bfd	-0.70526105
187	0x3b6f1260	0.0036479458
188	0x3ec34852	0.38141114
189	0xbdb92e48	-0.090420306
190	0xbd92f23c	-0.07175109
191	0xbf3b2c7b	-0.73114747
192	0x3ca57c94	0.020201005
193	0xba8ec908	-0.0010893652
194	0x3d9bde6f	0.07610785
195	0x3dbfe9a3	0.093707345
196	0xbf797c71	-0.9745551
197	0x3cdfc163	0.027313894
198	0x3e01c4d0	0.12672734
199	0x3eb47e7c	0.3525275
200	0x3c883fb7	0.016631944
201	0xbf8bc198	-1.0918455
202	0xbf4edbb2	-0.8080398
203	0x3e09bd55	0.1345113
204	0xbccb30fb	-0.02480363
205	0xbc2838a2	-0.010267409
206	0x3e02c766	0.12771377
207	0x3f035bdf	0.5131206
208	0x3f4160f6	0.75538576
209	0x3ddb721f	0.10715126
210	0x3e71b53e	0.23604295
211	0x3d838429	0.06421692
212	0xbc93bca4	-0.018034287
213	0x3cfd2868	0.030903056
214	0x3e842e21	0.25816444
215	0xbfa223e6	-1.2667205
216	0x3f189ad3	0.59611243
217	0xbe1b9915	-0.15195115
218	0x3ea01cbb	0.3127192
219	0x3e7be49f	0.24598931
220	0xbcc0da35	-0.02354155
221	0x3f132f7e	0.5749434
222	0xbf63d40c	-0.8899543
223	0xbcd60c5a	-0.026128937
224	0x3c9c02a1	0.019044222
225	0xbdaa1d24	-0.083063394
226	0x3d03242c	0.032016918
227	0x3e1d8046	0.15380964
228	0xbd92d945	-0.07170347
229	0x3ca3d072	0.019996855
230	0x3d2c0d19	0.04200468
231	0x3e35424f	0.17701076
232	0x3ccaaebe	0.024741527
233	0xbcb95347	-0.022622718
234	0x3cdb8a88	0.026799455
235	0xbe0da569	-0.1383263
236	0x3eac6fe0	0.33679104
237	0xbbbd13f4	-0.005770201
238	0xbf82462b	-1.0177664
239	0x3f098eeb	0.537337
240	0xbc92270b	-0.017840883
241	0x3d9457d4	0.072433144
242	0x3e076093	0.13220434
243	0xbf81b2ab	-1.013265
244	0xbf5a5a8c	-0.85294414
245	0xbf1f4552	-0.6221515
246	0x3def27ec	0.11677536
247	0x3f095c42	0.536564
248	0x3d8c65ae	0.06855331
249	0x3d71d1f5	0.05903812
250	0x3df065c8	0.11738163
251	0xbf976f6b	-1.1830877
252	0xbf81b36f	-1.0132884
253	0x3d2616c7	0.040549066
254	0x3e170f66	0.14751968
255	0x3df9ac05	0.12191013

bias f4 [128]
0	0xbe5fc3d8	-0.21852052
1	0xbafeb615	-0.0019432927
2	0xbe93d293	-0.28871593
3	0x3b7cf02f	0.003859531
4	0x3c49ff51	0.012328939
5	0x3e637e10	0.22216058
6	0xbdb2db8a	-0.0873328
7	0xbda6d4db	-0.08146068
8	0xbe9dcbaa	-0.30819446
9	0x3e80abbb	0.2513102
10	0x3f08abcc	0.5338714
11	0x3dace512	0.08442129
12	0xbd13e24b	-0.03610448
13	0x3e86d4c6	0.26334208
14	0xbe5c8132	-0.21533659
15	0xbd8a1975	-0.06743137
16	0x3e25dff1	0.16198708
17	0x3ee57127	0.4481289
18	0x3e48057f	0.19533347
19	0x3e9eec82	0.31039816
20	0xbe9ab911	-0.3021932
21	0xbe3a81cc	-0.18213576
22	0x3e6a35cb	0.22872083
23	0x3c3c4366	0.011490678
24	0xbc2b8612	-0.010468977
25	0xbd47f888	-0.048821002
26	0x3d91bc9b	0.07116052
27	0xbda6d513	-0.081461094
28	0x3bedf475	0.0072618076
29	0xbe695b85	-0.22788818
30	0xbe80c197	-0.25147697
31	0x3d808bde	0.062766775
32	0x3d790ff4	0.06080623
33	0x3e7dea57	0.24796425
34	0xbccc533c	-0.024942033
35	0x3da288ba	0.07936235
36	0xbd817798	-0.06321639
37	0xbd41117f	-0.047135826
38	0xbd35316d	-0.04423659
39	0x3e9b6398	0.30349422
40	0xbe0e103c	-0.1387338
41	0x3eba2580	0.36356735
42	0xbdf83ad0	-0.121205926
43	0xbe3286cc	-0.17434233
44	0xbe57d9f8	-0.21079242
45	0x3dcea649	0.1009031
46	0x3e8107df	0.25201318
47	0x3ac3957d	0.001492187
48	0x3d86544a	0.065590456
49	0xbe01b1f6	-0.12665543
50	0x3e0a8b96	0.1352981
51	0xbeb83b00	-0.35982513
52	0xbe6750f0	-0.22589469
53	0xbe2f7c7c	-0.17137331
54	0x3d7bc1b6	0.061464034
55	0xbf039e7e	-0.51413715
56	0xbe9f275b	-0.31084713
57	0x3eafe4b5	0.34354177
58	0x3e7d0b55	0.24711354
59	0x3d78b8da	0.060723163
60	0x3dae083d	0.08497665
61	0xbe1fb36a	-0.15595785
62	0x3d67d30f	0.056597766
63	0xbe9796b1	-0.29607156
64	0x3ea70d91	0.32627538
65	0xbec70eb8	-0.38878417
66	0xbd57711d	-0.052598108
67	0xbea047d1	-0.31304792
68	0xbe12c134	-0.14331514
69	0xbe21af0d	-0.15789433
70	0xbd84e53d	-0.06489036
71	0x3d8dff47	0.06933456
72	0xbe972fe9	-0.2952874
73	0x3d8b4f3d	0.06802223
74	0x3d7b2140	0.061311007
75	0xbe43748f	-0.19087432
76	0xbdcef024	-0.10104397
77	0xbe50445e	-0.2033858
78	0x3e7822a6	0.24231967
79	0x3e5936ae	0.21212265
80	0x3d514c8a	0.051098384
81	0x3eeb2001	0.45922855
82	0x3c5d67a7	0.013513482
83	0xbe824671	-0.25444368
84	0xbc80812e	-0.015686598
85	0xbe8c6eca	-0.27428275
86	0x3e8b9e61	0.2726927
87	0x3e431132	0.19049528
88	0x3e47dd7f	0.19518088
89	0x3e1169bd	0.14200492
90	0x3dc465fa	0.09589763
91	0xbd003710	-0.03130251
92	0x3e7ad1be	0.24494073
93	0x3e022f14	0.12713271
94	0x3ebb15e3	0.36540136
95	0xbe75c11b	-0.23999445
96	0x3d5601a5	0.052247662
97	0xbc9c6a61	-0.019093694
98	0x3e000927	0.12503491
99	0x3ea3c650	0.31987238
100	0xbeae8555	-0.340861
101	0x3ce24ac4	0.027623542
102	0xbe1cc009	-0.1530763
103	0xbe3dfb8f	-0.18552993
104	0x3eab3bd7	0.33444092
105	0xbda35604	-0.079753906
106	0xbc0dabcf	-0.008646919
107	0x3d31bc2f	0.043392356
108	0x3e467446	0.19380292
109	0x3cbfad32	0.023398016
110	0xbafaaa93	-0.0019124321
111	0xbe5a0f6e	-0.21294948
112	0xbd8d3d58	-0.06896466
113	0xbe537232	-0.20649031
114	0x3ee50462	0.44729906
115	0xbda9888e	-0.08277999
116	0x3ebe5185	0.3717157
117	0x3ee46933	0.4461151
118	0xbd8c7255	-0.068577446
119	0x3e174ce7	0.1477543
120	0x3ea530f5	0.32263914
121	0xbc569b6f	-0.013098582
122	0xbe97140e	-0.29507488
123	0x3e9745e6	0.29545516
124	0x3c0f04c5	0.0087291645
125	0xbd3a9ae6	-0.04555788
126	0x3e186303	0.1488152
127	0x3de39579	0.11112494

weight f4 [8, 128]
0	0x3cda11b5	0.026619771
1	0xbf86efdb	-1.0541948
2	0xc023b537	-2.5579355
3	0xbf14b808	-0.5809331
4	0xbd7e1231	-0.062029067
5	0x3eb21d73	0.34788093
6	0x3dd9b813	0.106308125
7	0xbf83f76d	-1.0309883
8	0xc00e1a93	-2.220372
9	0x3e8fcf7c	0.28087986
10	0x3f8f738b	1.1207136
11	0x3df76551	0.120798714
12	0xbf79d916	-0.9759687
13	0xbea1b7c2	-0.3158551
14	0xc00066a6	-2.0062652
15	0xbf140636	-0.5782198
16	0xbe787e66	-0.24266967
17	0x3eca4018	0.39502025
18	0x3d6572c4	0.056017652
19	0xbeaf37a7	-0.34222147
20	0xbee5488a	-0.44781905
21	0x3be0bef9	0.006858703
22	0x3d3337c8	0.04375437
23	0xbc3ae7a8	-0.01140777
24	0xbf934014	-1.150393
25	0xbe5e7343	-0.21723656
26	0xbee1ae8b	-0.44078478
27	0x3d00c9cb	0.031442445
28	0xbee5b222	-0.44862467
29	0xbfd515d3	-1.6647285
30	0xc011697c	-2.2720633
31	0xbee60cac	-0.44931543
32	0x3e027ebf	0.12743662
33	0xbe9f509f	-0.31116197
34	0xbf83f1a5	-1.0308119
35	0x3e846570	0.2585864
36	0xbf0d999a	-0.553125
37	0xbf77ad44	-0.9674876
38	0xbf969387	-1.1763772
39	0x3e09afb0	0.13445926
40	0x3d04b841	0.03240228
41	0xbcb532db	-0.022118976
42	0x3c921fcb	0.017837426
43	0x3c8b3adb	0.016995838
44	0xbec686fc	-0.3877486
45	0x3f4da0bd	0.8032339
46	0x3ebc17b7	0.36736843
47	0x3f93ed6b	1.1556829
48	0x3d5b7d9e	0.053586595
49	0xbe0fb960	-0.14035559
50	0xbde901db	-0.11377307
51	0x3d0521d1	0.032502953
52	0xbfe4382e	-1.7829645
53	0xbf4077b5	-0.7518266
54	0x3de71245	0.112827815
55	0xbcff0fdf	-0.031135498
56	0xbff2577e	-1.893295
57	0x3da74ef8	0.08169359
58	0x3f1f1bda	0.62151873
59	0x3f0af3c4	0.54278207
60	0x3d0be28e	0.034151606
61	0xbeadc386	-0.33938235
62	0xbf0229aa	-0.50844824
63	0xc01e0373	-2.4689605
64	0xbd743bd1	-0.059627358
65	0xc0006721	-2.0062945
66	0xbf054ce1	-0.5207043
67	0xc00fa0dd	-2.2441933
68	0xbf153348	-0.58281374
69	0x3d2edc9a	0.04269085
70	0x3d3191e3	0.04335202
71	0x3df4be9a	0.11950417
72	0xbf125a43	-0.5716898
73	0xbd9306ab	-0.07179006
74	0x3f175e5a	0.59128344
75	0x3e145882	0.14486888
76	0x3edb2fd1	0.4280992
77	0xbeb7dba6	-0.35909766
78	0xbe2c97d5	-0.16854794
79	0xbe6bdbe7	-0.23033105
80	0x3d817965	0.06321982
81	0x3f347714	0.704942
82	0x3d1e8a31	0.03870601
83	0xc00b8868	-2.1802006
84	0x3c4e36e4	0.012586329
85	0xc0174046	-2.363298
86	0x3d9a1c49	0.07524926
87	0xbe94d1e2	-0.29066378
88	0xbea91841	-0.33026317
89	0xbea6936e	-0.32534355
90	0x3f44966f	0.76792043
91	0xbf7d7ec4	-0.99021554
92	0xbe01059a	-0.12599793
93	0xbe98d174	-0.298473
94	0xbe0a8fc7	-0.13531409
95	0xc0077958	-2.1167812
96	0x3d559e9f	0.052153226
97	0xbd947c0c	-0.072502226
98	0xbf2adbff	-0.6674194
99	0xbcf15c23	-0.02946288
100	0xbfe2765a	-1.7692368
101	0xbf8d8fbb	-1.1059488
102	0xbe9e3233	-0.30897674
103	0xbedb9869	-0.42889717
104	0xbe3e06f4	-0.1855734
105	0xbf555202	-0.8332826
106	0xbf7f2cc8	-0.99677706
107	0x3d99899d	0.07496951
108	0x3e30f667	0.17281495
109	0x3f4e6246	0.80618703
110	0xbf01a89f	-0.5064792
111	0xbf1b2506	-0.6060337
112	0xbef40457	-0.4765956
113	0xbfe6b771	-1.8024732
114	0xbf004e30	-0.50119305
115	0xbe562d26	-0.2091566
116	0x3f1efbda	0.62103045
117	0x3f297939	0.66200596
118	0xbef42323	-0.47683057
119	0x3c741cb6	0.014899423
120	0xbeaa6dbf	-0.33286855
121	0xbf080a89	-0.53141075
122	0xbff7ac5c	-1.9349475
123	0xbe763cb8	-0.240466
124	0x3da9addd	0.08285115
125	0x3d694b88	0.056956798
126	0x3e911327	0.28334925
127	0xbf1738c0	-0.5907097
128	0xbe227498	-0.1586479
129	0x3e1f8050	0.15576291
130	0xbc74546f	-0.014912709
131	0xbf331727	-0.699572
132	0xbf855e00	-1.0419312
133	0x3dadf9d9	0.0849492
134	0xbf11261e	-0.5669879
135	0x3e0351e5	0.12824209
136	0xbbbe90ed	-0.0058156163
137	0x3ee1a267	0.44069216
138	0x3e91189e	0.28339094
139	0x3e579471	0.2105272
140	0x3e26f869	0.16305698
141	0xbf9ebfae	-1.2402246
142	0x39d2e196	0.00040222396
143	0x3dcd3281	0.100193985
144	0xbf813096	-1.0092952
145	0xbf38b045	-0.72143966
146	0xbecaa8d4	-0.3958193
147	0xbfa9d612	-1.3268454
148	0x3cc8e041	0.024520995
149	0xbdff9fca	-0.12481649
150	0xbe876227	-0.26442072
151	0xbd69f154	-0.057114914
152	0x3e26275b	0.1622595
153	0xbffa67f3	-1.9562973
154	0x3ffb424d	1.9629608
155	0xbf8fba0e	-1.1228654
156	0x3ff86a0f	1.9407367
157	0xbae51d83	-0.0017480109
158	0xbbaa20d5	-0.005191902
159	0x3ffaaf84	1.9584813
160	0x3e41438d	0.18873425
161	0xbf35f355	-0.7107442
162	0x3e054794	0.13015586
163	0xbe392116	-0.18079028
164	0x3e67ac7a	0.22624388
165	0x3e093917	0.13400684
166	0x3e1b1d23	0.15147834
167	0xbd205932	-0.039147563
168	0xbf938391	-1.1524526
169	0xbfb38f4a	-1.4028103
170	0xbf9480af	-1.1601771
171	0xbe1a6a11	-0.15079524
172	0x3ef8df52	0.4860788
173	0xbfd4d4dc	-1.662746
174	0xbfc514d8	-1.5396986
175	0x3e8100d4	0.25195944
176	0xbfc16896	-1.5110042
177	0xbe6c45c1	-0.23073484
178	0xbea49aba	-0.32149297
179	0xbf8ef675	-1.1168963
180	0xbb844335	-0.004036332
181	0xbfb60eb9	-1.4223243
182	0xbdf19842	-0.11796619
183	0xbfc2707d	-1.5190579
184	0xb9613060	-0.00021475693
185	0xbf1efa9e	-0.6210116
186	0xbfc79d89	-1.5594951
187	0x3f0d0671	0.55087954
188	0x3d69d6c3	0.05708958
189	0xbf1fc005	-0.62402374
190	0x3ff56946	1.9172752
191	0xbbc9798c	-0.0061485227
192	0xbf540ce3	-0.82832164
193	0xba7fba52	-0.0009755242
194	0x3f27dc7c	0.6557081
195	0xbc4789ad	-0.012178821
196	0xbf1a0435	-0.6016267
197	0xbf8fb1de	-1.1226156
198	0xbbeb4ee3	-0.007181035
199	0x3da0ffb6	0.07861273
200	0x3f524861	0.8214169
201	0x3e30b19b	0.17255251
202	0xc047a559	-3.119467
203	0x3d825648	0.06364113
204	0x3e774e92	0.24151066
205	0xbd91b83e	-0.071152195
206	0xbf81a616	-1.012881
207	0xbf661b69	-0.89885575
208	0xc01d05bc	-2.453475
209	0xbfbb8252	-1.4649146
210	0xba18bbb3	-0.0005826309
211	0xba42e66c	-0.0007434848
212	0xbeca3d4d	-0.39499894
213	0xbc008449	-0.007844039
214	0xbf8a9c26	-1.0828903
215	0xbf2354bf	-0.6380119
216	0xbf1aa168	-0.60402536
217	0xbf441fcc	-0.7661102
218	0x3f03681f	0.5133075
219	0x3dea9b27	0.11455374
220	0xbfa6dd8e	-1.3036363
221	0xc0389677	-2.8841836
222	0xbfa08815	-1.2541529
223	0xbc5b043c	-0.013367709
224	0xbf0b7baa	-0.5448557
225	0xbf842a89	-1.0325481
226	0xbfdb1107	-1.7114571
227	0xbf28387b	-0.6571118
228	0xbbf47d3f	-0.0074612196
229	0x3e386f2c	0.18011159
230	0xbf1ba58a	-0.6079947
231	0xbe2bfb61	-0.16795112
232	0xbfa83881	-1.3142244
233	0xbfff05d8	-1.9923658
234	0x3e24bee5	0.16088445
235	0xbf3effc9	-0.7460905
236	0xbe5f52e1	-0.2180896
237	0xbf635f9d	-0.8881777
238	0xbf091928	-0.5355401
239	0xbfbcdc62	-1.4754755
240	0x3ecb4ae7	0.39705583
241	0x3ab1f1cb	0.0013576088
242	0xbfa86096	-1.3154476
243	0x3da5e306	0.08099942
244	0xbfbb6a29	-1.4641773
245	0x3ea064e6	0.3132698
246	0xbf1eb73d	-0.6199835
247	0xbf1f1194	-0.621362
248	0xbfa79a0f	-1.309389
249	0x3efd2165	0.4943954
250	0xbb293d8a	-0.0025824034
251	0xbfbadf1b	-1.4599336
252	0xbf89d683	-1.0768589
253	0xbf9fe5be	-1.2491987
254	0xbf89ee7e	-1.0775907
255	0xbf60afe5	-0.87768394

bias f4 [8]
0	0x3ff5a79c	1.9191775
1	0x3f3a04a5	0.72663337
2	0xbf50cfbb	-0.8156697
3	0x3fb7df64	1.4365048
4	0xbf57465f	-0.8409175
5	0x3fe8337a	1.8140709
6	0x3f3bf530	0.73421
7	0x3fe30b53	1.7737831
