models/model_conv_gyr_lacc.pkl (torch, 155007 bytes, 10 tensors)

weight f4 [16, 1, 5]
00000000: 4320 173e 215a 9dbf f6de 393f 32f9 6b3e
00000010: 243c 19bc 27c8 f7be 7100 b7bf 349d 433f
00000020: 0079 0e3d fc45 e2bc 725d 3f3e cce9 b43e
00000030: 7491 113f fdb6 3c3e 67ba 1dbf 8cc5 49be
00000040: b026 e7bd d8fe 42bf f785 713e 64ee 5d3e
00000050: e621 40bf 5738 183f b798 99bf 8be0 17bd
00000060: a203 37bc 386a 843f 2b4c 97be e159 283f
00000070: 0f3b 533d 0e92 7e3d 9b06 bc3e bb35 263d
00000080: 223b 013d 08fc 013d 8a75 843f e96e febe
00000090: fcb6 243e e11e 343f 2412 e9be a320 aebe
000000a0: bc98 62be 2645 a3bf 922b d0be e146 edbd
000000b0: be61 bbba d9e6 51be bf28 1a3f 686c 743f
000000c0: 3596 1b3a 9669 743e 52cd f73d 36a1 0c3f
000000d0: 323f 49bf 018b 2c3e 359f 9ebd c913 a83d
000000e0: db01 103f d4bd 403f fd4c 0ebc 5e24 a0be
000000f0: c484 47bf b52b 95bf 3c39 b63d f11f 68bc
00000100: 5626 41be c6f4 b6bf 7747 82be 019f 233f
00000110: 8d4a 023c 2d85 49bd dcc6 953e 0517 46bf
00000120: 3e60 823f aefd aabe b5ef 453e 0d1b d5be
00000130: 8e7b 4a3f 033c 4e3f 9ea0 6a3d ee90 863d
0.147584 -1.229313 0.72605836 0.23044279 -0.009352718 -0.48394892 -1.429701 0.7641175
0.034783363 -0.027621262 0.1868799 0.35334623 0.5686257 0.1842918 -0.6161255 -0.19704264
-0.11286676 -0.7617011 0.2358626 0.2167297 -0.75051725 0.5946097 -1.199973 -0.037079375
-0.0111703 1.0344915 -0.295503 0.65762144 0.051569995 0.062151007 0.3672379 0.040578585
0.031550534 0.031734496 1.034837 -0.49693993 0.16085428 0.7035962 -0.45521653 -0.34009275
-0.22128576 -1.2755477 -0.40658242 -0.11585785 -0.0014296097 -0.20498218 0.60218424 0.95477915
0.00059351634 0.23868403 0.120997086 0.5493349 -0.78612053 0.16849901 -0.0774521 0.08206899
0.5625283 0.75289655 -0.008685348 -0.31277746 -0.7793696 -1.1653963 0.08897635 -0.014167772
-0.1886228 -1.4293449 -0.25445148 0.63914496 0.007952345 -0.049199272 0.2925328 -0.77378875
1.0185621 -0.33396667 0.19329722 -0.416222 0.7909478 0.8056032 0.057282083 0.06570612

bias f4 [16]
00000000: f494 0bbd 4526 cf3e ed37 a3be 61a8 0d3f
00000010: f44a 883e fa51 743e 5b12 c0bd 0653 dabe
00000020: b1b1 dd3e b13d a03e e9f1 463e c40f dd3e
00000030: a137 5bbe 5576 e03e 61bc 4fbe 500e fe3b
-0.0340776 0.40458885 -0.31878605 0.5533505 0.26619685 0.23859397 -0.09378501 -0.42641467
0.4329963 0.31297067 0.19428219 0.4317609 -0.2140794 0.4384028 -0.20286705 0.007753171

weight f4 [64, 16, 3]
00000000: f2a7 51be 31f3 2cbe eff1 4abd b689 dcbd
00000010: 0643 53bd 5b73 733d 6081 1fbe fee2 b2bd
00000020: fe30 f3bd faa3 1d3e e262 373e fe2f 0b3e
00000030: 0751 6a3d b32a 1abe b36d 66be ee50 e9bd
00000040: 3eba 913c 0bbc f33b 0907 3dbe b997 f8bd
00000050: e5d7 1ebe 9cc4 d93d 5b85 8bbe 5af9 05be
00000060: cbca 10be 9c4b 7abe 6591 483d 6c43 e43d
00000070: f73f 6d3d 926c 2cbe 7987 633e 5471 233e
00000080: 0a3f 0ebe 8545 993d 25f9 22be 7447 13be
00000090: 26d9 9dbe 71cf c139 bd42 0f3e 5867 573b
000000a0: f6d4 22bc d610 6a3e 1805 fdbc 04f7 0abe
000000b0: c3f6 2c3e 363e 383e 55a8 583e ef63 853b
000000c0: 540d 0abe 94f9 193e 0a9d 55bd a15b 6b3e
000000d0: 1d8d 623e d419 cb3e c616 853d 0fbc 28be
000000e0: 8850 9fbd 6c57 313e ca35 ee3c cc99 423e
000000f0: 841e 073e 7f90 e0bd 9397 35be 1dee ce3d
00000100: 2803 143e 356c b03c 7da6 8f3c 84db 15be
00000110: b499 0dbd 719c 2fbe 79a7 87bd 0ce7 b4be
00000120: d9ab 3c3e 9808 ddba 42d1 f13d 3954 fcbd
00000130: ac79 3cbd 18e4 77be 4e3c 05be 968a 16bc
00000140: 53e6 a5bd cfe3 ddbd c763 90bd d3e4 9e3c
00000150: f16f 813e 912b 8e3d 0687 bd3e e9ca d93c
00000160: 2bfc 443c 80d8 9a3d 9a84 92bd 4495 debd
00000170: e2b1 a3bd 97e9 c5be 508f e4be 15c0 32bf
00000180: 5c00 c73c d8c0 663d 4c76 82bd ae63 073e
00000190: 23b2 a13d 56e2 053e e2c6 64bd aee6 603d
000001a0: 2ba8 f73d 834c 72bc fdda 89bd d44f d1bd
000001b0: 9caa 8ebe 9491 69bb dd55 d7be 2c26 713d
000001c0: 0ec5 033d 06b7 0d3e 4936 d8bc 9b68 443e
000001d0: 8921 963d 3e0d 88bd b3b2 1b3e 8c87 d23c
000001e0: 6ac5 ff3d 7af3 5bbe 69b5 a2bd 23e4 0d3e
000001f0: ab43 263e 70c9 1c3d 2d5b a23d a445 3abe
00000200: 820c 51bd 1708 273e e4a4 6a3e 6ab3 423e
00000210: 68fe 9cbd eb55 f93d fa8b ecbd 2964 84bd
00000220: 7aa6 6dbd d4ad e8bd 3a28 9f3a eac3 57bd
00000230: 0bb9 8b3e dade 8f3d 7f58 3f3e 9d3c 1e3d
00000240: efe8 233e 4cc9 c3bc 5785 033e 95dd 98bd
00000250: 843f f6bd 932b feba 4e14 30be b143 673d
00000260: 431f 063d 7940 debc 1f94 8fbc 8d48 6fbd
00000270: 85f1 36be f732 ca3c 9442 68be 1c29 33bd
00000280: b625 d73d bd96 173e 5cb1 58be f286 afbd
00000290: c0c6 03be e87a 68be 1d47 11bc 2e2f 9fbd
000002a0: 0ff2 10be 1896 a5be c3ac 8bbe c314 35bd
000002b0: 58c7 853e 4b45 8c3e e95a d9bd ed62 cabd
000002c0: 5f3b 32bd 67c2 1a3c de74 263c b2a0 a43d
000002d0: 803a 3dbe 7591 38be 75f7 04be 023c 2fbe
000002e0: 240c a03c fd94 e83d eb92 e0bc a78e 61bc
000002f0: b88a 7b3e a6ee e1bd c803 9e3e 8084 433e
00000300: d877 8d3d 7a1a 7dbe 2f14 923d 0e21 013f
00000310: 076c 953e cfb8 b73e 8c33 59bb e8a6 7dbd
00000320: 3fca 10be 78ce 7c3d c08d 013e 0509 3e3b
00000330: f9ce 01be 5cb6 96be a5c5 70bc 7aa5 94bc
00000340: 1e71 0c3d adc8 2c3c 13e5 963c 340d 3abd
00000350: 5ab6 06be bca2 bf3d 6e9e 563d d328 07be
00000360: fa6c 2fbd 2717 88be 9386 a33c c5a8 23be
00000370: 28d0 e9bc 8b13 903d 765b 0abe edd5 993d
00000380: 1d81 823d 2d83 f4bd 3a2f 9bbd e989 32be
00000390: a561 b83e d24a b7bd 0b1a a13d 3ed7 803e
000003a0: 5c32 a63d f40d 503e 3f93 b2bd 2108 35be
000003b0: f540 30be b1cf 9ebe 235c 1b3e d316 5ebe
000003c0: 50c8 073e ba27 083d e578 fbbd 25ff 3cbe
000003d0: 18b2 8dbe ca15 83be a2f7 27be 2976 32be
000003e0: ebf8 e03c e163 703e b464 643b 6968 b2bd
000003f0: 1799 bb3d 979f 923e 0859 003f d174 fdbd
-0.20474222 -0.16889645 -0.049547132 -0.10768454 -0.05157759 0.059436183 -0.15576696 -0.087347016
-0.11874579 0.15394583 0.17908815 0.13592526 0.05720618 -0.15055351 -0.22502784 -0.11392389
0.017789003 0.007438188 -0.18459715 -0.12138314 -0.15512045 0.106332034 -0.2725018 -0.13083401
-0.1413986 -0.24442905 0.048966784 0.11145672 0.05792233 -0.16838291 0.22219647 0.159612
-0.13891235 0.07483963 -0.15915354 -0.14382726 -0.30829734 0.00036966385 0.13990302 0.0032867994
-0.009938469 0.22857985 -0.030886218 -0.13570791 0.16891007 0.17992482 0.21157964 0.004070751
-0.13481647 0.15036613 -0.052151717 0.22984172 0.22124143 0.39668143 0.06498484 -0.16477989
-0.07779032 0.17318505 0.029078383 0.19003981 0.13195235 -0.109650604 -0.17733602 0.1010401
0.14454329 0.021535972 0.017535442 -0.1463452 -0.03457041 -0.17149521 -0.0662374 -0.35332525
0.1842493 -0.0016863523 0.11807491 -0.12320752 -0.046014473 -0.24208105 -0.13011286 -0.009188315
-0.081005715 -0.10834467 -0.07050281 0.019396221 0.25280717 0.069419034 0.37017077 0.026586013
0.012023012 0.07560825 -0.07154198 -0.10868314 -0.07992913 -0.38654777 -0.4464059 -0.69824344
0.024292164 0.056336254 -0.063702196 0.13221619 0.07895305 0.13074622 -0.055853732 0.054907493
0.12092622 -0.01478875 -0.06731222 -0.10220304 -0.2786454 -0.003563975 -0.42057696 0.058874294
0.032170348 0.13839349 -0.026393073 0.19180529 0.07330615 -0.06643151 0.15204887 0.0256994
0.124888256 -0.21479598 -0.079447575 0.13856559 0.16236751 0.038278043 0.07927547 -0.18190628
-0.05103732 0.1631168 0.22914463 0.19013754 -0.07665712 0.12174591 -0.11550136 -0.064644165
-0.058020093 -0.1136128 0.0012142726 -0.052677073 0.27289614 0.070249274 0.18686102 0.038632024
0.16006826 -0.023899697 0.12843834 -0.074641384 -0.120238334 -0.0019391648 -0.17195246 0.05646104
0.032744657 -0.027130352 -0.017526684 -0.0584188 -0.1786557 0.024682505 -0.22681648 -0.043740377
0.1050524 0.14803596 -0.21161407 -0.08570661 -0.12868786 -0.22703135 -0.008867052 -0.07772671
-0.14154838 -0.32341075 -0.27280244 -0.044209253 0.2612865 0.27396616 -0.10613043 -0.0988215
-0.043513652 0.009445763 0.010159699 0.08038463 -0.18479347 -0.18024237 -0.12985022 -0.17112735
0.01953704 0.11356542 -0.027413806 -0.013766921 0.24564636 -0.11031847 0.3086226 0.19093513
0.06907624 -0.24717131 0.07132756 0.5044106 0.2918398 0.35883185 -0.0033142297 -0.061926752
-0.14139651 0.06172034 0.1265173 0.0028997075 -0.1267661 -0.29436004 -0.01469556 -0.018145312
0.034287564 0.010545892 0.018419778 -0.045422748 -0.13155499 0.09357211 0.052397184 -0.13199167
-0.042828538 -0.26580164 0.01996163 -0.15982349 -0.02854164 0.070349775 -0.13511452 0.07511506
0.06372283 -0.11939082 -0.07577367 -0.17435421 0.36011997 -0.08949818 0.078662954 0.25164217
0.08115074 0.20317823 -0.08719491 -0.17678882 -0.17212279 -0.3101783 0.15171866 -0.21688394
0.13260007 0.03324101 -0.12278918 -0.18456705 -0.27674937 -0.2560256 -0.16403058 -0.17427887
0.027462443 0.23475601 0.0034850063 -0.08711321 0.09160059 0.28637382 0.5013585 -0.123757966

bias f4 [64]
00000000: 39c2 07bd 1aa9 1c3e 14ad 0b3c daad 47be
00000010: fdba 4b3e be78 083d d988 83bc b956 97bd
00000020: cbc7 99be 42c5 8cbd c9dd ec3d 9046 0d3e
00000030: 2099 29bd a2ce 4a3c 2131 09be e43d fc3d
00000040: 8733 d03c 0355 f03d 6383 283d 0f53 593d
00000050: 47f1 b63d ca75 d3bb 9f69 0b3e a1a9 c5bd
00000060: 1384 f4bd a5f5 07be e0da 66be 63b0 893d
00000070: 6725 093e a80b 283e 0595 7d3d b28d a33c
00000080: 16aa 943d 8534 4e3c 68f1 d13d bf24 1c3e
00000090: f140 d73d 21ca ea3c 31f4 25bd b7df e8bd
000000a0: 0afa b53d cf8e a5bd 1371 9fbd 6f6b 0b3e
000000b0: b261 413b 211e c83d dff2 7bbd 93fd ba3d
000000c0: b9e4 403e e9bd eb3d dd82 6bbe 464d 033d
000000d0: fc48 043e 2e13 6a3d 5c71 85be c0b3 f1bd
000000e0: 7fe4 4c3d c983 213d 6a94 813e 9efc 713e
000000f0: 51d6 893d 4829 3dbd 46c9 663e 1787 3e3d
-0.03314421 0.15298882 0.008525152 -0.19499913 0.19895549 0.033318274 -0.016056465 -0.07389588
-0.30035242 -0.068735614 0.1156574 0.13796449 -0.041405797 0.012378367 -0.13397647 0.12316492
0.025415195 0.11734965 0.041140925 0.053057726 0.08932739 -0.0064532505 0.1361451 -0.09651495
-0.11939254 -0.132773 -0.22544432 0.06723096 0.13393174 0.16410697 0.061909694 0.019965027
0.07259004 0.012585764 0.10251123 0.15248393 0.105104335 0.028660836 -0.040516082 -0.11370795
0.08885582 -0.08083879 -0.07785239 0.13615201 0.0029507694 0.09771372 -0.061510917 0.09130397
0.18837251 0.11510832 -0.22999139 0.032056116 0.12918466 0.057147197 -0.2606305 -0.11801863
0.0500226 0.03943232 0.25308543 0.23631522 0.06730331 -0.046181947 0.22537717 0.04651555

weight f4 [128, 128]
00000000: d3f5 71bd 4cea 63bc 744b 233e 4b5f 81be
00000010: 691f 853d 23ad 0e3d e99d 90bd 389e 5c3d
00000020: 4539 ab3d 377d 1fbe 5c67 0abe c892 29bd
00000030: 7a9a 68bd cbe6 bebc 95ff 053d 72e9 37bc
00000040: b063 94bd e64c 04bd 33ad c83c 4a4c 543e
00000050: 59d4 943d 36e2 90bb 5d3b 3d3d 1ec2 203d
00000060: 3958 c7bd d9dd 2bbc 0d86 8c3d 0312 12bd
00000070: 17b4 8e3d 2a03 04bf 5c03 893c 0377 e23d
00000080: c0ae d2bd 26ec 00be 8e41 0bbd dfb1 913d
00000090: 1a95 f4bc 23d9 9cbd 482c 2cbd 9005 b13c
000000a0: 512a 60bd 5082 803d 572c d5bc 80ae 38bc
000000b0: 2840 3a3d 9ecc dfbd 8307 b23c 7bad c7bc
000000c0: 9ff8 493d b292 b23d 0b2b f63d 453b 8dbe
000000d0: f173 00be 76a8 07be cea7 033d 909f 293e
000000e0: cf76 6dbe 77f9 b8bc 0a69 4f3d 3c9f 94bd
000000f0: 1907 e13d 19e4 06bd 8e94 a0bd cf74 40bd
00000100: 8c4e fabc 9b68 2e3d 89e9 033b 6bcc ec3c
00000110: cb11 cd3c 1aff 01be 2246 29bd 038e 42bd
00000120: a491 bdbc cb25 243c 7484 533c c33c 28be
00000130: 2f34 31be 159b c9be 1726 b53d b4af b4bd
00000140: 40af bf3d 49e0 563d 05f7 283d 15de a63b
00000150: 53d7 443d e7e4 50bc 028c 08be 779d 97bd
00000160: 7c46 41bd 1735 8cbd 48c6 b8bc 95bd b4bd
00000170: c887 be3c fa7b 0b3d a61a b4bb 2832 843d
00000180: 9622 033e 7cb7 acbd 61f3 aabd 75fc c73d
00000190: 6cdf 5cbd 5a7b dc3d fc05 0c3d 0ef6 a8ba
000001a0: 6030 a43b 9fe3 e7bc c588 cb3d d0f6 2dbd
000001b0: 91d0 083d 0c66 48be d4f7 693d d5ab d6be
000001c0: f548 ba3d 3063 97be 1553 08be b7fb b4bc
000001d0: 8c49 cf3d 1519 3a3d 52d8 8f3d 5b71 30be
000001e0: 9489 61bd 677c c73d c45a 38bd 245b 01be
000001f0: 80b1 363d d259 b53d a1a1 3f3d 1fda 0a3e
00000200: 1517 23be ee91 233c 63bc 0dbe 68a5 33bd
00000210: a285 f6be 3013 dbbd 3979 b1be fd63 ecbc
00000220: abfd dbbe 5959 9abc c60d 9b3e 208f 363d
00000230: 2a1b 89be 98e7 1cbd 87e3 53bf a10f 843e
00000240: 3f49 483d 1c7f be3e 678a 413e d2c6 5cbd
00000250: f572 353d 2d62 6cbd 36e2 99bd 0b25 d13c
00000260: c2c5 093d ee92 90bd 9936 62be c6eb 8a3d
00000270: dc51 5dbc 20d7 adbd 5e17 a53d 9a9e 96bb
00000280: 1b66 43be 69a5 bbbb 0c4f 69be aaac 84bd
00000290: 5644 fc3e eec4 6f3d f1c9 543e ce45 513e
000002a0: 9046 823e e1d1 b83b 8ded 0ebe fd4a 77b9
000002b0: eb54 abbe b269 fbbd bb5a f7be 8043 933d
000002c0: 84cf 693e bc31 91bd aa56 00bd bf4c b8bd
000002d0: ac77 23be d919 503d d89c 00bf 0961 59bd
000002e0: 5adb e9bc 9c1b ab3d 7105 ce3e 3cca f23c
000002f0: b6cd 95be 4659 d7bd 6561 1bbe 4b59 5abd
00000300: e6f9 a0be 68bc 823c a70c 6b3e d844 923c
00000310: d91b 37bf a385 e3bd 042f 35ba eed0 413d
00000320: d94a a5be 87d6 84bd ef51 083f ce4f ef3d
00000330: 4084 0b3e 0352 073e 2d4a 4bbe a567 663c
00000340: cca1 813e 42a2 b23d f248 24bf 18f1 07bc
00000350: b4cc 91bd d9b1 e73b 2494 293d 7fdc 0cbd
00000360: ba52 2d3f 052b f63c 70d0 5cbf c45a ffbc
00000370: d1a4 7e3e e884 0b3d ebbe 5d3e 5996 2e3e
00000380: 3380 0ebe d205 9c3c c8cb 18bf 2501 2d3e
00000390: 2aa8 443e e3e2 a3bc 0c4f 44be 3568 3bbb
000003a0: 06c4 cbbe 96e6 6a3e dd9d 40be 838c dabb
000003b0: 34d0 f33d f7eb d33d 1c03 a3bd 7686 5abd
000003c0: 11cf 41bd 2fe7 0d3c 549f a9bd 5659 f8bd
000003d0: fa37 34be 7945 9fbd 6d4f 4b3d 611e a9bc
000003e0: b098 20be e329 7bbd 4058 a2bd 3fc4 19bd
000003f0: 47ff b2bd 6bb9 663e 1c21 2bbe 8b59 fa3c
-0.059072327 -0.013910841 0.15946752 -0.25268015 0.06500132 0.034833085 -0.07061369 0.053861827
0.08360533 -0.1557511 -0.13515991 -0.041399747 -0.056787945 -0.02330341 0.032714445 -0.011225091
-0.072455764 -0.0322999 0.02449665 0.20732227 0.072670646 -0.0044214977 0.04619919 0.039247625
-0.09733624 -0.010489904 0.06861506 -0.03566171 0.06967943 -0.5156733 0.016725235 0.11057856
-0.10287237 -0.12590083 -0.033998065 0.07114004 -0.029856253 -0.07658603 -0.042034417 0.021609098
-0.054727856 0.06274855 -0.02602212 -0.011272073 0.04547134 -0.109276995 0.021732097 -0.024374714
0.04930937 0.08719386 0.120199285 -0.27584282 -0.12544228 -0.13247856 0.032142453 0.16564775
-0.23189853 -0.022579892 0.050637282 -0.07256934 0.10987682 -0.032932375 -0.078408346 -0.046986397
-0.030555032 0.04258023 0.0020128211 0.028906068 0.025032898 -0.1269497 -0.04132665 -0.047498714
-0.023140736 0.010018776 0.012909997 -0.16429429 -0.17305063 -0.3937613 0.08845156 -0.08822575
0.09359598 0.05245999 0.0412512 0.005092392 0.04805691 -0.012749887 -0.13334659 -0.07403081
-0.04718636 -0.068460636 -0.022555485 -0.088252224 0.023258105 0.03405378 -0.005496341 0.06454879
0.12806162 -0.08433434 -0.08347202 0.09764949 -0.05392401 0.10765715 0.034185395 -0.0012890713
0.0050106496 -0.02830678 0.09938196 -0.042471707 0.03340203 -0.19570178 0.057121113 -0.41927972
0.09095947 -0.29567862 -0.13312943 -0.022092683 0.1012145 0.045434076 0.07023682 -0.17230742
-0.055062845 0.09740525 -0.045008436 -0.12632424 0.04460287 0.088550225 0.046785 0.13559769
-0.15926774 0.009983523 -0.13841395 -0.043858916 -0.4814883 -0.10697019 -0.34662798 -0.028856272
-0.4296697 -0.018841432 0.30283946 0.04457009 -0.26778537 -0.038306803 -0.82769054 0.25793174
0.048897978 0.37206352 0.18900453 -0.053900547 0.044299085 -0.057710815 -0.075138494 0.025530359
0.033635862 -0.070592746 -0.2209114 0.067832515 -0.013508286 -0.084882975 0.080610976 -0.0045965435
-0.19081919 -0.0057265055 -0.2278406 -0.064782456 0.49270886 0.058537416 0.2078016 0.20436785
0.2544446 0.005640254 -0.13957806 -0.00023583691 -0.33463225 -0.12276019 -0.4831141 0.07190609
0.22833067 -0.07089564 -0.03133265 -0.08999013 -0.1596362 0.0508059 -0.50239325 -0.053071056
-0.028546978 0.083548754 0.40238526 0.029637448 -0.29258507 -0.105150744 -0.15173872 -0.053307813
-0.31440657 0.01595898 0.22954045 0.017855093 -0.7152687 -0.111094736 -0.0006911608 0.04731839
-0.32283667 -0.0648623 0.5325002 0.116851434 0.13624668 0.13214879 -0.19852515 0.014062797
0.25318754 0.087223545 -0.64173806 -0.008297227 -0.07119122 0.0070707616 0.041401044 -0.03438997
0.67704356 0.03004981 -0.8625555 -0.03117121 0.2486756 0.034062296 0.2165486 0.1704954
-0.13916092 0.019045744 -0.59685946 0.16894968 0.19204774 -0.020005649 -0.19170779 -0.0028596048
-0.39797992 0.22939524 -0.1881022 -0.0066695823 0.11904946 0.10347741 -0.079595774 -0.05335089
-0.047316615 0.0086610755 -0.082823426 -0.121264145 -0.17599478 -0.07776923 0.049636293 -0.020644369
-0.15683246 -0.061319243 -0.079269886 -0.03754067 -0.087400965 0.22531669 -0.16711849 0.030560276

bias f4 [128]
00000000: f91e dbbc a6d7 3bbe 4941 a43d 7d75 743d
00000010: 2bb5 083d 377a da3c 80c6 c33b 92a8 bcbd
00000020: fa59 9abd c239 8b3d ec0a 9f3c 50f5 d73d
00000030: e48f 153d 9d5c 653d 5408 833c d356 d43d
00000040: 98e1 06bd 2729 483d 058e 00bd 633a fabc
00000050: c538 433d a6cf eb3d e8ef 8e3d df65 ddbd
00000060: feb8 ab3d c0bc 02be 55a1 ee3d 2a29 a5bc
00000070: 0d80 bd3d 466c 69bb eac2 283c f4f2 023e
00000080: 7ed4 b3bd cfcb 22bd 1fff 0a3d 673b ca3c
00000090: 2d3d 893c f976 d23d b8a9 8abc 56ee 64bd
000000a0: 7bac a5bc 03dc 64bd 36dc 893d a448 1bbd
000000b0: bca5 803c d11f f63d e3ec 0e3d be3e b63d
000000c0: 0057 263d 7cdf 09bf e1c4 9c3c d350 81bd
000000d0: 4f04 c83d 3c1b 8f3d 2769 593d af2e b0bd
000000e0: 077c 94bd 1bcf 763d e1ad 133d 0a69 643d
000000f0: cd1e 163d 600d 87bc 8ec0 fabc 0544 913d
00000100: 563c 5fbc 2a75 193d 8139 1bbd 75bf 693d
00000110: 9931 1d3e d4c9 603d a327 cb3d 3134 c7bc
00000120: 4c43 e6bc 2894 07bd 144b 9dbc 336e 383d
00000130: 7129 8abd 0381 2fbd 0221 283e 5c01 06bd
00000140: 7f57 7ebc fbf4 1dbd fbaa 0b3e 7cad 1bbd
00000150: 95b9 54bc b509 01bd f1ab 863d 1c0b 2b3d
00000160: b790 d2bc d1ed 9b3d ad31 cc3c 02e9 9fbd
00000170: 0810 c33a 0195 793c 3c80 563d e058 793d
00000180: 44c8 88bd 00fb b63d 51e4 79bd b219 c33c
00000190: 7eb2 a33d 1088 0bbd 4475 a4bd b093 93bd
000001a0: d11c 493d 5002 d9be 5628 0f3d bdac 64bc
000001b0: d138 c23d b37a 31bd 0e1f b43d 2b94 b93d
000001c0: 8298 713d 0336 7dbd 066e 853d f2f4 43bd
000001d0: 6554 3a3d 7f7a e83d 73b7 193d 3c22 10bc
000001e0: f488 d53d 93d8 6dbd b3d6 113c 24df d43c
000001f0: 335c 283d 09ee 8abd bc2c 18bd 2d3c 9e3d
-0.026748167 -0.18343982 0.08020265 0.059682358 0.0333759 0.026669605 0.005974591 -0.0921184
-0.07536693 0.06798126 0.019414388 0.105448365 0.036514178 0.055996526 0.015995182 0.10368123
-0.032929987 0.04886737 -0.03138544 -0.03054542 0.04766156 0.11514215 0.06979352 -0.10810446
0.08384894 -0.12767315 0.116518654 -0.02016123 0.092529394 -0.0035617515 0.010300377 0.12787992
-0.08780764 -0.03974515 0.03393471 0.024686528 0.016752804 0.102765985 -0.016926631 -0.055891357
-0.020223847 -0.055873882 0.06731455 -0.037911072 0.015704028 0.12017787 0.03489388 0.08898686
0.040610313 -0.53856635 0.019136848 -0.06314244 0.09766447 0.069876164 0.053078797 -0.08602654
-0.07250219 0.060256105 0.036054496 0.055764236 0.036650468 -0.01648587 -0.030609395 0.07093052
-0.013625225 0.037465252 -0.037896637 0.057067353 0.15350951 0.05487998 0.099196695 -0.024316879
-0.028108262 -0.033100277 -0.01920084 0.04502697 -0.067461856 -0.042847645 0.16418841 -0.03271614
-0.01552379 -0.03856371 0.13639443 -0.038007244 -0.012983699 -0.031503398 0.06575764 0.04175864
-0.025703771 0.07613719 0.024926031 -0.078081146 0.0014882097 0.015233279 0.052368388 0.060875773
-0.06678823 0.08934593 -0.061008755 0.023815963 0.07993029 -0.034065306 -0.08030179 -0.072059035
0.049099747 -0.42384577 0.034950577 -0.0139572 0.09483493 -0.043329906 0.08794986 0.09061464
0.058983333 -0.061819088 0.06515126 -0.04784102 0.04549064 0.11351489 0.037528466 -0.008797225
0.10426512 -0.05806787 0.008901286 0.025985308 0.041103553 -0.06783683 -0.037152037 0.07726321

weight f4 [128, 128]
00000000: c206 093e 5ee3 423e 84d4 153c c87f b73d
00000010: 3f66 f4b9 1abe f63e d06b d03c 8f9a bfbd
00000020: a04a d4bd ef74 b73d df18 24bf caf3 923e
00000030: af60 213f 9bd1 e43d b9cf 4cbe 0da1 613e
00000040: d609 ddbd 628c c6bb 6ef2 02be 3f75 1b3d
00000050: 7204 e43e c55e f63b 9f0e 5a3e ad17 3bbe
00000060: 74fb 8c3e 6720 24be d69d ccbc 9097 adbe
00000070: 1105 acbc b16d cb3c ce0b 073e 4ec4 5cbd
00000080: 9ff4 48be 29a3 56be d335 42bd 5949 573d
00000090: 4e6a 23bc 6df5 ab3d 30cc 793e 0540 463e
000000a0: 2adb 853e 24ee 8d3d 38ba 073e 51cd 2b3e
000000b0: a6e6 b0bb 11de dc3e 9254 17be f5b0 e83e
000000c0: 32db a73e aa52 90bd 1769 223f db0b 9e3e
000000d0: 097b 593c b383 233d e8fb 5fbe 052a 96be
000000e0: e38e 083e d55c 57be 62f2 0b3c 0ed6 e53e
000000f0: 354f 483b 7124 8a39 5a71 75bb 82d9 a23c
00000100: ffb6 3c3b 8721 303c d7e8 28bf abd3 acbe
00000110: 7a9a fc3e da3d 9e3e 10a2 c43e 11cc 6f3e
00000120: 89f2 bcbe 5cab 013f 58e9 143e 6a98 9f3e
00000130: f916 f03e aab8 893d c9d8 fe3e 096d 693f
00000140: 497f 763d 2ecc 623b eb95 5b3c 2206 943d
00000150: 9ecd 853e ca5c 33be a2b2 27bf a697 1ebd
00000160: 485f 883e fc31 953e 0fd1 3b3e 129d 3d3e
00000170: e223 893e 5b27 f5bb e95d 3d3e 6c3b b7bd
00000180: 92b3 d53d bc05 413d 4b8d 2cbf f57e a6b8
00000190: 1e08 f1bb 1dd6 9bbd 538f 103c ec0e 13bd
000001a0: 9b95 683e 196d a1bd 0f7b c23e 69e1 fd3d
000001b0: 1aad 23be 5065 a1bc 290f 9f3e 7148 173e
000001c0: 3da2 043f d48c 1b3e 0ab3 cb3e cda5 2abd
000001d0: 8001 f33e 9a91 61bd fa5b e73e 0202 4e3e
000001e0: 6ea1 2d3e ee25 743e 160b ca3e c205 223d
000001f0: 86e5 383e 0776 1abc 522c 78be dca9 ca3e
00000200: c7a4 9dbe 4330 243e 18e6 eb3d efbe 25bf
00000210: 6bbc a83d ec98 39bf bc5f be3d ea62 753e
00000220: 82bc 923e 6c82 933d b375 843f 3a74 45be
00000230: 0217 a4be 2ef6 473e ac0e cb3e f291 91be
00000240: 4bc5 1f3e d1e2 123e 439a a13e a3a2 07be
00000250: f773 173d eb45 73bd dd26 c1be 14e0 9e3e
00000260: c632 e4be 75f7 c43d 570c 9ebd 211d 773e
00000270: e266 343d bfa7 a33d e9e8 6d3b 6fde 32bd
00000280: 25b3 143f 7b0b e5bc bb6f 493e 1e92 043d
00000290: 69ed f23d d79d a73e d0b4 e0bd 41a0 2abe
000002a0: 2676 05be d1b1 51bd 4d64 16be 9c58 33be
000002b0: 456d 1d3e 7b0c 33bf 41a8 573e b274 3bbf
000002c0: a232 cdbe 618c a13e 5fdb 00bf 5ede 243e
000002d0: 4558 753d 64b2 ff3d bbb1 01bb 8dac 8e3d
000002e0: 3a4c 623e bd49 c93d 2a18 b5bd b595 b4be
000002f0: d40f 35bc 49bc 553d affd 2a3d 6387 bd3d
00000300: 92d5 8e3d 22e7 b43c 6ea1 8d3f 04f8 a6bd
00000310: 8cb1 17bf 6850 24bf afc5 34bf b602 f8bd
00000320: 66d8 cc3d 6c4a 07be bcb1 733e 41a2 0cbe
00000330: 34f3 0bbc 3d2c 82ba 4b13 3abf 094c 15bd
00000340: 3166 d7be 840f 87bb d1d0 053c 97e4 19be
00000350: d675 293e 1c15 6e3e 07a7 7d3f 7de5 a83d
00000360: a921 253e aca0 ccbc 7dff 68be c3be cfbd
00000370: dc17 e2bd 9180 933d 92e8 e1be 4a48 853e
00000380: e1a0 963e 94ab 933e a9cc 853f b38a 993e
00000390: 8552 3b3d 3cf9 ccbc 265a 6d3d 134e 2d3b
000003a0: 6f5e 74be a592 ba3e 620f 12bf d2f2 49be
000003b0: e13d e5be 7e66 933e d17b d43d ec0b d23e
000003c0: cf54 d4bd bfc0 c43d 3ef9 f0be 67c4 b4bc
000003d0: f309 55be f282 8a3e 1dd3 9fbd 185d 6d3c
000003e0: 6cc1 a2be 2e22 29be 2e81 84be 0e38 20bd
000003f0: f579 01bf ce9b 8b3d 295f 27bd ba82 b8bd
0.13381484 0.19032046 0.009144906 0.08959919 -0.00046615486 0.4819191 0.025442034 -0.093556516
-0.10365796 0.0895785 -0.6410045 0.2870162 0.6303815 0.111727916 -0.20001115 0.22034092
-0.10792892 -0.0060592154 -0.12787792 0.03795361 0.44534642 0.0075186216 0.2129464 -0.1827075
0.27535594 -0.16027986 -0.024977606 -0.33904696 -0.02099851 0.024832578 0.13188097 -0.05389815
-0.19624566 -0.20960678 -0.047414612 0.052560184 -0.0099740755 0.08396421 0.24394298 0.19360359
0.2614377 0.06930187 0.1325463 0.1677754 -0.005398589 0.43138173 -0.14778355 0.45447508
0.3278442 -0.07047017 0.63441604 0.3086842 0.013273963 0.03992052 -0.21873438 -0.29328933
0.13335757 -0.21031506 0.008541675 0.44889873 0.003056479 0.00026348562 -0.0037451596 0.019879106
0.0028795598 0.010750181 -0.65980285 -0.3375524 0.49336606 0.30906564 0.38404894 0.23417689
-0.3690379 0.506521 0.14542139 0.3117097 0.46892527 0.06724675 0.4977477 0.91182
0.060179982 0.0034606564 0.013402442 0.07227732 0.26133436 -0.17515865 -0.6550695 -0.038718842
0.26635194 0.29139698 0.18341468 0.18516949 0.2678519 -0.007481498 0.18492855 -0.08946881
0.10434641 0.04712461 -0.67403096 -7.9391444e-05 -0.007355704 -0.07609198 0.008823234 -0.035902902
0.2271332 -0.07882137 0.3798451 0.12396509 -0.15984002 -0.01970163 0.31066254 0.14773728
0.51810056 0.1519044 0.39785033 -0.041662026 0.47462082 -0.055070497 0.4518736 0.20117953
0.16956112 0.23842594 0.39461583 0.039556272 0.18056306 -0.009427554 -0.24235657 0.39582717
-0.30789778 0.16034035 0.11518496 -0.64744467 0.08239063 -0.72498965 0.09295604 0.23963514
0.28659445 0.072026104 1.0348419 -0.19282618 -0.32048804 0.19527504 0.3965963 -0.2843166
0.15602605 0.14344336 0.31563005 -0.13245635 0.036975827 -0.05939285 -0.37724963 0.31030333
-0.44569987 0.09617511 -0.077171974 0.24132206 0.04404343 0.079909794 0.0036302155 -0.04366916
0.5808585 -0.027959576 0.19671528 0.03236591 0.11861689 0.3273761 -0.10971987 -0.16662695
-0.13033351 -0.05119497 -0.14686699 -0.1751427 0.15373714 -0.6994092 0.21060278 -0.7322494
-0.40077692 0.31552413 -0.50334734 0.16100451 0.059898634 0.12485197 -0.0019789774 0.06966505
0.2209939 0.098285176 -0.088424996 -0.35270467 -0.011051137 0.052181516 0.041745838 0.092543386
0.06974329 0.022082869 1.106489 -0.08152774 -0.5925529 -0.6418519 -0.7061414 -0.12109892
0.10002212 -0.13211983 0.23798269 -0.1373377 -0.008541871 -0.0009931397 -0.7268569 -0.036449466
-0.42070153 -0.0041217227 0.0081674615 -0.15028606 0.16548857 0.2325024 0.9908299 0.082468964
0.16126122 -0.024978958 -0.22753711 -0.10143807 -0.11039707 0.072022565 -0.4412275 0.26031715
0.29419616 0.2884184 1.0453082 0.29988632 0.045732994 -0.025021188 0.0579473 0.002644424
-0.23864149 0.36440006 -0.5705472 -0.19721535 -0.44773772 0.28789133 0.103751786 0.4102472
-0.103677385 0.09607076 -0.47065157 -0.022066308 -0.20804577 0.27053028 -0.078039385 0.014487527
-0.31788194 -0.16516945 -0.25879806 -0.039115958 -0.50576717 0.06816827 -0.040862236 -0.09009309

bias f4 [128]
00000000: 05e8 35be 4129 ad3d b582 c73d 1362 fa3d
00000010: ade7 0e3e d1bd 773e 0fb3 49be 7a75 1ebd
00000020: 66a4 403d 5e35 943d dca1 c93d d953 cc3d
00000030: 4349 0abd 13e6 cd3e 1e83 37be 2495 063e
00000040: c995 843c 66e5 39bd 9e27 82bd a7fa ce3e
00000050: 8328 81be 5cdb 4dbd f1df 623e 07ba f83d
00000060: 1d1b f23d d71c bcbe 414b 713e 3197 fe3e
00000070: 1a7e d43d 79c6 613e 4d6f 45be bb46 633d
00000080: 2512 bb3e 6323 d73c 3890 123e dfdf fe3d
00000090: d101 04bd a03f 21bd d1f6 de3d 656f c6bd
000000a0: 5992 573b 8657 853e 2cdf 4bbc 27c9 c03e
000000b0: 2a27 e1bd ba62 3f3e df43 d4bb 4011 c8bd
000000c0: 4f49 2cbe 21b5 92be d2e3 5ebb bc52 cc3c
000000d0: 42d0 023d 6925 5c3d cdc6 293c 93fb 50bd
000000e0: 54cc bdbc 5675 133e 714f 91bc 28ec 90bd
000000f0: e005 713d 8048 34be 2ff2 ae3d 6a0e 733d
00000100: 2e6f a23c 672e 513e 767e 483d c588 0ebe
00000110: 3677 e03d 3188 78bd 7d4b d53d 1c71 be3d
00000120: d395 8d3d 84e0 8cbe 3dfa 99bd ec21 ec3e
00000130: 6145 b13d 3848 a13d 356d 40be 0df1 06be
00000140: 1857 08be f6c3 2f3e b48a bf3d 53c4 823d
00000150: f1e3 173e c11f 46be 5c91 8a3d 5010 de3c
00000160: 27e0 263e 9fd6 583e 443f ee3d aecc 4ebd
00000170: eb7e 8bbe 00ab 093d 163a c53a 4ba5 a53d
00000180: 4bd8 a7be 344e 8cbd 2076 03be 81fd fbbb
00000190: e792 453d 879f bb3e b5e3 343d 4632 87be
000001a0: 1d42 a93d bcfa f33d a459 d13c 96f2 fb3d
000001b0: 6a4c a5bc 0957 123e bba9 8abe f66c 393e
000001c0: 11a9 8e3d 5b69 acbe fa91 033c 13b0 50bd
000001d0: 51e9 07bd 69af 883d 1373 96be 0508 2e3e
000001e0: 7602 b53d 2e30 d33d d980 8cbe e0d4 973d
000001f0: a005 e23c 1ed7 bdbd 9d09 2e3c 2d69 94bc
-0.1776429 0.08455134 0.09741727 0.122257374 0.13955565 0.24193503 -0.19697212 -0.038686253
0.047031783 0.072367415 0.09845325 0.0997693 -0.033761274 0.40214595 -0.17921111 0.1314283
0.016184704 -0.045384787 -0.06355213 0.40425608 -0.2522622 -0.050258026 0.2215574 0.12144857
0.11821578 -0.36740753 0.23563863 0.49724725 0.103756145 0.22048368 -0.19280739 0.055487376
0.3653728 0.02626199 0.14312828 0.12445044 -0.032228295 -0.03936732 0.1088692 -0.096892156
0.0032893626 0.26043338 -0.012443345 0.37653467 -0.10993798 0.18690005 -0.0064778174 -0.09768915
-0.1682484 -0.28653815 -0.0034010303 0.024941795 0.03193689 0.053746615 0.010362339 -0.05102117
-0.02316872 0.14400229 -0.017738076 -0.07076293 0.058843493 -0.17605782 0.085422866 0.05933992
0.019828405 0.20427857 0.048948728 -0.13919361 0.10960238 -0.060676757 0.10414789 0.09298918
0.06913342 -0.27515042 -0.07518432 0.4611963 0.08655811 0.07875103 -0.18791659 -0.13177891
-0.13314474 0.17164597 0.093526274 0.06385102 0.14833046 -0.1934805 0.06766006 0.027107388
0.16296445 0.21175621 0.11633161 -0.050488167 -0.27245268 0.033610344 0.0015047218 0.08088168
-0.32782206 -0.068508536 -0.1283803 -0.007690132 0.0482358 0.36645147 0.04416247 -0.26405543
0.08264563 0.11913058 0.02555544 0.12302129 -0.020178039 0.14291014 -0.2708262 0.18107972
0.069658406 -0.3367413 0.008030409 -0.050949167 -0.033181492 0.06674082 -0.2938467 0.16995247
0.0883836 0.10311924 -0.27442053 0.074136496 0.027590573 -0.09269546 0.010622409 -0.018116558

weight f4 [8, 128]
00000000: 6dd6 c53c 14f5 5fbf e62a 0e3e 1172 49bf
00000010: 3589 0cbe a825 8bbd a5e7 a6bf dd99 183e
00000020: 576e 273f 1349 9bbd 05e1 65bf 5f28 983c
00000030: 8bfe 13bf 1203 753f 4cac c2bf 1c18 4fbe
00000040: bc46 973b 00d3 9dbd 0309 03be 9706 63bf
00000050: deec dfbf 01a1 49be 5d29 8d3d d549 1dbe
00000060: 34ad 27be d40a 263c 9ec8 64bd 5a9c 7a3f
00000070: e437 56bf 5202 3c3c 1f16 8bbd c9fc a7be
00000080: ee3a 153f 5edb 02bf 5f49 ebbd bc69 f0bd
00000090: 25bf edbd 0d61 0cbf 36a1 b0be d141 0ebe
000000a0: 53b2 90be 1ba8 193f 021c 493d d42d b93e
000000b0: 3294 743c 38bc 9cbd a991 143f e207 5f3d
000000c0: 8c38 5f3d b166 dfbf ef1d 753d d358 74be
000000d0: 9586 e03b 37fe bebe 6765 42bd 2aec 98be
000000e0: 1150 1fbf 0320 56bf 0a08 19be b6f2 ce3d
000000f0: 3759 10bf a90f 923b de7f 72be 7e00 56bf
00000100: 20c4 f4bd 0f4d 253d fa3a 87be de6f c9bc
00000110: 65b2 e3be 8f7c 2f3c 66b7 48bf 475b fbbd
00000120: f0ff 27bf 9c52 b8bf adbf 80bc f4c8 1dbf
00000130: 8882 41bf f572 e2bd 1d98 b8bf 6852 0a3e
00000140: 52fd 33be b6fa e3bd 9084 dabe 1ed7 61bd
00000150: adcd f8be 0165 373b 25e2 833c 671a 1fbf
00000160: e906 c93d ab91 b43c 7a01 193f 6bfe b2be
00000170: e56b e7bf 8337 0ebf a810 15bf a0b2 ec3d
00000180: ff73 ecbf d9cd e3be 8afc 873b 0b30 f03d
00000190: f544 16bf e785 4abf 0d29 b5be d067 e2bf
000001a0: 10fe d3bc 9d5e 1cbc 2e3b a03d ddb8 2bbf
000001b0: 4771 37bf eed8 a2be 0e77 c3bf 7a4b d6bd
000001c0: 852b 66bf bda2 eabf 5284 80be 58e7 ea3e
000001d0: 1563 2b3d 9e7c 40bf 6dde e1bf 24f6 54bf
000001e0: e02e 81be ab0d d6bd 8a24 303b 4db5 c43b
000001f0: 9161 483c 0610 393d b4f9 023e f093 d53c
00000200: 8ed9 dabf 2fd3 5d3d b8bc 22bf 08cf e13d
00000210: 037b 16bf 5210 163f 3d96 dabc 95a4 8e3e
00000220: fc41 22bf cd80 68bf d2ff 5e3d 8c65 b6bd
00000230: 910b 50bf 3a25 b23e 9354 9dbc df36 40bf
00000240: 184c f0bd b9e4 f0be 336c 0cbf a454 d73f
00000250: 3856 f5bc 8acc 3b3b 1af2 653d 8fff 41bf
00000260: 843f 24bf 3814 7cbf 5246 0b3f 63c5 b03e
00000270: 0726 373d 63b6 14be 2d80 42bf 96e5 b03c
00000280: c146 463f fccb cc3e f63b 27bf 4fba 0ebf
00000290: a840 e13e ec34 f6bd 60ca bfbe d0dd e5bf
000002a0: 15bf f73e 353b 643e e71c a3bf cf6d 3f3f
000002b0: 4af0 debf e054 2dbf 0b3b cabe 7c71 93bf
000002c0: b638 89bf e5af f43b 3e45 a6bf 8871 b9bd
000002d0: a35a 74bf 9ec8 2fbf 60cf 1dbf ae7e 873d
000002e0: 2a2e 16bf 5862 803d efc4 753c 8f8d dfbf
000002f0: 4df2 00be 1645 e3bf 16f2 d4be e991 8e3d
00000300: 8617 4dbf 8ba3 c73e f6fb a7be dd7b 2eba
00000310: 12bf 17bf e496 0ebf 57fe afbd adb5 51bf
00000320: a931 e5bd b38f 18bc a4b3 28bf 9903 4f3e
00000330: d421 e23d 55bb 32bd f83d 5f3d 4088 4cbe
00000340: c7e6 27bf 08ae b23e 2d33 25bf 9ab4 4ebf
00000350: be77 2dbf 47b4 90bf 389f 36bf 5105 c23e
00000360: 8aae acba 7849 c63e 05fa 04bf 5494 63be
00000370: fe63 8cbd bb4c 2b3e c07d 93bd 9dfb a93c
00000380: d5b4 f2bc 72de a2be e00b dabf 3bcc 45bd
00000390: ea3f ae3d 5038 563e f3e5 a1bd 2c86 90bc
000003a0: 52ce 47bf 879c 0fbf 64ed 8dbf 2d3c 3f3d
000003b0: 7042 73bd 9457 19bf b2d5 71bd 4876 66bf
000003c0: a203 023f 2636 e0bb 29ae 713e 2574 e8be
000003d0: e324 95be 9c3d 093d fdca d2bd c405 4d3d
000003e0: dfa0 003e 0e5b 8abe 8b57 d2bf e266 1bbe
000003f0: d787 37bf 2d73 cebf 5348 60bf 77e8 a4be
0.024150098 -0.87483335 0.13883552 -0.78689677 -0.13724215 -0.06794292 -1.3039442 0.14902444
0.6540274 -0.07582297 -0.8979648 0.018573938 -0.57810277 0.9570781 -1.5208831 -0.20224041
0.0046165865 -0.07706261 -0.12796406 -0.8868193 -1.7494161 -0.19690324 0.06892655 -0.15360196
-0.16374665 0.010134418 -0.055855386 0.97894824 -0.8367903 0.011475163 -0.06791329 -0.32810047
0.58293045 -0.5111598 -0.11488604 -0.11738917 -0.116087236 -0.5483559 -0.34497994 -0.13892294
-0.2826105 0.60022134 0.049098976 0.36167777 0.014927911 -0.076530874 0.5803476 0.054450877
0.054497287 -1.7453214 0.059843 -0.23862009 0.006851981 -0.37303326 -0.047459986 -0.2986768
-0.62231547 -0.83642596 -0.14944473 0.10104887 -0.5638613 0.0044574332 -0.2368159 -0.835945
-0.119514704 0.040356692 -0.26412183 -0.024589475 -0.44472042 0.010710849 -0.78404844 -0.12273269
-0.65624905 -1.440021 -0.015716398 -0.61634755 -0.755898 -0.110570826 -1.4421421 0.13507998
-0.17577103 -0.11131804 -0.42679262 -0.055136792 -0.48594418 0.0027983787 0.016099045 -0.6214966
0.09815771 0.022042116 0.5976788 -0.3495973 -1.8079802 -0.55553454 -0.5822854 0.115575075
-1.8472899 -0.44492987 0.004149978 0.117279135 -0.5869897 -0.7911057 -0.35382882 -1.7687931
-0.025877982 -0.009544042 0.07823788 -0.67078954 -0.7165722 -0.3180613 -1.5270708 -0.10463615
-0.89910156 -1.8330914 -0.25100952 0.45879626 0.04184254 -0.7519015 -1.7646004 -0.8318808
-0.25231075 -0.10451826 0.0026877248 0.006003058 0.012230293 0.045181297 0.12790567 0.026071519
-1.7097642 0.05415648 -0.6356921 0.11025816 -0.5878145 0.5861865 -0.026682967 0.2785994
-0.63381934 -0.90821534 0.054443188 -0.08906087 -0.8126765 0.34794027 -0.019205367 -0.75083727
-0.11733264 -0.47049502 -0.548526 1.6822705 -0.029948339 0.002865585 0.05613909 -0.75780576
-0.6415942 -0.9846835 0.54404175 0.34525594 0.044714 -0.145227 -0.7597683 0.02159385
0.7745171 0.39999378 -0.6532587 -0.55753034 0.4399464 -0.12021813 -0.37459087 -1.7958317
0.48387972 0.2228821 -1.2743195 0.7477693 -1.741708 -0.67707634 -0.3949817 -1.1519008
-1.0720432 0.0074672573 -1.2989881 -0.090548575 -0.954508 -0.6866549 -0.61644554 0.06615959
-0.5866419 0.062687576 0.015000566 -1.7465075 -0.1259243 -1.7755458 -0.41590947 0.06961424
-0.8011402 0.3899196 -0.32809418 -0.00066560303 -0.59275925 -0.5569899 -0.08593433 -0.8191784
-0.111911125 -0.009311604 -0.6589911 0.20216216 0.110416085 -0.043635685 0.054502457 -0.1997385
-0.65586513 0.348984 -0.64531213 -0.80744326 -0.6776084 -1.1305016 -0.713367 0.3789468
-0.0013174575 0.38727927 -0.51944 -0.22224551 -0.068550095 0.16728489 -0.07201719 0.020749861
-0.029627243 -0.31810337 -1.7034874 -0.048290472 0.085082844 0.20919919 -0.079051875 -0.017642103
-0.78049195 -0.56098217 -1.1088071 0.046688247 -0.05938953 -0.5989926 -0.059041686 -0.9002423
0.50786793 -0.0068423925 0.23601593 -0.4540111 -0.29129705 0.03350602 -0.10292623 0.050054327
0.12561367 -0.27022594 -1.6432966 -0.15175965 -0.7169165 -1.6128899 -0.8761036 -0.32208607

bias f4 [8]
00000000: b15b c43f 9d6e c43f 7e42 bbbf a526 b73e
00000010: 0f26 313e b612 c53f d4bc b23e 08bb 103f
1.5340482 1.5346256 -1.4629667 0.3577167 0.17299674 1.5396335 0.3490969 0.5653539
